result/saved_models/regression/trained_params_mean_setcover-independentset-combinatorialauction_asymmetric_firstsol_k_prime_epoch22.pth (torch, 261063 bytes, 28 tensors)

cons_embedding.0.weight f4 [64, 1]
00000000: 9ed5 ce3d 390f f5bc e858 1abd 3952 06bd
00000010: 57da 5dbd 7d4e 7ebd 5e47 bcbd d6cf 22bd
00000020: b7a2 6f3d 40b9 cf3d 4f80 41bd d8ee 8d3d
00000030: 8786 833d 7cb5 65bd 3b65 d7bc b179 14bd
00000040: 0727 7d3d a9c6 a23d 169d 6a3d 4262 24bd
00000050: 4e88 c5bc 3005 bf3d 190a 46bd b6f7 d33d
00000060: 4ca0 683d 4fef 90bc 51c4 3b3e 352d 863d
00000070: 9935 573d fbf6 5d3d d094 3cbd ccb6 6f3d
00000080: 769a 2dbd 6ac2 2cbc 04b4 19bd bd8c ba3d
00000090: c28e f3bd ca85 afbd b78b a8bd c988 3bbd
000000a0: ed7d cf3d 4365 7b3d 14d8 0dbc 5e09 883d
000000b0: 4c4f c7bd b75c 793d c99b 08bd 1857 b1bc
000000c0: 595e d8bc f641 1bbd 3d10 bc3d 8631 92bd
000000d0: b159 c33d c072 a3bd 8fc0 afbc c795 3dbd
000000e0: 8860 9a3d 3f31 583d fd9a 9dbd 4d8b dabd
000000f0: 4399 3abd 939d e2bc 2844 573d 68a7 9ebd
0.10099338 -0.029914485 -0.037682444 -0.032793257 -0.054163303 -0.06208657 -0.091933 -0.03974899
0.058504786 0.101427555 -0.047241505 0.069303215 0.064221434 -0.05608128 -0.026293388 -0.036248866
0.061804798 0.07948048 0.057278715 -0.04013277 -0.024112847 0.09327161 -0.048349474 0.103499815
0.056793496 -0.017692236 0.18336608 0.06551591 0.05254135 0.054190617 -0.046040356 0.058523938
-0.042383634 -0.010544399 -0.037525192 0.09108875 -0.11892463 -0.0857044 -0.082297735 -0.045784745
0.1013144 0.061375868 -0.008657474 0.06642412 -0.097319216 0.060879435 -0.033351693 -0.021647975
-0.026412176 -0.037904702 0.09182785 -0.07138352 0.09538592 -0.07980871 -0.021454124 -0.046285417
0.07537943 0.05278134 -0.07695577 -0.10671101 -0.045556318 -0.027663028 0.052555233 -0.07746774

cons_embedding.2.weight f4 [64, 64]
00000000: 424a 703d 6987 423d 4ba0 e03c 8e39 d4bc
00000010: ec24 693b 3aca 2bbc 52d7 243d c3ad 24bd
00000020: a421 103d 001b 8f3d 03df 153d 4673 553d
00000030: 443b 653d ed37 ed3c 62f7 9abb 6974 6e3c
00000040: b9f7 653d 3214 653d 545f 6d3d 6f67 473d
00000050: d4b0 843c 1b54 a13d c44c 54bb a86c 4b3d
00000060: fa13 263d ce26 523c 5bc9 8b3d 4097 003d
00000070: f9a7 503d 1f92 8d3d 96a1 a5bc b622 253d
00000080: a894 13bd 19eb 373c 6dd2 613c 250e e43c
00000090: 1f6c 4bbd 46f5 f4bc 16dc 32bc 4f37 933c
000000a0: bed2 473d 2471 843d 49f8 b8bc 7264 2e3d
000000b0: ddba 02bd 71fa 9c3d 86c5 313d 9530 1abd
000000c0: 0316 c73b cbaf edbc 3836 a43d d032 163d
000000d0: b7ad 233d 882c 3ebd f3c2 e23b 5ee6 743c
000000e0: 1ea0 e63c eeb9 1b3d ab76 613c 8691 4d3c
000000f0: e18d f1bc 5498 8ebc fcfb da3d 528d 8a3b
00000100: a743 6c3d dd3a cabc 29bf ccba 1513 78bd
00000110: dcb2 17bd eae4 793c f10d ab3c afad ae3b
00000120: 8314 453d 58ae e93c 3192 02bd 7643 9438
00000130: 9d69 163d a839 29bc 3026 b23c 73de 123d
00000140: 483e 153d e6a3 933d 39aa 513d b06c 943c
00000150: 96ce 8d3c d3af d23d 55b0 39bc 942c 8b3d
00000160: 9082 3e3d 3285 3abd 88c0 3e3d 04c5 8e3d
00000170: abb7 e63c c831 5d3d aa4a 12bd 5b72 243d
00000180: 7a88 07bb a531 d4b9 01f0 233c 634f b43d
00000190: f3d4 483b 1a8a 843c f36a 54bd 55f2 193d
000001a0: f245 4a3d 081c 1b3d 2b97 3b3c c1a5 a53d
000001b0: f0d4 e9bb cb67 aa3d 76be ccbb 6b17 4a3c
000001c0: f8a1 143c 49a8 c03c 1da4 8d3d aab6 ec3c
000001d0: ef29 433d 5d24 9dbc eb5e a3bc 7384 b5bb
000001e0: 116a 9d3d 5475 b83c 556a 6ebc b7ae 8fbc
000001f0: 1d59 5bbd 7f62 af3c 7479 503d d851 d7bc
00000200: b175 343d c1e1 573d 8917 343d c731 85bc
00000210: 22d4 263d f868 1b3d a0be f33c 298c c13c
00000220: 3903 35bb dd4c 60bd 83b7 cf3c 1520 963b
00000230: 0342 3b3c af3a 063d 0698 ea3c 0698 973c
00000240: 4763 2cb9 893a a0bc 69d3 e73b f3de 4a3d
00000250: f4a7 233c 685f cb3c 47d2 1f3d 9169 cbbc
00000260: 8738 6c3c 22c9 3fbc 5e3f 9a3c c8be 7f3c
00000270: 8c12 273d 021d b2ba 84aa a53d fd11 1abb
00000280: 7823 f93c 4234 723a d7c2 a43c 8c3c dbbb
00000290: 9fed 6f3d 9420 863d 5884 013c 3cd3 033d
000002a0: 696d 4abc 47ba 483b 3586 bb3b f68e 74bb
000002b0: 8961 3b3d a146 8fbc a1f9 0d3b adc9 1fbd
000002c0: 3625 2d3d 5c91 f63c 5cbb 143c 68bf 233d
000002d0: 56f5 58bc 2842 9b3c 7ef9 6dbc 975d 0cbc
000002e0: da3b 2bbd 279b e1bb a0ac 9d3c b184 bd3c
000002f0: 78f8 963c d27e 8939 44f9 e2bc 7f38 a73d
00000300: 3bbf d6bc 6b46 983c ae74 563c 2b42 3c3b
00000310: f50a 203b e482 793a ab40 06bd 0960 e73b
00000320: 78e3 12bd 5f06 90bc 890e a9bc 4fb4 24bc
00000330: b5f2 8a3c 71e4 c93b 8c73 eaba c1c3 e0bc
00000340: de6a 94bc c743 4ebb 5e84 9c3c 029b 4cbc
00000350: ddd0 babc 1739 92bc 8ac0 07bd a537 9abc
00000360: 4d25 01bc 5608 bcbc 1bc6 943c 7395 16bc
00000370: bb19 8ebc 39a3 d5bc d3f9 0d3c c15f 303c
00000380: 4f7e e23c 9b4b e3bc 6dc8 6ebd 16ea 1fbd
00000390: f7e6 bdbc c90f 14bd 3948 6d3c 5394 f63c
000003a0: 15a2 66ba bb97 603d dda4 d93c 3ff9 2ebb
000003b0: f302 a63c e812 193d cc86 883c fb64 80bc
000003c0: d695 2b3d e07b 1bbc 3bc2 593d 43e8 e23c
000003d0: fbd9 8c3b 5b5a a93b 29aa cb3a 2699 673b
000003e0: 1f86 16bb 2f32 123b 8724 d7ba 6e72 a8ba
000003f0: 5d68 e0bc a793 ec3b 0342 7dbc 60cd f83b
0.058664568 0.04749242 0.027420184 -0.02590635 0.0035574986 -0.010485226 0.040244408 -0.040204775
0.035188332 0.06987572 0.036589634 0.052111886 0.055964723 0.028957332 -0.0047291974 0.0145541215
0.05614445 0.055927463 0.05795224 0.048682626 0.0161976 0.0787737 -0.0032394389 0.04966417
0.040546395 0.012826635 0.06825515 0.031394243 0.05094144 0.06912636 -0.020218652 0.040316306
-0.03603044 0.011225485 0.01378308 0.027838776 -0.04966366 -0.029902112 -0.01091673 0.01797071
0.048784964 0.06466892 -0.02257933 0.04257626 -0.031916488 0.076649554 0.043401264 -0.037643988
0.006075622 -0.029014489 0.08018154 0.036669552 0.03996059 -0.046429187 0.0069202124 0.014947502
0.028152522 0.038019113 0.013761203 0.0125469025 -0.029486598 -0.01740662 0.106925935 0.0042282725
0.057681706 -0.024686271 -0.0015620935 -0.060565073 -0.037035808 0.015252331 0.020880671 0.0053307633
0.048115265 0.028525516 -0.0318777 7.0697555e-05 0.036721814 -0.010328688 0.021746725 0.035856675
0.03643635 0.072089955 0.051187728 0.018118232 0.017310422 0.10287442 -0.011333545 0.06795612
0.046511233 -0.04553718 0.04657033 0.069711715 0.028163752 0.054002553 -0.035715736 0.04014812
-0.0020680712 -0.0004047278 0.010005952 0.08804204 0.0030644506 0.016179133 -0.051859807 0.03758462
0.04938311 0.03786853 0.0114496155 0.08088256 -0.00713598 0.08320578 -0.0062482907 0.012334685
0.0090718195 0.023517745 0.06916068 0.028895695 0.047647413 -0.019182378 -0.019942721 -0.005539471
0.07686246 0.022516884 -0.014551719 -0.017539365 -0.053551782 0.021409271 0.050897077 -0.026284143
0.04405755 0.05270553 0.043967757 -0.016259087 0.04072965 0.037941903 0.029753983 0.023626404
-0.002762033 -0.054760803 0.02535606 0.004581461 0.011429313 0.03277081 0.028636944 0.018505108
-0.00016440182 -0.019559162 0.0070747626 0.049529027 0.009988774 0.024825767 0.039018895 -0.024830611
0.014417774 -0.011705669 0.018829044 0.015609451 0.040789172 -0.0013588967 0.08089164 -0.0023509257
0.03041242 0.00092393544 0.020112438 -0.0066905674 0.058576223 0.065491825 0.007905088 0.03218387
-0.012355187 0.0030628608 0.005722786 -0.0037316657 0.045747314 -0.017489733 0.0021663683 -0.039010692
0.042271815 0.03009861 0.009077873 0.03997746 -0.013242086 0.018952444 -0.014524816 -0.008567235
-0.041805126 -0.0068849507 0.019247353 0.023134561 0.018429026 0.00026225165 -0.02770675 0.08165073
-0.026214233 0.018588265 0.013089342 0.0028725963 0.0024420593 0.00095181004 -0.032776516 0.007061009
-0.035861462 -0.017581163 -0.020636814 -0.010052755 0.016961435 0.0061612655 -0.0017887219 -0.027437093
-0.018117364 -0.0031473504 0.019106086 -0.012488129 -0.022804672 -0.017849488 -0.033142604 -0.018825362
-0.007882428 -0.022953194 0.01816087 -0.009190905 -0.017346254 -0.026078807 0.00866552 0.010765017
0.02764812 -0.027746012 -0.05829661 -0.0390416 -0.023181422 -0.036147866 0.014482551 0.030100023
-0.0008797956 0.0548322 0.02656787 -0.0026698855 0.020265078 0.037371546 0.016665839 -0.015673151
0.04189094 -0.009489983 0.05316375 0.027698642 0.0042984462 0.005168242 0.0015538383 0.0035339086
-0.0022968126 0.0022307744 -0.0016414084 -0.0012851486 -0.027393514 0.00721975 -0.015457633 0.007592842

var_embedding.0.weight f4 [64, 1]
00000000: 6eee a6bd 85a4 b5bc 9528 d4bc ddeb 7fbc
00000010: d79e 203e a0c7 303e b17b 95bb 4c82 16bd
00000020: 6af6 303e f510 0d3e 8b08 48bd f7e1 013e
00000030: 595a 6bbc b171 273e f10e b2bc 5094 443e
00000040: cceb fe3d fb7b 35bd 030f acbb 3796 0fbd
00000050: a425 e0ba b0ee 04bd 47d0 aabc 8124 ff3d
00000060: 4848 47ba 535e 0d3e ad11 313e 38c6 243e
00000070: 4a27 b2bc 4b27 133e 98c8 173e d1ca 003e
00000080: 922a b9bd d185 eeba c3e7 0f3e 41d6 9dbb
00000090: f5c8 89bc d00c b6bb 08a8 013e d765 0e3e
000000a0: ffb2 063e 72e2 053e 4eb3 303e 2ed1 1a3e
000000b0: 3fc5 2d3e d688 043e 5bca 8abb 803f 2cbd
000000c0: d7af e8bc 93d3 053e 7e50 273e 38e9 04bd
000000d0: 3e10 b3bc fedc 3cbd 5c52 1f3e e2e2 27bd
000000e0: 125a 283e 2b85 1e3e ca68 393e b4ea 163e
000000f0: dd2b 5ebc 3a62 50bb fd8e 0fbd f6b0 b8bc
-0.081509456 -0.022173176 -0.025898257 -0.015620199 0.15685593 0.17263651 -0.0045618643 -0.036745355
0.172815 0.13776 -0.048836272 0.12683855 -0.014364802 0.16351964 -0.02173564 0.19197202
0.124473184 -0.04430769 -0.005250813 -0.035055365 -0.0017101062 -0.032454193 -0.020851268 0.124581344
-0.00076020183 0.13805513 0.17291899 0.1609124 -0.02174725 0.14370458 0.14822614 0.12577368
-0.09041323 -0.0018197839 0.14053254 -0.004816801 -0.016819457 -0.0055557266 0.12661755 0.13906036
0.13154219 0.13074663 0.172559 0.15118858 0.16969775 0.12942824 -0.0042355484 -0.042052746
-0.02840416 0.1306899 0.16339299 -0.032448977 -0.02185833 -0.046109192 0.15558761 -0.040987857
0.16440609 0.15480487 0.1810638 0.1473797 -0.0135602625 -0.003179683 -0.035048474 -0.022545319

var_embedding.2.weight f4 [64, 64]
00000000: 9a83 c53c 5d7c 94bc 0fcf ab3c 3f9c 693c
00000010: 997f f33d d0b4 1b3e 93ea 4d3c 5c79 1abd
00000020: 0489 173e 261c 133e 0084 533b cafe d03d
00000030: b392 a13c 2877 aa3d 1aa5 f0bc 8b53 d43d
00000040: 92cd fe3d 6437 a7bb e276 ee3c eab4 dbbc
00000050: 7874 e0bc 6493 c8bc 0b24 7b3c 579c ab3d
00000060: 247e b93c 3ebf 293e 7ffe e23d eb95 e23d
00000070: 9468 b33b 0912 043e 0e14 013e 4b72 223e
00000080: bd4c b93c 4235 cdbc 2041 053e a561 3f3d
00000090: 033c 233d d853 f23a 9c24 f93d ffa6 b23d
000000a0: 49d8 f73d ecf0 c73d 0642 0b3e 71f2 0f3e
000000b0: d7ec 2a3e 8878 913d ffa2 4dbc 62a8 b53b
000000c0: 3fde c6bb 2551 133e a4a3 c23d c7da afbc
000000d0: bbdd 483c 8b1f 42bc df9d e43d d719 d93c
000000e0: b0df b13d 1261 d33d 6b97 193e 0e4c 213e
000000f0: c097 cbbb 5716 09bd 2ff1 a8bc 1d6a ce3a
00000100: 5f00 fd3c c07e a5bc df9d b9bc 9057 e9bc
00000110: 73d9 4d3c 5b3b 90bc 9f64 573d f3b5 95bb
00000120: 235e 8abc f5ba 6cbb 5cd7 45bc db1d a3bb
00000130: a992 be3c e7b8 833c ab3d b23c 90cd c3bc
00000140: 93b8 9fbc 58bf 3f3d 2799 9ebc c513 8c3c
00000150: 1024 ce3c 5d5c 4a3d fedb 3fbc 400b 34bc
00000160: 7f49 a4bc d0fa ffbc 7f0f 913c 7b5d 08bd
00000170: a379 b43b 1c29 a5bc 0e6a 3a3c 1b47 24bc
00000180: 235b 47bc db9e 6d3c bee8 3fbb 9323 083d
00000190: cf2f 27bd 4b0c 81bd 724a febb 4781 303c
000001a0: 0b2c 0a3b 4007 bb3c af73 83bd 2870 583c
000001b0: d3ba 443c c23f 92bc 63a5 9d3c dd94 8ebc
000001c0: 26f2 44bd 60a0 f8bc 22ab 61bc 304b 67bc
000001d0: a443 443b 3b7b 41bd 3329 0e3c 8f99 a9bc
000001e0: e67b 273d 5716 5cbc c002 f43b 3b56 ce3c
000001f0: f3f4 e2bc 3265 3fbd 61f0 49bc b094 41bd
00000200: 0b2e 5f3d 8fa2 13bd 822b 1f3d b84a e43c
00000210: f87c 273e 38a3 033e d394 5d3b ad7a 793c
00000220: fe83 113e 1790 0f3e 3b35 9fbc f581 093e
00000230: a860 323c 2c9a 313e c58f 933c d568 023e
00000240: c8a9 e83d 82db 6abb bbb7 e83c 2fa0 3cbc
00000250: aa4c 18bb 6795 9bbb e3f6 91bc 21ff 073e
00000260: de40 82bc fc3b d23d 20e2 773d f4e5 0d3e
00000270: 21fe 903c 1a33 133e df35 053e 9ec2 153e
00000280: 5388 993c 33e7 e23c 70fc 093e 0fab 74bb
00000290: b151 91bc b055 1d3d ea9d 153e 6fbf e23d
000002a0: 8356 ba3d 3ff9 8e3d 7671 023e c5e0 be3d
000002b0: 490f fc3d a1ca c53d ca1f ddba c762 67ba
000002c0: 88da 7fbd 2714 203e a268 0b3e 4da0 10bc
000002d0: 650c dabc 53fe 09bd f9cf d33d 99fd 13b9
000002e0: 5419 c53d bee9 bb3d 5339 fc3d 8852 443d
000002f0: e3fd 4e3c 5d2b e83c 7ee7 2dbd c50d 0a3d
00000300: 62e2 e93c 93ae 233d bfc9 3e3c 1368 82bc
00000310: e72f c83d a195 053e 9c53 09bd f64c 143d
00000320: 0bb7 ab3d c443 123e 8346 e2bc 9525 c03d
00000330: 47b4 d3bb f646 f03d 27f3 943c b149 043e
00000340: 0cd3 033e 333a 13bc 6fc0 d3bc a67e 9e3c
00000350: 83f4 243d 8c91 a63b c2e5 f03b 864f be3d
00000360: aa67 2a3b 63bc 073e 1e0e f93d a6df 9d3d
00000370: 08dc 2d3c 2b99 f23d 9355 b03d 9c6e 6e3d
00000380: 37d9 013c 8d2f c93b 97c4 e43d 978c ce3b
00000390: 0a8b 053d 53d8 03bc 9937 de3d 8ff4 d83d
000003a0: 0885 133e 6fc9 f93d 4937 923d 25f8 f43d
000003b0: 1d56 ef3d d0e4 c53d 4b4f f43b a8cd e53c
000003c0: ab60 573b 71f5 e63d b8f3 1c3e 07fb 51ba
000003d0: 5781 093d 7720 be3b bf8b c23d 42bf 4f3c
000003e0: a596 d33d 79ef f73d 668f a53d 91f8 b63d
000003f0: 30dc 523c ffda 363c 4b14 e33b bac8 fd3b
0.024110604 -0.018125707 0.020972757 0.014258443 0.11889572 0.15205693 0.012568134 -0.037713394
0.14798361 0.14366207 0.0032274723 0.10204847 0.019723272 0.083235085 -0.029375602 0.10367497
0.12441553 -0.0051030386 0.029109422 -0.026819665 -0.027399287 -0.024484344 0.0153284175 0.08379429
0.022643156 0.1657686 0.110836975 0.11063751 0.005475113 0.12897505 0.12605307 0.15863912
0.0226196 -0.02504981 0.13013124 0.04672398 0.039852154 0.0018488122 0.12165186 0.08723258
0.121018 0.09762749 0.13599405 0.14057328 0.1669191 0.07103068 -0.012551068 0.0055437544
-0.0060689743 0.14386423 0.09503868 -0.021466626 0.012259896 -0.011848341 0.11162924 0.02650158
0.08685243 0.10321249 0.14999168 0.15751669 -0.0062131584 -0.03346857 -0.020622818 0.0015748177
0.030883966 -0.02020204 -0.022658287 -0.028484136 0.012564051 -0.017606428 0.052586194 -0.004568809
-0.016890591 -0.0036122177 -0.012075271 -0.0049779243 0.023263292 0.01607938 0.021757921 -0.02390173
-0.019497192 0.04681334 -0.019360138 0.01709927 0.02516368 0.04940449 -0.011710165 -0.01098901
-0.020054577 -0.031247526 0.017707584 -0.033292275 0.0055076643 -0.020161204 0.0113778245 -0.0100267185
-0.012167725 0.014503206 -0.0029283012 0.03323705 -0.04081708 -0.06301173 -0.0077603394 0.01077301
0.002108338 0.022830606 -0.06418549 0.013210334 0.012007433 -0.017852668 0.019243902 -0.017404968
-0.048082493 -0.03034991 -0.013773711 -0.014117047 0.0029947544 -0.047236662 0.008676815 -0.020703105
0.040889643 -0.013433061 0.007446617 0.025187602 -0.027704692 -0.046727367 -0.012325377 -0.04726094
0.05448727 -0.0360437 0.03885985 0.02786766 0.16356266 0.12855232 0.003381063 0.015227002
0.14210507 0.1401981 -0.019434562 0.13428481 0.010887302 0.17343968 0.01801289 0.12735303
0.11360508 -0.0035836403 0.028407922 -0.0115128 -0.0023239055 -0.0047480348 -0.01781792 0.13280918
-0.015900072 0.10265347 0.060518384 0.13857251 0.017699303 0.14374962 0.13008831 0.14625022
0.018741762 0.027698135 0.13475204 -0.0037333404 -0.017739149 0.038411796 0.1461102 0.11071669
0.09098532 0.06981134 0.12738594 0.09320215 0.12307603 0.09657789 -0.0016870436 -0.00088266697
-0.062464267 0.15632688 0.13614133 -0.008827281 -0.026617238 -0.033689808 0.10342402 -0.00014113485
0.096239716 0.09175442 0.12315621 0.04793027 0.0126337735 0.02834099 -0.042457096 0.033704538
0.02855033 0.03996141 0.01164478 -0.015918767 0.09774762 0.1304536 -0.033527 0.03620621
0.08384522 0.14283663 -0.027621513 0.09382168 -0.0064606997 0.11732285 0.01818235 0.12918736
0.12873477 -0.008986044 -0.025848595 0.0193475 0.040272247 0.0050832685 0.007351608 0.09292512
0.002600173 0.13255458 0.12160896 0.07708673 0.010611542 0.11845621 0.08610072 0.058210954
0.007925323 0.0061397017 0.11170309 0.0063033807 0.0326033 -0.008047181 0.10850448 0.10593521
0.14406216 0.121966235 0.07139451 0.11961392 0.11686347 0.09662783 0.0074557415 0.028052166
0.0032864015 0.11277283 0.15327346 -0.0008010123 0.033570614 0.00580221 0.09499311 0.012679877
0.103314675 0.12106223 0.08083992 0.08934129 0.01286988 0.011160611 0.0069299093 0.0077448757

conv_v_to_c.feature_module_left.0.weight f4 [64, 64]
00000000: f74a 1cb9 fb09 ae3c df34 b3bc 7fa8 623d
00000010: 5206 b0bb 0990 b53d 2956 513d 7739 0e3d
00000020: 1f58 353d 6f45 453c 3d30 5d3c c2f6 cc3b
00000030: 9cbe 05bc 2f84 4ebc 1b65 62ba df37 953d
00000040: 0434 913c b336 243d ff5c 9abc a1f4 3a3c
00000050: 172d a93c 51b5 60bb 032a ddbc a132 993d
00000060: 664b 9e3c 4171 87b9 8b33 753b c3b8 f43c
00000070: 56ef 163d 402b d23c 59c6 283d 3479 b63c
00000080: 0417 873c eb78 0c3d bda4 66bc 93d1 1fbb
00000090: c597 293d 32a7 2e3d 562e 2fbd dba6 223c
000000a0: f173 813c 1a14 95bc 03b3 073d b4db 333d
000000b0: 1218 213d e6cd b1bc a8df a2bc df0c 34ba
000000c0: 8849 a43b e933 b33c d597 343c 5f5c 7fbc
000000d0: c3b5 acbd 68aa bb3c 443f 4cbc 5ffa e0bc
000000e0: 41ce 0d3c 56e7 853c c357 cebb 70d4 57bd
000000f0: 2860 eb3a b297 0a3d 57aa 12bd 1a58 6839
00000100: cd8e a03c 3a01 af3c e3a0 8b3c fba4 153d
00000110: d59d 78bb d9bd 093c 5918 b0bc d1b5 803c
00000120: b29f 0e3c 6332 93b9 fb99 9c3c 132c e5bb
00000130: 9688 54bc 62b7 ec3b 7040 cd3c 7556 f33c
00000140: daa7 04bb 80b6 363c 13e8 e1bc c20f d8bc
00000150: d4a6 a73c ff47 a33c 505f a33b b8db 8ebb
00000160: 4e1b d9bb dbc1 933c 55ff 3e3d 4326 b3bc
00000170: 2d8b 883d bba1 1a3d 35f5 2c3b 3543 283d
00000180: bbdd 663b 9bb4 45bc 277f e43c 7ba0 e13c
00000190: bd29 913d f499 a3bb 7733 d63c c42f 8abc
000001a0: 20e4 d33c f807 853d af2f bdbc b255 653d
000001b0: afdb 93bc 0cb7 9c3c 47d3 30bd 2ca3 363c
000001c0: 5e2e 823c b2c7 db3c 0ce9 233c a296 493d
000001d0: 7701 df3c e2f9 bd3c fb0e 5ebd ba71 343c
000001e0: 03bf ecbc c32a c43c d523 09bd ec9f 8ebc
000001f0: 506e dc3c c6a4 23bc e2f5 fa3b e4d7 123d
00000200: 4f95 043d 35c5 6ebd 8953 e43c 5f5d f0ba
00000210: af8b d73b 0c24 6b3d dbf5 623d 7867 cfbc
00000220: 57ba 313d 2b67 ab3b 9f24 e9bc 6295 4fba
00000230: 8133 0e3c 1bfa 4a3b d8ce 4a3a 4585 2eba
00000240: 6288 c4ba 39e4 14bc 8a0b 89bc a952 0bbd
00000250: b767 6d3d 3be2 9fbc 3518 e43c cb2a 0d38
00000260: 26a1 f7bb 3f5f 63bc 3990 993c d5b4 63ba
00000270: e53f 04bc 7786 77bc 3aa5 323d 3962 743d
00000280: 9ef4 0ebd 9bc9 48bd aada c83c a165 81bd
00000290: 49f8 3c3d cdf3 8dbc ed50 bb3c 406d d23c
000002a0: abac 09bd c583 6abc 17e1 67bc 0c8a 733d
000002b0: 310f 0dbd ebe1 d63c 4e41 283d 9a46 86bc
000002c0: a75b 28bd 4cb7 643c abb8 f63c b731 b1bc
000002d0: 2f9b 25ba 49d6 0d3c 30f4 35bc c01c 343d
000002e0: 2ea4 48bb 7b53 cc3b 6828 67bc 527b 85bc
000002f0: e252 313d a5cf 423d ae57 9fbc 4a3e 253d
00000300: 6655 503d 2895 fe3c 16f3 5a3d e090 993d
00000310: 8f04 c2bc 99b9 873d bbe8 2e3d b141 a13c
00000320: 09e9 b33d 14d6 0c3d 4cec 283d d79e 7bbb
00000330: a009 503d 905b 86bc cfc2 813b eaac e5bb
00000340: ffcb 13ba 0cd6 e43c 35b5 e83b 7799 053c
00000350: 5d7c ab3d 1176 053c 898f efbc f0a4 f1bc
00000360: 04e8 923d 905b e8bc 1969 8b3d cbef b33c
00000370: 9437 b53d aa6b 043d 2013 403d 1cbe 3b3d
00000380: db0d 033d f257 4fbd 5823 f1bc 2474 053a
00000390: e91a 9f3d 13d0 eb3d 974e 12bd 6505 71bc
000003a0: 3db3 173b a366 8b3d 1a54 e8bc 76df 213d
000003b0: ffb6 07bd 72c2 243d 179a 043d 7757 543b
000003c0: b769 a7bc 088a 063d 5404 9a3d 32f6 773d
000003d0: fd3e 4bbc 91ea 1b3d a51d bd3c f341 d03c
000003e0: eb77 8e3d 6eb4 84bb 5437 84ba 2174 123c
000003f0: a088 683d 0256 653d ffe1 d1bb 9042 6c3d
-0.00014905246 0.021244993 -0.021875797 0.05533647 -0.005371847 0.08865363 0.05110756 0.03472277
0.044273492 0.01204048 0.01350027 0.0062550018 -0.008163121 -0.012604757 -0.0008636282 0.07286047
0.017724998 0.040091228 -0.018843172 0.011410863 0.020651383 -0.003428776 -0.026997572 0.0748036
0.019323062 -0.00025833587 0.0037414755 0.029873258 0.036849342 0.025655389 0.041204784 0.022274591
0.016490467 0.034295004 -0.014077363 -0.002438639 0.041404504 0.04263992 -0.0427688 0.009927477
0.015802355 -0.018198062 0.033129703 0.043910697 0.039329596 -0.021704625 -0.019882038 -0.0006868373
0.0050136484 0.021875339 0.011022528 -0.015585988 -0.08433106 0.022908404 -0.012466256 -0.027463136
0.008655132 0.016345661 -0.006297083 -0.05269283 0.0017957734 0.033836074 -0.03580698 0.00022158065
0.019599343 0.02136289 0.01704449 0.03653429 -0.0037935872 0.00840708 -0.021495985 0.015711697
0.0087050665 -0.00028075566 0.019116392 -0.0069937794 -0.012972018 0.0072240094 0.02505514 0.029704312
-0.002024165 0.01115191 -0.027576482 -0.026374701 0.020465292 0.019931791 0.0049857274 -0.0043596886
-0.0066255694 0.018036773 0.046630222 -0.02186883 0.06667171 0.037751894 0.0026391272 0.04107972
0.0035227377 -0.0120669855 0.027892662 0.027542343 0.07088039 -0.004992718 0.026147587 -0.01686848
0.025865614 0.064956605 -0.023094026 0.05598993 -0.01804909 0.019130252 -0.04317024 0.011147302
0.01589125 0.02682862 0.010004293 0.04921592 0.027222378 0.023190442 -0.054213505 0.011013443
-0.028899675 0.023946172 -0.033481438 -0.017410241 0.02690807 -0.0099880155 0.007658706 0.03585042
0.032368954 -0.05829354 0.027871864 -0.0018338374 0.006577931 0.057407424 0.055410247 -0.025317892
0.0433906 0.0052308044 -0.028459845 -0.0007918683 0.008679272 0.0030971828 0.00077365106 -0.0006657432
-0.0014994259 -0.009087616 -0.016729135 -0.034014378 0.05796024 -0.019517055 0.027843574 3.3656874e-05
-0.007557052 -0.013877689 0.018745529 -0.0008686309 -0.008071874 -0.0151077425 0.043614604 0.059663985
-0.034901254 -0.04902039 0.02451833 -0.06318212 0.04613522 -0.017328167 0.022865737 0.02568686
-0.033611935 -0.014313643 -0.014152787 0.059457824 -0.034438316 0.026230773 0.041077904 -0.016391087
-0.04110303 0.013959717 0.030117353 -0.021630151 -0.00063173746 0.008657047 -0.011105582 0.04397273
-0.0030615437 0.0062355376 -0.014108755 -0.016294155 0.043291934 0.047561307 -0.019450989 0.040342607
0.050862692 0.031076983 0.05345448 0.07498336 -0.023683814 0.06627197 0.042702418 0.019684644
0.08784682 0.03438385 0.041240975 -0.0038394236 0.05079043 -0.016401082 0.0039599906 -0.0070091384
-0.0005638003 0.027934097 0.0071016797 0.008154265 0.0837333 0.008145825 -0.029243248 -0.029497594
0.0717316 -0.028363973 0.06807155 0.021964928 0.08848491 0.03232924 0.04689324 0.0458356
0.031995635 -0.05062098 -0.029435799 0.00050908537 0.077688046 0.115142964 -0.03571948 -0.014710759
0.0023147606 0.06806686 -0.028360415 0.03951975 -0.033133503 0.0402245 0.032373514 0.0032400766
-0.020436151 0.03284648 0.07520357 0.060537525 -0.012405154 0.038065497 0.023085425 0.025422072
0.06956466 -0.004049829 -0.001008729 0.00893882 0.05677092 0.055990227 -0.0064051147 0.057680666

conv_v_to_c.feature_module_left.0.bias f4 [64]
00000000: 8cc9 b8ba d161 a6bc d550 653d 099b 883c
00000010: f8be a3bd afb2 983d 3858 b5bd 341b ae3c
00000020: b473 95bd de30 81bd 293c 0fbd 819c 02be
00000030: 3390 913d 5593 97bc d3a5 d3bd 5432 92bd
00000040: 5f44 c4bd 148f 83bd bc86 d2bd f5ec 09bc
00000050: a9c3 a3bd 02bb 2cbd 5918 2b3d 7318 c3bc
00000060: f1a9 ef3d 5e05 d7bd b5ab 8a3d 4dee fbbd
00000070: 96c1 2c3d b850 06bd a0c2 00bd 4a94 a6b8
00000080: 26c8 6fbd 89b7 04bd 912a 6fbd 5ec3 8e3d
00000090: c47b fbbb 8958 d4bc c5cf d13c 2d78 6d3d
000000a0: a522 3bbc 53ac aebd f01b 2f3d 56db 203c
000000b0: 95e8 a8bd dbca dd3c 1098 523d fcaa 4b3d
000000c0: 7544 42bd 2736 9b3d e6a0 683d 5bbb 783d
000000d0: cf8d ec3d f8cf d1bd f2e6 8c3d 1eec 483c
000000e0: 38c2 0e3c 25ab adbc 9838 2fbe 776d be3d
000000f0: f480 903d 4a5d eabd 1fcc 543d cf5b 40bd
-0.0014098152 -0.020310314 0.05598529 0.016675489 -0.07995409 0.07455956 -0.08854717 0.021253206
-0.07297459 -0.06308149 -0.034969483 -0.12755014 0.07107582 -0.01850287 -0.10334363 -0.071385056
-0.09583353 -0.06423774 -0.10279605 -0.008418311 -0.079963036 -0.042170532 0.041771267 -0.02381537
0.117023356 -0.104990706 0.06771032 -0.12301312 0.042176805 -0.032791823 -0.03143561 -7.943118e-05
-0.058540486 -0.032401595 -0.058390204 0.06970857 -0.007674666 -0.025921123 0.025611768 0.057975937
-0.011421834 -0.08528962 0.042751253 0.009817919 -0.082474865 0.027074268 0.05141455 0.04972361
-0.047428567 0.07578688 0.05679407 0.06072555 0.11550485 -0.10244745 0.06879987 0.012263326
0.008713298 -0.021199772 -0.17111433 0.092982225 0.07055846 -0.11443575 0.051952478 -0.046962555

conv_v_to_c.feature_module_edge.0.weight f4 [64, 1]
00000000: 3fe3 923d 0868 de3c 8bb0 c03c 2778 d63a
00000010: 3cc6 e1bc e13d 50bd 2631 943c 3ab6 58bc
00000020: 8bbf c4bc b759 24bb 6642 923d 151c 5bbd
00000030: 5207 cc3d b1da 963d a3a9 e2bc 1c36 333d
00000040: 512f b93c 58f3 04bd 3efa 5f3b 16da 833d
00000050: 7338 803c 5b47 c63c a1fc f03c dcb9 26bd
00000060: 2ad5 cf3c b0b4 dabc 2ae6 16bc e509 97bb
00000070: 0735 9dbc 3c30 19bd f8bf 6e3d b232 06bc
00000080: a845 63bd 1394 70bd 9555 ddbb 7f7a 84bc
00000090: d252 54bd 440c 31bd feca a5bc 8215 c63d
000000a0: 28d8 4f3b 501c 16ba 4ac1 85bd 53e6 fabc
000000b0: 07d0 27bd 5f12 6dbd b385 3cbc 6ca8 2cbd
000000c0: d64d 89bd c8c0 3f3d f1c3 07bd 95ca 793d
000000d0: 7237 24bd 4427 93bd c887 273b 5487 b8bc
000000e0: cdc9 7fbd a6d6 f73c da3e 023d 17f7 c93d
000000f0: c58b 36bd 43eb dbbc 20c5 5ebd 5b23 8b3c
0.0717225 0.027149215 0.023521682 0.0016362712 -0.027560346 -0.050840262 0.018089842 -0.01322704
-0.024017116 -0.0025077888 0.07141571 -0.053493578 0.09962334 0.07365931 -0.02766878 0.043752775
0.02260557 -0.032458633 0.0034176256 0.06438081 0.015651917 0.024203947 0.029417338 -0.040704593
0.0253702 -0.026697487 -0.009210149 -0.004609334 -0.019190324 -0.037399516 0.058288544 -0.008190798
-0.05548635 -0.058734965 -0.006754587 -0.016171692 -0.051836796 -0.043224588 -0.020238396 0.09672071
0.0031714533 -0.0005726265 -0.065310076 -0.030627405 -0.040969875 -0.05787885 -0.011506486 -0.042152807
-0.06704299 0.04681471 -0.03314585 0.060984213 -0.04009194 -0.07185224 0.002556311 -0.022525467
-0.06244831 0.03025372 0.03179822 0.09861582 -0.04456689 -0.02684558 -0.05438721 0.016984632

conv_v_to_c.feature_module_edge.0.bias f4 [64]
00000000: f23d a5be 2ac0 46be d698 96be 9da2 45bf
00000010: 83d0 b1be 9aaf 4d3f 2c80 1fbf 735b fbbe
00000020: 3c9b 3abf 318d 47bf 23eb 1abf 3c9b 8c3e
00000030: 42cb 263f 2142 413e 9616 903e 9f49 29bf
00000040: 41e0 e73e d7a9 74bf d12e 663f 3537 ec3e
00000050: 4048 663e 58de 2e3e 0c8e cfbe 25d4 3bbf
00000060: ceaa 4ebf fc05 59bf 5a8c 0fbf 8e74 0e3f
00000070: 61d6 2e3f 8c41 983e 8ca0 563f c8ba 0abf
00000080: 0570 113e 42c2 a43e 2a7a 23bf 83b3 91be
00000090: 01f7 36be a120 883d 5de1 43bf 30d6 913e
000000a0: c69a 4bbf 0835 26bf 8596 3a3f a6d0 53bf
000000b0: 9d8f 28bf 2684 87bd ad75 0cbf d8f2 973e
000000c0: 81c4 26bf d7f0 143f e8bc a2be e2d2 b43e
000000d0: fb58 9abe 24ca 37bf caab 92be e8ce 863d
000000e0: 62e8 293f 4a5e f53d 61a2 d13e d50c e43e
000000f0: 2a33 19bf 362c 4d3e bc27 5f3c bab5 173f
-0.32273823 -0.19409242 -0.2941348 -0.77201253 -0.34729394 0.8034607 -0.6230495 -0.49093208
-0.7289312 -0.77949816 -0.6051504 0.27462184 0.65153897 0.18872882 0.28142232 -0.6612796
0.4528828 -0.95571655 0.89915186 0.4613587 0.22488499 0.17077005 -0.4053806 -0.7337058
-0.8072938 -0.84774756 -0.56073534 0.556466 0.68295866 0.29737508 0.83838725 -0.54191256
0.14202888 0.32179457 -0.6385828 -0.2845727 -0.17867662 0.066468485 -0.7651575 0.28483725
-0.7953304 -0.6492467 0.72885925 -0.8274025 -0.65844136 -0.06617002 -0.5486706 0.29677463
-0.6514359 0.5817999 -0.3178475 0.3531714 -0.30146012 -0.7179282 -0.2864669 0.06582433
0.66370213 0.11980875 0.40944198 0.4454104 -0.59843695 0.20036396 0.013620313 0.5926167

conv_v_to_c.feature_module_right.0.weight f4 [64, 64]
00000000: ff14 573c bf46 c3bc dead 21bc f501 2a3d
00000010: b141 abbc d7df 123d 3b7d a3ba 5532 20bd
00000020: 1870 08bd cb4f 26bc c9b4 1abc 0b4f bfbc
00000030: 2928 0b3c e301 8bba 8a96 d03c 3639 ae3c
00000040: bc74 36bb 032a 02bd 52b7 e4bc 43e5 b9bc
00000050: ea07 02bc 7822 6fbd cf6b d63c d846 d0bb
00000060: 6a8a 0a3d ab9f ebbc 41f8 1f3d 17ad 0dbd
00000070: 4d31 e13c f9e7 003c 7317 513c dd12 993a
00000080: 6990 18bb b101 0cbd b502 72bc ba6a 843b
00000090: 03cf 833c 9ee4 1a3d a527 3dbd 53f4 0a3c
000000a0: 969c 9e3c 1e3d 07bd 0db6 73bc b80d e03a
000000b0: 947e aabc a9e9 3dbc 3f1d 86bc 93d4 b0bc
000000c0: c341 1abc 1671 c2bc 6544 f6bc 1870 5abc
000000d0: 852a 853c 1083 803c 3761 07bd df8c cebc
000000e0: bae7 4fbc b093 3bbc 4ace 693c 9011 47bb
000000f0: bb1c 493d b7c2 20bd a557 40bd 5d53 01bd
00000100: ca99 9f3b 4bd5 9abb 78d0 7bba 1442 b13c
00000110: 9f09 893c f6eb 8dbc cd85 d03c ab10 663c
00000120: 557e 4d3b d0b9 64ba da0b b63c c6bf 083b
00000130: 9f4c 413c 0378 f33c 09eb 82bc b055 0bbd
00000140: 4f58 06bc 5f36 80bd c765 363b 313f 24bc
00000150: 777e 823b 05c0 403c 0363 8e3c faea cd3c
00000160: a275 6f3c af42 42bd 609d 563c f2bb 593c
00000170: 15e0 29bd 3e50 8b3c 3e72 013d e9b7 073d
00000180: 3206 75bc da6d f8ba 4b0b 23bd cfb2 8c3c
00000190: 64e5 0a3c 537f 8fbc 0a67 1d3c e14c 87bc
000001a0: 5800 e0bb d8e5 d6bb af53 1c3c 33a3 9f3c
000001b0: 5435 29bd c8f8 a0bc 7f4c 96ba d3a5 1cbd
000001c0: e38a 9b3c d318 bdbb 3193 c23c 5fac c63b
000001d0: a048 9fbc 9c9c cabb 8bf3 e83b ceb7 39bd
000001e0: c34b f9bc f755 e439 e3bc 1f3d 0ff5 4a3c
000001f0: 1d0e dabb 65b7 0b3c df82 2d3d 4f02 f7ba
00000200: 28e6 273d 2f19 12bb 9769 723b 8b7e 943a
00000210: c5b1 e9bc ff8c 283b 234c d7bc 6d0b eebc
00000220: bf7c 9d3d ce7c 893b 73c4 30bb 537a 21bc
00000230: 3721 51bb 7dcb 4c3c 6369 163b 24b8 4a3c
00000240: 4041 6f3d 7c6d 26bd fa7b 78bd 2f24 f0bb
00000250: f92d 18bc 55c1 ec3b c0da fb3c e5c1 0ebd
00000260: dadc eabb 3d0a 37bd 9d88 05bd 3b3e ecbb
00000270: 5857 c03c dd8e e7ba 83bc cebc 93e0 243d
00000280: dd85 d1bc 93b4 043d 889f 6b3b 91b1 3f3d
00000290: 8e3e b0bc 779f 5f3c f86a e73b 4add 94bc
000002a0: aab7 f23c 9843 c1b9 0a73 8f3a 4f10 c93c
000002b0: 0019 c53c d33f d5bc e755 0f3d 035e 553d
000002c0: de15 883b 73a5 3cbc 17f0 68bb d3eb d73c
000002d0: 02a3 c5bc 9837 cc3b 9e5f c83c 7585 25bc
000002e0: 5b51 e8ba 649d 03bd d3f5 cfbc 7309 be3c
000002f0: c896 35bc 20ba e23b 0b7e be3b 3534 193d
00000300: e145 9cbc c3fd 783c 65b2 253d 3515 c9bc
00000310: 1b1b 353c 4acc 443d 1d74 71bc 2de3 70bc
00000320: d409 0e3d 5ac4 b6bc d349 9f3b 1be9 1ebb
00000330: 7285 213d efc0 0fbd 707a 7e3c 7ccf 373b
00000340: 680e 593c 72a3 8d3b 83ae ed3b 8765 7a3c
00000350: b59a 73bd 137c e03b 92db 523c 3720 9cbc
00000360: 8303 5a3b 4192 3fbc 1b01 1fbd 8b99 2cbd
00000370: bdd3 8738 9361 2bbd edf5 3abd 4df7 38bd
00000380: 7715 d9bc 143e c0bc 5bd6 d3bb b877 423b
00000390: 0181 2a3d 47d9 8b39 4a42 c03c df46 f6bc
000003a0: 3871 783d 81c3 433d 00e8 febc fa81 a9bc
000003b0: 87cc 4e3d 4568 6cbd eac5 963b 60b6 23bb
000003c0: 0b26 40bd 5d09 963b ab41 0b3d 1093 443c
000003d0: 7be4 a83c 47a8 3abb d174 cabc 17d0 0e3c
000003e0: 504a e93c 4968 2ebc e048 c83c 053b b23c
000003f0: 8f0e a2bc 4fc0 773d 522e fa3b 1b7c 54bc
0.013127564 -0.023837445 -0.009868113 0.041505773 -0.020905348 0.035858 -0.0012473235 -0.0391105
-0.033310026 -0.01015086 -0.009442517 -0.02335312 0.008493462 -0.0010605421 0.025462408 0.021267515
-0.0027840575 -0.031778347 -0.027919445 -0.022692328 -0.007936457 -0.05838248 0.026174454 -0.0063561015
0.03382341 -0.028762659 0.039055113 -0.0345889 0.027489329 0.007867807 0.012761938 0.0011678595
-0.0023279435 -0.0341813 -0.014771153 0.004041043 0.016089922 0.037815683 -0.046180386 0.008481103
0.019361775 -0.03301727 -0.014874947 0.0017093932 -0.02081231 -0.011591353 -0.016371367 -0.021585738
-0.009415093 -0.023735564 -0.03006191 -0.013332389 0.016255626 0.015687495 -0.033051696 -0.025213657
-0.012689525 -0.011448786 0.014270375 -0.0030375458 0.049099665 -0.039248195 -0.046958584 -0.031573642
0.004870628 -0.0047251335 -0.00096059544 0.021637954 0.01672822 -0.017324429 0.025454426 0.01404206
0.0031355817 -0.0008725198 0.022222448 0.002086626 0.011798053 0.029720312 -0.015981214 -0.034017265
-0.008199765 -0.062603705 0.002783166 -0.010024832 0.003982361 0.011764531 0.017381197 0.02513646
0.014615448 -0.047426876 0.013099045 0.013289439 -0.041473467 0.017006036 0.03160309 0.033134375
-0.01495509 -0.0018953637 -0.03980569 0.017175106 0.008477543 -0.017516768 0.009607086 -0.01651615
-0.0068359785 -0.006558161 0.009541436 0.019487 -0.041310623 -0.019649878 -0.0011466889 -0.03824408
0.018987125 -0.0057707815 0.023751827 0.0060630287 -0.01944381 -0.00618322 0.0071091107 -0.045341305
-0.030431634 0.00043551598 0.038998496 0.012387528 -0.0066545145 0.008527611 0.042361137 -0.0018845293
0.04099098 -0.0022292843 0.0036989206 0.0011329217 -0.02852715 0.0025718806 -0.026281422 -0.029058183
0.07689809 0.004195786 -0.0026972562 -0.0098558245 -0.0031910667 0.012499687 0.0022951 0.012373004
0.058411837 -0.040631756 -0.06066511 -0.007328532 -0.0092883045 0.0072251954 0.030743957 -0.03485288
-0.007167441 -0.0446875 -0.032600988 -0.007209567 0.023479149 -0.0017666478 -0.025236374 0.040253233
-0.025576526 0.03239877 0.0035953242 0.0468002 -0.021514203 0.013648859 0.007062312 -0.018171925
0.029628593 -0.0003686219 0.0010944318 0.02454391 0.024059772 -0.02603141 0.034994032 0.05209161
0.0041529974 -0.011514056 -0.0035543495 0.026357567 -0.02412558 0.006232213 0.024459656 -0.010102619
-0.0017724441 -0.03213252 -0.025385773 0.023197865 -0.011083312 0.0069191605 0.0058133653 0.037403304
-0.01907629 0.01519722 0.040453333 -0.024546245 0.011053826 0.048046388 -0.014737156 -0.0147026
0.03467734 -0.022310425 0.0048610955 -0.0024247828 0.039433904 -0.035096105 0.015532121 0.0028047254
0.013248064 0.0043224627 0.0072534694 0.015282995 -0.059473712 0.0068507283 0.012869732 -0.01905833
0.0033266253 -0.0116925845 -0.038819414 -0.042138617 6.476741e-05 -0.0418411 -0.04564469 -0.04515772
-0.026499493 -0.023467101 -0.006464762 0.0029673409 0.041626934 0.0002667403 0.02346911 -0.03006309
0.06065485 0.04779387 -0.031116486 -0.02069186 0.05048802 -0.057716627 0.00460123 -0.002498053
-0.04691128 0.004578753 0.033998173 0.011997953 0.02061676 -0.0028481649 -0.024713906 0.008716605
0.028477818 -0.010644981 0.024448812 0.021756658 -0.019782333 0.060486134 0.0076349163 -0.012969042

conv_v_to_c.feature_module_right.0.bias f4 [64]
00000000: 84e2 873d 18ea 48bd 5040 b03c 3cd5 c93d
00000010: 0e34 fb3d 0420 10bd c8ef bebc f02e dc3d
00000020: 4059 00bc 9a20 e1bd 606c 3ebd 0c42 2abd
00000030: 5892 81bc 1c0e 053d 7e60 ffbd f439 f73d
00000040: 3086 01bc a0cc 903b 16ae e83d 88b3 a8bc
00000050: 9aa9 84bd 604c b03b d860 2d3d c451 283d
00000060: fcdf a3bd 0053 e3bc a02c 393d 52fb cf3d
00000070: ca0a a7bd 24fd 293d 3c0b 57bd ce9e bf3d
00000080: 0a02 b1bd e0c9 ba3b 0801 7abd 602f a83d
00000090: 7896 35bd 1eed d93d 428a d33d 449f 113d
000000a0: 203a 1d3c 4634 c43d 9083 40bc d838 583d
000000b0: 3c3c 563d 90b8 91bd 30ad 0ebd 92bc b2bd
000000c0: 26ed a8bd 1860 ba3d 20d9 633d 5e8a f8bd
000000d0: c041 6f3d e01e 343c 7a8b 91bd d837 503d
000000e0: 265d cdbd de88 d83d 586e b63c f883 803c
000000f0: daa0 8ebd 6ab7 dbbd 4074 cdbb 1013 c9bd
0.06635001 -0.049051374 0.021515042 0.09855124 0.12265788 -0.035186782 -0.023307696 0.1075114
-0.007833779 -0.109925464 -0.046490073 -0.041566893 -0.015816852 0.03248416 -0.12469576 0.120716006
-0.007905528 0.0044189245 0.11361329 -0.02059342 -0.064776614 0.0053801984 0.042328686 0.041093603
-0.08001706 -0.027749538 0.045208573 0.101553574 -0.08156355 0.04150118 -0.05250095 0.093564615
-0.08642967 0.005700335 -0.06103614 0.08212161 -0.04433295 0.1064093 0.10329105 0.03555228
0.009596378 0.09580283 -0.011750117 0.052788585 0.052303538 -0.07115281 -0.034833133 -0.08727373
-0.082483575 0.0910036 0.05562699 -0.121357664 0.058412313 0.010993689 -0.07106681 0.050834507
-0.10027532 0.1057298 0.022269413 0.015687928 -0.06964274 -0.10728343 -0.0062699616 -0.09818089

conv_v_to_c.feature_module_final.0.weight f4 [64]
00000000: 0000 803f 0000 803f 0000 803f 0000 803f
00000010: 0000 803f 7289 7e3f 0000 803f 0000 803f
00000020: 0000 803f 0000 803f 0000 803f 6d6e 803f
00000030: 5b02 813f 367c 873f acdc 803f 0000 803f
00000040: 35f3 7c3f 0000 803f 27d5 7b3f 1804 833f
00000050: 30f4 843f 9701 873f 0000 803f 0000 803f
00000060: 0000 803f 0000 803f 0000 803f e45b 7d3f
00000070: 106e 7e3f 73be 803f 5571 7d3f 0000 803f
00000080: c0b8 823f 82b9 803f 0000 803f 0000 803f
00000090: 0000 803f b5c0 833f 0000 803f 93ac 803f
000000a0: 0000 803f 0000 803f c3ad 7d3f 0000 803f
000000b0: 0000 803f a9da 893f 0000 803f 4e17 793f
000000c0: 0000 803f e110 813f 0000 803f d216 823f
000000d0: 0000 803f 0000 803f 0000 803f aee2 803f
000000e0: 99b2 7d3f 998a 8f3f 411c 7e3f 68a9 813f
000000f0: 0000 803f e6e1 813f 17bd 833f d01f 7c3f
1.0 1.0 1.0 1.0 1.0 0.99428475 1.0 1.0
1.0 1.0 1.0 1.0033699 1.0078844 1.0584781 1.0067344 1.0
0.98808604 1.0 0.9837212 1.0235624 1.038702 1.054736 1.0 1.0
1.0 1.0 1.0 0.9896834 0.9938669 1.005812 0.99001056 1.0
1.0212631 1.0056612 1.0 1.0 1.0 1.0293185 1.0 1.0052665
1.0 1.0 0.99093264 1.0 1.0 1.0769855 1.0 0.97301185
1.0 1.0083276 1.0 1.0163214 1.0 1.0 1.0 1.0069177
0.99100643 1.1214172 0.9926186 1.0129824 1.0 1.0147064 1.0292081 0.9848604

conv_v_to_c.feature_module_final.0.bias f4 [64]
00000000: 0000 0000 0000 0000 0000 0000 0000 0000
00000010: 0000 0000 de93 eebb 0000 0000 0000 0000
00000020: 0000 0000 0000 0000 0000 0000 c72e 7fbc
00000030: c0ac f13a 1f61 1d3d c867 29bc 0000 0000
00000040: 7685 89bc 0000 0000 3eeb 9bbc 8a02 403c
00000050: e369 f83c fbdf 2f3d 0000 0000 0000 0000
00000060: 0000 0000 0000 0000 0000 0000 4a23 7bbc
00000070: 412e 3fbc ee02 16bc 4b58 67bc 0000 0000
00000080: d237 44bc b44b 22bc 0000 0000 0000 0000
00000090: 0000 0000 6b75 20bc 0000 0000 4252 69b9
000000a0: 0000 0000 0000 0000 cd5c 85bc 0000 0000
000000b0: 0000 0000 bc23 34bc 0000 0000 51a2 f5bc
000000c0: 0000 0000 8515 66ba 0000 0000 f511 c43b
000000d0: 0000 0000 0000 0000 0000 0000 9e49 55bc
000000e0: f41c 86bc 1765 953d 25b0 3dbc b6ea ac3a
000000f0: 0000 0000 d390 22bc 23e8 ebbb 2d52 8cbc
0.0 0.0 0.0 0.0 0.0 -0.0072808107 0.0 0.0
0.0 0.0 0.0 -0.015575117 0.0018438324 0.0384227 -0.010339685 0.0
-0.016787272 0.0 -0.01903307 0.011719355 0.030323928 0.042938214 0.0 0.0
0.0 0.0 0.0 -0.015328238 -0.011668743 -0.009155972 -0.014120172 0.0
-0.011976199 -0.009905744 0.0 0.0 0.0 -0.00979362 0.0 -0.00022251255
0.0 0.0 -0.016279602 0.0 0.0 -0.010994848 0.0 -0.029984625
0.0 -0.00087770104 0.0 0.005983586 0.0 0.0 0.0 -0.01301804
-0.016371228 0.07294672 -0.011577641 0.0013192508 0.0 -0.009922224 -0.0071993037 -0.017129028

conv_v_to_c.feature_module_final.2.weight f4 [64, 64]
00000000: 2baa 3e3c 7b03 0b3d 08ba bb3c c386 ec3c
00000010: 7bb8 5fbd e7bc 24bd 68b9 bebc edfb 59bc
00000020: 5b0b 243d 6003 cf3b 5108 8abb b0a9 07bd
00000030: 0742 cb3c 28bf 853d 8fc7 2f3c ab18 ab3c
00000040: 3248 133d 7d7d b73c e044 1bbc 93e4 e0bb
00000050: 08da df3c 9f15 413d 5fcc e73c 6fcb cfbc
00000060: 3762 bb3c c233 9d3c 66d6 b2bc b9c3 373c
00000070: 9549 02bd 5582 47bd bf50 53bc e057 d73c
00000080: 9801 d2bd dbdd 2abc 0e6f b23b 2077 803c
00000090: d232 b4bc 24d5 06bd a791 dc39 9868 e83c
000000a0: e005 15bb 68d1 50bc e208 26bd c873 dcbb
000000b0: fac9 6b3a c394 b2bd 7f8b 41bc 97a3 4bbb
000000c0: 8f45 753c 6af4 173d d36e 51bc dea9 8b3c
000000d0: f028 f13c 83cf 83bb 818d 08ba 5e75 c6bc
000000e0: c59b 39bd 9742 1a3e e662 78bc 68c3 9f3d
000000f0: 8cf6 ab3c e966 35bd 2eb0 7abd ad6f 13bc
00000100: 24e6 183d 08de 733c bf55 a1ba c36f 373d
00000110: 2863 433c 8a62 663b 2264 de3b eb49 8f3c
00000120: f098 dabc 229f e9bc 7471 90bc 23ae 553a
00000130: 5121 debc fa6e 1d3d 45ca e9bb fa5c 033c
00000140: 84f2 0c3d 5d74 933d 293c c4bb fb92 163d
00000150: deee 523d 1c47 e03c 26a0 4a3d 1783 2abc
00000160: c04d ecbc ed3f 3dbd ffa5 80bd daa5 b6bc
00000170: f387 a93c cebb 8a3c 3b87 e33c 560a 1cbd
00000180: 10ae fa3a a62d 973a 2270 dcbc 9f44 e63c
00000190: 7aad 523d 1f12 22bd c523 7ebb f752 ab3c
000001a0: 096e 1c3c 314a 1abd 64d9 8cbc 5d5c ccbc
000001b0: b9f5 c93c 37be 10bb 4adf 09ba 6cf9 a3bc
000001c0: d228 7bbc fea9 273a 1ff7 33bd b98a 5e3c
000001d0: 272c 123c b3e8 29bc 3aa7 4f3c a018 9ebc
000001e0: b811 0db9 413c a93d 319d dfbb f100 d0bb
000001f0: fb06 273c cd77 3abd 9583 3ebd e5f2 103c
00000200: 8589 15bc df22 0dbd d618 a43c 034f 8c3c
00000210: 8e7c 363a c806 223c d648 143d 460c 15bd
00000220: 5380 9b3c 5a35 02bd ab21 f73c 2b5d 973c
00000230: 6c31 193d 63ee 573d 7b20 4ebd d28d 813c
00000240: 2809 c1bc 9c0d 843c 7a76 923c 3969 123d
00000250: 9805 6e3c 327c d73c e442 2fbc 073d a53c
00000260: 7eff 0f3d 8005 023c 85e7 2e3b 4bf7 dbbc
00000270: 93ed cbbc e690 76bb c6cb 0a3c 28d5 b53c
00000280: 8069 17bd acf7 2dbd e203 773c 79aa 863c
00000290: 93d6 c03c f50b 68bc e35c 14bd 20a7 bab9
000002a0: 483b 243c 6a99 f4bc 8ab2 223c 58ef ec3a
000002b0: 81f5 1f3d 251e 14bd 12b1 ebba 04ca ff3b
000002c0: fd9f 4fbd 9398 76bc 5f8d babb bf5d 3d3d
000002d0: f94e 14bc 7206 db3c 54aa 45bd a74e be3b
000002e0: cd48 5e3c f222 853d 33f5 1f3d 4bcf 233d
000002f0: cf33 eebc 901c 5d3c 44c7 38bd cc4d 0a3d
00000300: d9a9 033b 6e20 2fbb 0f6b 7d3c 4537 3f3c
00000310: ef11 b63b 3cf2 d33c 7d2e 02bd 325a 953c
00000320: 127d dcbc c375 b83b 3799 b9bc 550f d7bc
00000330: f3f0 2a3d 5abf dc3d 33a2 c7bc 493d 4c3c
00000340: 5c7e 38bd d50c f8bc 186f b33a 17b5 5b3c
00000350: dde9 41bc 696f 4e3c dd94 173c b15b 45bc
00000360: 0f02 a43b efea a33c 9d4c dabc 6d0f e6bc
00000370: f7e4 04bc c27b c0bc dc95 843c ca7b be3c
00000380: d9e0 3dbc 94db 983c d598 d53c 633b ba3b
00000390: cc0f 333c facb 6ebd 60a2 65bc aa71 883b
000003a0: 1209 393a 5e7b 393b d512 49bd ebef ebbc
000003b0: dfdc 293d fc3c 42bd 2857 d03c b7d6 e1bc
000003c0: 9b6b e5bc 10a5 d73c deab 973c 888e 7cbb
000003d0: dde0 27bc b514 edbb dd1f 9fbb 2995 0e3d
000003e0: 43e2 31bc 1051 f83d 1ec9 4dbc 99d4 033d
000003f0: fb76 f03b 84ac 08bd 43cb 90bd 145f 80bc
0.011637251 0.033938866 0.022915855 0.028872853 -0.054619294 -0.040219214 -0.023281768 -0.013304693
0.040049892 0.006317541 -0.004212417 -0.03312081 0.024811758 0.06530601 0.010728731 0.020885786
0.035957523 0.022398705 -0.00947687 -0.0068631857 0.027325645 0.04713976 0.028295694 -0.02536556
0.02287398 0.01918972 -0.021830749 0.0112160975 -0.031808455 -0.04870828 -0.012897669 0.02628702
-0.1025421 -0.010428871 0.0054453677 0.015681803 -0.02199689 -0.03291811 0.0004207019 0.028370187
-0.0022739097 -0.012745239 -0.040535815 -0.0067276694 0.00089946354 -0.0871978 -0.011813044 -0.003107285
0.014970197 0.037098326 -0.01278277 0.017048772 0.029438466 -0.00402254 -0.0005209074 -0.024225887
-0.04531457 0.15064465 -0.015160298 0.07800943 0.020991586 -0.044287596 -0.061203174 -0.008998794
0.037328854 0.014884479 -0.001230888 0.04478432 0.011925496 0.0035153949 0.006786839 0.017491302
-0.026684254 -0.028518263 -0.017632224 0.00081512536 -0.027115496 0.038435914 -0.007134708 0.008017773
0.03441097 0.07199929 -0.005988617 0.036761265 0.051497333 0.027377658 0.049469136 -0.010407231
-0.028845668 -0.046203543 -0.06281661 -0.022295881 0.020694708 0.016935255 0.027774444 -0.038095795
0.0019125361 0.001153399 -0.026908938 0.028108893 0.05143497 -0.039568063 -0.0038778645 0.020913584
0.009547719 -0.03766841 -0.017193504 -0.024946386 0.024653303 -0.0022086033 -0.0005259408 -0.020016395
-0.015329557 0.0006395875 -0.043936845 0.013582879 0.00892166 -0.010370421 0.012674147 -0.019298851
-0.00013453409 0.08263446 -0.0068241586 -0.0063477685 0.010194535 -0.045524407 -0.046512205 0.008846973
-0.0091270255 -0.034457084 0.020031374 0.01712752 0.0006961309 0.009889312 0.036202274 -0.036388658
0.018982088 -0.03178916 0.030167421 0.018477043 0.037400648 0.052717578 -0.050323945 0.015814696
-0.023563936 0.01611977 0.01787876 0.03574488 0.014527701 0.026304338 -0.0106971 0.020170702
0.035155766 0.007935882 0.002668829 -0.026851317 -0.024893558 -0.0037622987 0.008471435 0.022196367
-0.036965847 -0.042472526 0.015076609 0.01643871 0.023539817 -0.014163007 -0.036221396 -0.00035601202
0.010023899 -0.02985831 0.009930262 0.0018076701 0.03905249 -0.03616156 -0.0017981848 0.0078060646
-0.050689686 -0.015051025 -0.0056931223 0.04623198 -0.009052032 0.026736472 -0.04825814 0.005807716
0.013567162 0.06500806 0.0390522 0.03999261 -0.029077439 0.013495579 -0.04511191 0.0337656
0.002009025 -0.002672221 0.015467419 0.011670892 0.005556337 0.025872342 -0.031782616 0.018231485
-0.026915107 0.0056292727 -0.022656066 -0.026252428 0.041733693 0.10778685 -0.024369335 0.012465783
-0.04504238 -0.030279556 0.0013689725 0.013409874 -0.0118355425 0.012599804 0.0092518 -0.012045787
0.005005128 0.020009486 -0.02664786 -0.028083527 -0.00811123 -0.023496512 0.01618474 0.023252387
-0.011589252 0.01865939 0.026073853 0.005683349 0.010929059 -0.058299996 -0.014015764 0.0041639404
0.00070585415 0.0028302292 -0.049090225 -0.028800925 0.041470405 -0.04742144 0.025432184 -0.027568204
-0.028005412 0.026323825 0.01851457 -0.0038537104 -0.010246483 -0.0072351345 -0.0048560933 0.03481022
-0.010857168 0.121248364 -0.012560157 0.03218517 0.0073384023 -0.03336765 -0.07070019 -0.015670337
