result/saved_models/regression/trained_params_mean_setcover-independentset-combinatorialauction_asymmetric_firstsol_k_prime_epoch3.pth (torch, 261063 bytes, 28 tensors)

cons_embedding.0.weight f4 [64, 1]
0	0x3e045a03	0.12924962
1	0xbc181e71	-0.009284602
2	0xbc8cb995	-0.017178336
3	0xbb8aa21e	-0.0042307517
4	0xbd037580	-0.03209448
5	0xbd2c77f5	-0.042106587
6	0xbd91be50	-0.07116377
7	0xbc785594	-0.015157122
8	0x3db4bbcc	0.08824882
9	0x3e03ba13	0.1286395
10	0xbce2a180	-0.0276649
11	0x3dc5a998	0.09651488
12	0x3dbca80e	0.092117414
13	0xbd101b83	-0.035182487
14	0xbc03e884	-0.0080510415
15	0xbce70552	-0.02820078
16	0x3db8c1fc	0.090213746
17	0x3ddeccbf	0.10878896
18	0x3dace83f	0.08442735
19	0xbc815e8f	-0.01579216
20	0xbba47ce1	-0.0050197695
21	0x3df6e5e7	0.12055569
22	0xbce9d634	-0.028544523
23	0x3e07a44d	0.1324627
24	0x3dae119a	0.08499451
25	0xb9170ee6	-0.00014406032
26	0x3e58d8cf	0.21176456
27	0x3dbf621c	0.09344885
28	0x3da31c73	0.07964411
29	0x3da60fc3	0.08108475
30	0xbcc5f72b	-0.02416571
31	0x3daf76d0	0.085675836
32	0xbcaccdd9	-0.02109425
33	0x39db545a	0.00041833782
34	0xbc6d81eb	-0.014496307
35	0x3df6bb0f	0.12047397
36	0xbdcb9992	-0.099414006
37	0xbd81cace	-0.0633751
38	0xbd7cfe47	-0.061765935
39	0xbcd4ded1	-0.025985153
40	0x3e04f495	0.12983926
41	0x3db76320	0.089544535
42	0x3a5d7af0	0.00084488
43	0x3dc232f5	0.094823755
44	0xbd9b45d9	-0.07581682
45	0x3db4eb17	0.08833902
46	0xbc71b0a1	-0.014751584
47	0xbbfc4d44	-0.0076996405
48	0xbb4ab3e6	-0.0030929982
49	0xbc825f1a	-0.015914489
50	0x3df64c91	0.12026323
51	0xbd4c40a8	-0.04986635
52	0x3dfd3d8b	0.12365254
53	0xbd6b4e45	-0.05744769
54	0xbb2f467a	-0.0026744888
55	0xbca8a075	-0.020584324
56	0x3dd26615	0.10273377
57	0x3da57923	0.080797456
58	0xbd618eca	-0.055067815
59	0xbdaeaee1	-0.08529449
60	0xbcdc5e29	-0.026900368
61	0xbbcbbb39	-0.006217387
62	0x3da7f2a2	0.082005754
63	0xbd64f77a	-0.055900075

cons_embedding.2.weight f4 [64, 64]
0	0x3db5698b	0.08858021
1	0x3d4e8abf	0.050425287
2	0x3cf93390	0.030420095
3	0xbcbc67b9	-0.022998678
4	0x3bd8e980	0.0066196322
5	0xbbf2ae5e	-0.00740604
6	0x3d3190b2	0.043350883
7	0xbd1866ad	-0.037207294
8	0x3d850ddf	0.06496786
9	0x3dcc6888	0.09980875
10	0x3d225afd	0.039637554
11	0x3da7dc8a	0.08196361
12	0x3dafa867	0.08577042
13	0x3d032c6e	0.032024793
14	0xbaf1a0b5	-0.0018434735
15	0x3c8ff6ab	0.017573675
16	0x3db00782	0.08595182
17	0x3dafb07f	0.08578586
18	0x3db3b57c	0.0877485
19	0x3d53b9e7	0.051690962
20	0x3c9b9887	0.01899363
21	0x3dde9cc9	0.10869748
22	0xb9460549	-0.0001888472
23	0x3da2fb5f	0.079581015
24	0x3d900bba	0.07033487
25	0x3c519331	0.012791441
26	0x3dc93e37	0.0982632
27	0x3d7ac185	0.06121971
28	0x3da54bdc	0.0807111
29	0x3dca8b32	0.09889831
30	0xbc8cbc0e	-0.017179515
31	0x3d8f9863	0.07011487
32	0xbd072e10	-0.033002913
33	0x3c1b7b5a	0.0094898585
34	0x3c8967d4	0.016773142
35	0x3d6c6e4d	0.05772238
36	0xbd3ea63d	-0.046545256
37	0xbcdb8bc6	-0.026800048
38	0xbc00118e	-0.007816685
39	0x3cac2564	0.021013923
40	0x3da12fbb	0.07870432
41	0x3dc17c89	0.09447581
42	0xbccb1f71	-0.024795266
43	0x3d944025	0.07238797
44	0xbcebfd4f	-0.02880731
45	0x3dda0b10	0.10646641
46	0x3d3df4e1	0.046376113
47	0xbd0f4bb2	-0.034984298
48	0x3c114732	0.008867072
49	0xbcd51fc6	-0.026016127
50	0x3de17404	0.11008456
51	0x3d22da96	0.03975924
52	0x3d8f1abe	0.069875225
53	0xbd317cff	-0.043332096
54	0x3c0ea37b	0.008705969
55	0x3c9348ea	0.017979104
56	0x3d6da904	0.058022514
57	0x3d8aceba	0.06777711
58	0x3c8a1632	0.016856287
59	0x3c804a50	0.015660435
60	0xbcd8a4b0	-0.026445717
61	0xbc6e6133	-0.014549541
62	0x3e0bf342	0.13667014
63	0x3beffeb9	0.0073240665
64	0x3db5725b	0.08859702
65	0xbcca3add	-0.024686271
66	0xbaccbf29	-0.0015620935
67	0xbd781315	-0.060565073
68	0xbd17b2dc	-0.037035808
69	0x3c79e4ea	0.015252331
70	0x3cab0df1	0.020880671
71	0x3baeadaf	0.0053307633
72	0x3da17ec3	0.07885506
73	0x3d738f99	0.059463117
74	0xbd029231	-0.0318777
75	0x3cfd4e58	0.030921146
76	0x3d8a48ed	0.06752191
77	0xbc2939a8	-0.010328688
78	0x3cb22630	0.021746725
79	0x3d12de73	0.035856675
80	0x3d89ae33	0.06722679
81	0x3dd2cd4d	0.10293064
82	0x3da7e5d9	0.08198137
83	0x3c946cb0	0.018118232
84	0x3c8dce96	0.017310422
85	0x3e0902a1	0.13379909
86	0xbc39b055	-0.011333545
87	0x3dca7a73	0.098866366
88	0x3d9e457a	0.07728095
89	0xbd3ad732	-0.045615382
90	0x3d9ee391	0.077582486
91	0x3dcde16d	0.10052762
92	0x3d715fd1	0.05892927
93	0x3dad9f4e	0.084776506
94	0xbd124aaa	-0.035715736
95	0x3d914b9c	0.070944995
96	0xbb07887a	-0.0020680712
97	0xbb0b73d6	-0.002127876
98	0x3c23f001	0.010005952
99	0x3df38905	0.11891369
100	0x3b48d4f3	0.0030644506
101	0x3c848a1a	0.016179133
102	0xbd546af3	-0.051859807
103	0x3d19f255	0.03758462
104	0x3da47334	0.08029786
105	0x3d8c9e57	0.068661384
106	0x3c1795f2	0.009252058
107	0x3de4ba4d	0.111683466
108	0xbbe9d4f0	-0.00713598
109	0x3de98145	0.11401609
110	0xbbccbe76	-0.0062482907
111	0x3c4a176b	0.012334685
112	0x3c14a1f8	0.0090718195
113	0x3cc0a849	0.023517745
114	0x3dcceaae	0.10005699
115	0x3cecb6aa	0.028895695
116	0x3da0e240	0.07855654
117	0xbc9d245d	-0.019182378
118	0xbca35eeb	-0.019942721
119	0xbbb58473	-0.005539471
120	0x3ddca284	0.10773185
121	0x3d5a25e8	0.053258806
122	0xbc6e6a55	-0.014551719
123	0xbc8faeb7	-0.017539365
124	0xbd5b591d	-0.053551782
125	0x3caf627f	0.021409271
126	0x3da71f6f	0.08160292
127	0xbcd751d8	-0.026284143
128	0x3d3475b1	0.04405755
129	0x3d104c7b	0.035229187
130	0x3cdca4c8	0.026934043
131	0xbd113987	-0.035455253
132	0x3cc3c4cb	0.02389755
133	0x3caea025	0.021316597
134	0x3c58139d	0.01318827
135	0x3bd62109	0.0065347
136	0xbb350339	-0.002762033
137	0xbd604cdd	-0.054760803
138	0x3c0bdd08	0.008536585
139	0x3b962015	0.004581461
140	0x3c3b4203	0.011429313
141	0x3c82649e	0.015917119
142	0x3c3d24bd	0.011544404
143	0x3b2478ae	0.0025096345
144	0xb92c6347	-0.00016440182
145	0xbca03a89	-0.019559162
146	0x3be7d369	0.0070747626
147	0x3d03a7b6	0.032142363
148	0xbbdca3f2	-0.006733411
149	0x3ccb5f68	0.024825767
150	0x3cb56b06	0.02214576
151	0xbccb6991	-0.024830611
152	0x3c6c3887	0.014417774
153	0xbce82474	-0.028337695
154	0x3c9a3f5e	0.018829044
155	0x3c7fbec8	0.015609451
156	0x3d27128c	0.040789172
157	0xbab21d02	-0.0013588967
158	0x3d82c13f	0.06384515
159	0xbb1a11fd	-0.0023509257
160	0x3c5c2d5e	0.013438551
161	0xbc0bece8	-0.00854037
162	0x3b34b6b3	0.0027574718
163	0xbbdb3c8c	-0.0066905674
164	0x3d2ca88e	0.042152934
165	0x3d4856da	0.048910953
166	0xbc0d84af	-0.008637591
167	0x3c7b6a23	0.015345129
168	0xbc4a6d69	-0.012355187
169	0x3b48ba47	0.0030628608
170	0xbaeaf6e7	-0.0017926366
171	0xbb748ef6	-0.0037316657
172	0x3cefcf99	0.029273795
173	0xbc8f46a1	-0.017489733
174	0xbc73250d	-0.014840377
175	0xbd5d2eb0	-0.053999603
176	0x3cc522bd	0.024064416
177	0x3c50b394	0.012738127
178	0x3c14bb5c	0.009077873
179	0x3cbf20d1	0.023331078
180	0xbc58f556	-0.013242086
181	0x3b17fd4c	0.0023191748
182	0xbcfe81ed	-0.031067813
183	0xbcd4b94f	-0.025967268
184	0xbd2b3bda	-0.041805126
185	0xbbe19b27	-0.0068849507
186	0x3b2ac799	0.002605891
187	0x3bd9d456	0.006647627
188	0x3af547cf	0.0018713417
189	0xbc8d1a0e	-0.017224338
190	0xbce2f944	-0.02770675
191	0x3d852e06	0.06502919
192	0xbcd6bf3b	-0.026214233
193	0x3caf993a	0.021435369
194	0x3c82a202	0.015946392
195	0x3bbb6deb	0.0057198904
196	0x3badd5b6	0.0053050173
197	0x3b79ef25	0.0038136926
198	0xbcf521e9	-0.029923396
199	0x3c228809	0.009920129
200	0xbd12e378	-0.035861462
201	0xbc90065f	-0.017581163
202	0xbc919b61	-0.017774286
203	0xbc24b44f	-0.010052755
204	0x3c8af2b5	0.016961435
205	0x3c13d9c4	0.009024087
206	0x3a890d33	0.0010456204
207	0xbcc95cda	-0.024580408
208	0xbc946ade	-0.018117364
209	0xbb4e43c7	-0.0031473504
210	0x3c9c845e	0.019106086
211	0xbc1dc10b	-0.009628545
212	0xbca3b03e	-0.0199815
213	0xbc923917	-0.017849488
214	0xbcf80d92	-0.030279908
215	0xbc9a37a5	-0.018825362
216	0xbc01254d	-0.007882428
217	0xbca55018	-0.020179793
218	0x3c94c61b	0.01816087
219	0xbc169573	-0.009190905
220	0xbc8e19bb	-0.017346254
221	0xbcd5a339	-0.026078807
222	0x3c3cddb9	0.011527472
223	0x3c305fc1	0.010765017
224	0x3cf9edcb	0.030508896
225	0xbcce0494	-0.025148667
226	0xbd631517	-0.055440035
227	0xbd1fea16	-0.0390416
228	0xbca69888	-0.020336404
229	0xbd085daf	-0.03329247
230	0x3c8e0a45	0.017338881
231	0x3d07036b	0.032962244
232	0xba66a215	-0.0008797956
233	0x3d6097bb	0.0548322
234	0x3cee5688	0.029093996
235	0xbb2ef93f	-0.0026698855
236	0x3cbd5f6f	0.023116795
237	0x3d1912e8	0.037371546
238	0x3c9fe4d4	0.019518293
239	0xbc52d219	-0.012867474
240	0x3d373173	0.044724893
241	0xbbd95a1a	-0.0066330554
242	0x3d59c23b	0.05316375
243	0x3cfa5560	0.030558288
244	0x3b8cd9fb	0.0042984462
245	0x3c037d8b	0.008025537
246	0x3b8ec8fe	0.004357456
247	0x3bd1949a	0.0063958885
248	0xbb16861f	-0.0022968126
249	0x3b12322f	0.0022307744
250	0x3a9f77a4	0.0012166393
251	0x3accf2ff	0.0015636383
252	0xbcc8f5bb	-0.024531236
253	0x3c24b968	0.01005397
254	0xbc7d4203	-0.015457633
255	0x3c2b39be	0.0104507785

var_embedding.0.weight f4 [64, 1]
0	0xbda6ee6e	-0.081509456
1	0xbcb5a485	-0.022173176
2	0xbcd42895	-0.025898257
3	0xbc7febdd	-0.015620199
4	0x3dc994e8	0.09842855
5	0x3deb3d9f	0.11486363
6	0xbb957bb1	-0.0045618643
7	0xbd16824c	-0.036745355
8	0x3deab243	0.11459782
9	0x3da374c3	0.07981255
10	0xbd48088b	-0.048836272
11	0x3d8c73e4	0.06858042
12	0xbc6b5a59	-0.014364802
13	0x3dd7ec3b	0.10543104
14	0xbcb20ef1	-0.02173564
15	0x3e08bc49	0.13353075
16	0x3d8773bc	0.066138715
17	0xbd357bfb	-0.04430769
18	0xbbac0f03	-0.005250813
19	0xbd0f9637	-0.035055365
20	0xbae025a4	-0.0017101062
21	0xbd04eeb0	-0.032454193
22	0xbcaad047	-0.020851268
23	0x3d8733ee	0.06601702
24	0xba474848	-0.00076020183
25	0x3da3a4bb	0.07990404
26	0x3deb6d23	0.114954256
27	0x3dd2e001	0.102966316
28	0xbcb2274a	-0.02174725
29	0x3dafea86	0.08589654
30	0x3db7bb98	0.089713275
31	0x3d8a6ad2	0.067586556
32	0xbdb92a92	-0.09041323
33	0xbaee85d1	-0.0018197839
34	0x3da8afa8	0.08236629
35	0xbb9dd641	-0.004816801
36	0xbc89c8f5	-0.016819457
37	0xbbb60cd0	-0.0055557266
38	0x3d8c24c7	0.06842952
39	0x3da5391c	0.080675334
40	0x3d97375e	0.07383607
41	0x3d946116	0.0724508
42	0x3dea2191	0.114321835
43	0x3dbed53f	0.09318017
44	0x3de4a91f	0.1116507
45	0x3d92a1e7	0.07159787
46	0xbb8aca5b	-0.0042355484
47	0xbd2c3f80	-0.042052746
48	0xbce8afd7	-0.02840416
49	0x3d94582e	0.072433814
50	0x3dd83e9f	0.10558819
51	0xbd04e938	-0.032448977
52	0xbcb3103e	-0.02185833
53	0xbd3cdcfe	-0.046109192
54	0x3dc7a4a4	0.097481996
55	0xbd27e2e2	-0.040987857
56	0x3dd95207	0.106113486
57	0x3dc5ebb6	0.09664099
58	0x3dfbe748	0.12299973
59	0x3db5f92e	0.08885418
60	0xbc5e2bdd	-0.0135602625
61	0xbb50623a	-0.003179683
62	0xbd0f8efd	-0.035048474
63	0xbcb8b0f6	-0.022545319

var_embedding.2.weight f4 [64, 64]
0	0x3cc5839a	0.024110604
1	0xbc947c5d	-0.018125707
2	0x3cabcf0f	0.020972757
3	0x3c699c3f	0.014258443
4	0x3d78d97b	0.06075428
5	0x3dc11c4d	0.09429226
6	0x3c4dea93	0.012568134
7	0xbd1a795c	-0.037713394
8	0x3db8b7b9	0.09019417
9	0x3dae194e	0.0850092
10	0x3b538400	0.0032274723
11	0x3d2fd9d7	0.042932358
12	0x3ca192b3	0.019723272
13	0x3ccefe85	0.025267849
14	0xbcf0a51a	-0.029375602
15	0x3d3d3060	0.046188712
16	0x3d857f3f	0.06518411
17	0xbba73764	-0.0051030386
18	0x3cee76e2	0.029109422
19	0xbcdbb4ea	-0.026819665
20	0xbce07478	-0.027399287
21	0xbcc89364	-0.024484344
22	0x3c7b240b	0.0153284175
23	0x3cc90c70	0.024542063
24	0x3cb97e24	0.022643156
25	0x3ddb599c	0.10710451
26	0x3d595ee1	0.053069
27	0x3d5787c1	0.0526197
28	0x3bb36894	0.005475113
29	0x3d906ec3	0.07052376
30	0x3d8a990b	0.06767472
31	0x3dcbc3ea	0.09949477
32	0x3cb94cbd	0.0226196
33	0xbccd3542	-0.02504981
34	0x3d9286ab	0.07154592
35	0x3d3f61a5	0.04672398
36	0x3d233c03	0.039852154
37	0x3af253d8	0.0018488122
38	0x3d80113b	0.062532865
39	0x3cea0f23	0.02857167
40	0x3d7e95b6	0.062154494
41	0x3d1e60ee	0.038666658
42	0x3da0285e	0.078201994
43	0x3da894fc	0.082315415
44	0x3ddf6856	0.109085724
45	0x3c45e26c	0.012077909
46	0xbc4da2ff	-0.012551068
47	0x3bb5a862	0.0055437544
48	0xbbc6de3f	-0.0060689743
49	0x3dade733	0.084913634
50	0x3d17e91c	0.037087545
51	0xbcafdac7	-0.021466626
52	0x3c48ddbb	0.012259896
53	0xbc421f8b	-0.011848341
54	0x3d5b0b0e	0.05347734
55	0x3cd919d7	0.02650158
56	0x3cecb6e1	0.028895797
57	0x3d3874a7	0.045033123
58	0x3dbd28d8	0.09236306
59	0x3dcaf9dd	0.09910939
60	0xbbcb97c0	-0.0062131584
61	0xbd091657	-0.03346857
62	0xbca8f12f	-0.020622818
63	0x3ace6a1d	0.0015748177
64	0x3cfd005f	0.030883966
65	0xbca57ec0	-0.02020204
66	0xbcb99ddf	-0.022658287
67	0xbce95790	-0.028484136
68	0x3c4dd973	0.012564051
69	0xbc903b5b	-0.017606428
70	0x3d57649f	0.052586194
71	0xbb95b5f3	-0.004568809
72	0xbc8a5e23	-0.016890591
73	0xbb6cbaf5	-0.0036122177
74	0xbc45d75c	-0.012075271
75	0xbba31ddb	-0.0049779243
76	0x3cbe92a9	0.023263292
77	0x3c83b8e7	0.01607938
78	0x3cb23dab	0.021757921
79	0xbcc3cd90	-0.02390173
80	0xbc9fb893	-0.019497192
81	0x3d3fbf58	0.04681334
82	0xbc9e9927	-0.019360138
83	0x3c8c13c5	0.01709927
84	0x3cce2410	0.02516368
85	0x3d4a5c5d	0.04940449
86	0xbc3fdbfe	-0.011710165
87	0xbc340b40	-0.01098901
88	0xbca4497f	-0.020054577
89	0xbcfffad0	-0.031247526
90	0x3c910f7f	0.017707584
91	0xbd085d7b	-0.033292275
92	0x3bb479a3	0.0055076643
93	0xbca5291c	-0.020161204
94	0x3c3a6a0e	0.0113778245
95	0xbc24471b	-0.0100267185
96	0xbc475b23	-0.012167725
97	0x3c6d9edb	0.014503206
98	0xbb3fe8be	-0.0029283012
99	0x3d082393	0.03323705
100	0xbd272fcf	-0.04081708
101	0xbd810c4b	-0.06301173
102	0xbbfe4a72	-0.0077603394
103	0x3c308147	0.01077301
104	0x3b0a2c0b	0.002108338
105	0x3cbb0740	0.022830606
106	0xbd8373af	-0.06418549
107	0x3c587028	0.013210334
108	0x3c44bad3	0.012007433
109	0xbc923fc2	-0.017852668
110	0x3c9da563	0.019243902
111	0xbc8e94dd	-0.017404968
112	0xbd44f226	-0.048082493
113	0xbcf8a060	-0.03034991
114	0xbc61ab22	-0.013773711
115	0xbc674b30	-0.014117047
116	0x3b4443a4	0.0029947544
117	0xbd417b3b	-0.047236662
118	0x3c0e2933	0.008676815
119	0xbca9998f	-0.020703105
120	0x3d277be6	0.040889643
121	0xbc5c1657	-0.013433061
122	0x3bf402c0	0.007446617
123	0x3cce563b	0.025187602
124	0xbce2f4f3	-0.027704692
125	0xbd3f6532	-0.046727367
126	0xbc49f061	-0.012325377
127	0xbd4194b0	-0.04726094
128	0x3d5f2e0b	0.05448727
129	0xbd13a28f	-0.0360437
130	0x3d1f2b82	0.03885985
131	0x3ce44ab8	0.02786766
132	0x3ddca6de	0.10774015
133	0x3d95b0e9	0.073091336
134	0x3b5d94d3	0.003381063
135	0x3c797aad	0.015227002
136	0x3db165cc	0.08661994
137	0x3dabcbc4	0.083884746
138	0xbc9f353b	-0.019434562
139	0x3d9ec5b4	0.07752553
140	0x3c3260a8	0.010887302
141	0x3df1391f	0.11778473
142	0x3c938fc5	0.01801289
143	0x3d93c754	0.07215753
144	0x3d68632c	0.056735203
145	0xbb6adb82	-0.0035836403
146	0x3ce8b7bb	0.028407922
147	0xbc3ca02f	-0.0115128
148	0xbb184caa	-0.0023239055
149	0xbb9b9567	-0.0047480348
150	0xbc91f6e3	-0.01781792
151	0x3d9b7bef	0.07591998
152	0xbc8240de	-0.015900072
153	0x3d3dc38b	0.046329062
154	0x3ba5989f	0.0050535942
155	0x3da9b6be	0.082868084
156	0x3c90fe21	0.017699303
157	0x3db37736	0.08762972
158	0x3d97a1fb	0.07403942
159	0x3db7395b	0.089464866
160	0x3c998853	0.018741762
161	0x3ce2e733	0.027698135
162	0x3da0c685	0.078503646
163	0xbb74ab0f	-0.0037333404
164	0xbc9151b1	-0.017739149
165	0x3d1d55b0	0.038411796
166	0x3db6fcd2	0.089349404
167	0x3d5ecdb8	0.054395407
168	0x3d0d2fc9	0.0344694
169	0x3c584b5c	0.013201561
170	0x3d933fc1	0.071898945
171	0x3d18a66d	0.03726809
172	0x3d8a569c	0.06754801
173	0x3d23bef3	0.039977025
174	0xbadd1fca	-0.0016870436
175	0xba6762c7	-0.00088266697
176	0xbd7fda88	-0.062464267
177	0x3dcc3e2d	0.099727966
178	0x3da4dd9d	0.08050082
179	0xbc10a04d	-0.008827281
180	0xbcda0c65	-0.026617238
181	0xbd09fe53	-0.033689808
182	0x3d42f006	0.047592185
183	0xb913fd99	-0.00014113485
184	0x3d264677	0.040594544
185	0x3d1306b9	0.035895083
186	0x3d8ae76c	0.067824215
187	0xbc0579c8	-0.008146711
188	0x3c4efde3	0.0126337735
189	0x3ce82b5d	0.02834099
190	0xbd2de77e	-0.042457096
191	0x3d0a0dc5	0.033704538
192	0x3ce9e262	0.02855033
193	0x3d23ae93	0.03996141
194	0x3c3ec9bf	0.01164478
195	0xbc826813	-0.015918767
196	0x3d4d41a9	0.050111447
197	0x3daa3dc7	0.08312564
198	0xbd09539c	-0.033527
199	0x3d144cf6	0.03620621
200	0x3d157e1e	0.036497228
201	0x3dc21b2c	0.09477839
202	0xbce24683	-0.027621513
203	0x3d39dc0f	0.04537588
204	0xbbd3b447	-0.0064606997
205	0x3d8f02d8	0.06982964
206	0x3c94f327	0.01818235
207	0x3da81dad	0.08208785
208	0x3da43be2	0.08019234
209	0xbc133a33	-0.008986044
210	0xbcd3c06f	-0.025848595
211	0x3c9e7ea6	0.0193475
212	0x3d24f483	0.040272247
213	0x3ba6918c	0.0050832685
214	0x3bf0e5c2	0.007351608
215	0x3d35ba23	0.044366967
216	0x3b2a67aa	0.002600173
217	0x3dad06e4	0.0844858
218	0x3d981fb8	0.07427925
219	0x3cf21663	0.02955169
220	0x3c2ddc08	0.010611542
221	0x3d908359	0.070563026
222	0x3d1cc0b5	0.038269717
223	0x3c1fa33b	0.009743507
224	0x3c01d937	0.007925323
225	0x3bc92f8d	0.0061397017
226	0x3d8274e6	0.06369953
227	0x3bce8c97	0.0063033807
228	0x3d058b0a	0.0326033
229	0xbc03d853	-0.008047181
230	0x3d75fe77	0.06005713
231	0x3d6d071a	0.0578681
232	0x3dc44077	0.09582608
233	0x3d96d623	0.07365062
234	0x3cc4fa74	0.024045207
235	0x3d933698	0.07188147
236	0x3d8e4b09	0.069479056
237	0x3d45ea7c	0.048319325
238	0x3bf44f4b	0.0074557415
239	0x3ce5cda8	0.028052166
240	0x3b5760ab	0.0032864015
241	0x3d8406ee	0.06446634
242	0x3dd8a9cb	0.105792604
243	0xba51fb07	-0.0008010123
244	0x3d098157	0.033570614
245	0x3bbe2077	0.00580221
246	0x3d41f00a	0.04734806
247	0x3c4fbf42	0.012679877
248	0x3d64aedc	0.05583082
249	0x3d964fa5	0.0733941
250	0x3d09b8fd	0.033623684
251	0x3d29ed76	0.041486226
252	0x3c52dc30	0.01286988
253	0x3c36daff	0.011160611
254	0x3be3144b	0.0069299093
255	0x3bfdc8ba	0.0077448757

conv_v_to_c.feature_module_left.0.weight f4 [64, 64]
0	0xbd48e02b	-0.04904191
1	0x3cae09fb	0.021244993
2	0xbd90e7a1	-0.0707543
3	0x3bda07eb	0.006653776
4	0xbbb00652	-0.005371847
5	0x3d22be0b	0.03973202
6	0x3b11b66a	0.0022233971
7	0xbc68b6cb	-0.0142037375
8	0xbb9a5ca3	-0.00471075
9	0x3c45456f	0.01204048
10	0xbd104786	-0.03522446
11	0x3bccf6c2	0.0062550018
12	0xbd68d11d	-0.05684005
13	0xbc4e842f	-0.012604757
14	0xba62651b	-0.0008636282
15	0x3d9537df	0.07286047
16	0x3c913404	0.017724998
17	0x3d2436b3	0.040091228
18	0xbc9a5cff	-0.018843172
19	0x3c3af4a1	0.011410863
20	0xbce6320e	-0.02810004
21	0xbb60b551	-0.003428776
22	0xbcdd2a03	-0.026997572
23	0x3d9932a1	0.0748036
24	0xbcf417b2	-0.029796455
25	0xb9877141	-0.00025833587
26	0xbd387db5	-0.04504176
27	0x3cf4b8c3	0.029873258
28	0xbc42c5e2	-0.011887999
29	0x3cd22b40	0.025655389
30	0xbbfc25e1	-0.007694945
31	0xbcdb85fa	-0.026797283
32	0x3c871704	0.016490467
33	0x3d0c78eb	0.034295004
34	0xbc66a4bd	-0.014077363
35	0xbb1fd193	-0.002438639
36	0xbbf1ce3d	-0.007379322
37	0xbbcdf55c	-0.0062853526
38	0xbd2f2e56	-0.0427688
39	0x3c22a6db	0.009927477
40	0x3c8173f1	0.015802355
41	0xbd88ba6f	-0.066761844
42	0x3d07b303	0.033129703
43	0xbbbbec72	-0.0057349736
44	0x3d211812	0.039329596
45	0xbcb1cde6	-0.021704625
46	0xbca2dfa8	-0.019882038
47	0xba340cdf	-0.0006868373
48	0x3ba44988	0.0050136484
49	0xbcdc531a	-0.026895095
50	0xbd1c153f	-0.0381062
51	0xbc7f5c5f	-0.015585988
52	0xbdacb5c3	-0.08433106
53	0xbcd41047	-0.025886668
54	0xbc4c3f44	-0.012466256
55	0xbce0fa5f	-0.027463136
56	0xbd24fd01	-0.040280346
57	0x3c85e756	0.016345661
58	0xbbce57c3	-0.006297083
59	0xbd57d470	-0.05269283
60	0xbd411987	-0.047143485
61	0xbc7afe0d	-0.0153193595
62	0xbd12aa57	-0.03580698
63	0xbd44939a	-0.047992326
64	0xbd3f4081	-0.046692375
65	0x3caf013a	0.02136289
66	0xbd49982e	-0.049217395
67	0xbcf07ca3	-0.029356306
68	0xbb789dd5	-0.0037935872
69	0xbd6d809f	-0.05798399
70	0xbdb3c430	-0.08777654
71	0xbd4f8b2a	-0.050669827
72	0xbd6c97c5	-0.057761926
73	0xb9933263	-0.00028075566
74	0xbd401c02	-0.04690171
75	0xbbe52c13	-0.0069937794
76	0xbda18840	-0.07887316
77	0x3becb762	0.0072240094
78	0x3ccd4070	0.02505514
79	0x3cf35675	0.029704312
80	0xbb04a7da	-0.002024165
81	0x3c36b680	0.01115191
82	0xbce1e813	-0.027576482
83	0xbcd80fc2	-0.026374701
84	0xbd3ac53a	-0.045598246
85	0x3ca347ff	0.019931791
86	0x3ba35f50	0.0049857274
87	0xbb8edbb8	-0.0043596886
88	0xbd962415	-0.07331101
89	0x3c93c1db	0.018036773
90	0xbc9f6d41	-0.019461276
91	0xbcb32643	-0.02186883
92	0x3a26a9b3	0.00063576846
93	0x3d1aa1bb	0.037751894
94	0xbd826a16	-0.063678905
95	0xbcd163db	-0.02556031
96	0x3b66ddbb	0.0035227377
97	0xbc45b49b	-0.0120669855
98	0x3ce47f27	0.027892662
99	0x3ce1a07b	0.027542343
100	0x3b9d5993	0.004801938
101	0xbd922842	-0.07136585
102	0x3cd63377	0.026147587
103	0xbc8a2fc4	-0.01686848
104	0x3cd3e420	0.025865614
105	0xba53b8b4	-0.0008076534
106	0xbcbd2faf	-0.023094026
107	0xbc3e4c73	-0.011614907
108	0xbc93dbaf	-0.01804909
109	0x3c9cb70c	0.019130252
110	0xbd30d347	-0.04317024
111	0x3c36a32c	0.011147302
112	0x3c822e5e	0.01589125
113	0xbd20ca6a	-0.039255537
114	0xbd686f64	-0.056746855
115	0x3d4996a2	0.04921592
116	0x3cdf0177	0.027222378
117	0xbd2fdd94	-0.042935923
118	0xbd5e0efb	-0.054213505
119	0x3c3471ba	0.011013443
120	0xbdc317b4	-0.095260054
121	0x3cc42ac3	0.023946172
122	0xbd0923d5	-0.033481438
123	0xbc8e9fec	-0.017410241
124	0xbd21cb9b	-0.039500814
125	0xbd9d37f4	-0.07676688
126	0x3bfaf5e2	0.007658706
127	0xbcefa467	-0.029253198
128	0xbd1b1032	-0.037857242
129	0xbd6ec535	-0.05829354
130	0xbd2d4555	-0.04230245
131	0xbd929978	-0.07158178
132	0x3bd78baf	0.006577931
133	0xbc53e2dc	-0.012932505
134	0xbc721e50	-0.014777735
135	0xbdc3dc72	-0.09563531
136	0xbcdd29f5	-0.026997546
137	0x3bab672b	0.0052308044
138	0xbdc98348	-0.09839493
139	0xba4f9562	-0.0007918683
140	0xbd7a47b3	-0.061103534
141	0x3b4afa1b	0.0030971828
142	0x3a4aced8	0.00077365106
143	0xba2e8545	-0.0006657432
144	0xbac48862	-0.0014994259
145	0xbc14e439	-0.009087616
146	0xbc890b8a	-0.016729135
147	0xbd0b52a9	-0.034014378
148	0xbc44b129	-0.012005129
149	0xbc9fe23b	-0.019517055
150	0x3ce41835	0.027843574
151	0x380d2acb	3.3656874e-05
152	0xbda02940	-0.07820368
153	0xbc635f3f	-0.013877689
154	0xbd51f240	-0.05125642
155	0xba63b4d5	-0.0008686309
156	0xbd9fc629	-0.07801468
157	0xbc778677	-0.0151077425
158	0xbcda2578	-0.026629195
159	0xbc330fd8	-0.01092907
160	0xbd0ef49e	-0.034901254
161	0xbd48c99b	-0.04902039
162	0x3cc8daaa	0.02451833
163	0xbd8165a1	-0.06318212
164	0xbcc3595a	-0.023846317
165	0xbdb37c3a	-0.08763929
166	0x3cbb50ed	0.022865737
167	0x3cd26d40	0.02568686
168	0xbd09acab	-0.033611935
169	0xbdabfe52	-0.08398117
170	0xbc67e117	-0.014152787
171	0xbc47c53b	-0.0121930195
172	0xbd0d0f31	-0.034438316
173	0x3cd6e1eb	0.026230773
174	0x3d28414e	0.041077904
175	0xbc86469a	-0.016391087
176	0xbd285ba7	-0.04110303
177	0xbd658ad0	-0.056040585
178	0xbd264625	-0.04059424
179	0xbcb131b7	-0.021630151
180	0xba259b2f	-0.00063173746
181	0xbd7b78eb	-0.061394613
182	0xbc35f430	-0.011105582
183	0x3d341cc0	0.04397273
184	0xbd963361	-0.073340185
185	0x3bcc537b	0.0062355376
186	0xbc672868	-0.014108755
187	0xbc857b52	-0.016294155
188	0xbcddb897	-0.027065558
189	0xbcbdea1b	-0.02318292
190	0xbc9f57ae	-0.019450989
191	0xbce9fa11	-0.028561624
192	0x3d7068a4	0.058693543
193	0x3cfe9528	0.031076983
194	0x3d7b87de	0.06140887
195	0x3da9c05a	0.08288641
196	0xbcc2048f	-0.023683814
197	0x3d97e79d	0.074172236
198	0x3d4fb030	0.050705135
199	0x3ce23574	0.027613379
200	0x3dc4682e	0.09590183
201	0x3d0cd614	0.03438385
202	0x3d48643f	0.048923727
203	0xbb7b9ed7	-0.0038394236
204	0x3d6fe947	0.05857208
205	0xbc865b90	-0.016401082
206	0x3b81c2cf	0.0039599906
207	0xbbe5acea	-0.0070091384
208	0xba13cbff	-0.0005638003
209	0x3ce4d60c	0.027934097
210	0x3be8b535	0.0071016797
211	0x3c059977	0.008154265
212	0x3dbb7fd0	0.09155238
213	0x3c057611	0.008145825
214	0xbcef8f89	-0.029243248
215	0xbcf1a4f0	-0.029497594
216	0x3da35b52	0.07976402
217	0xbce85b90	-0.028363973
218	0x3d9b58cc	0.07585296
219	0x3cb3efcb	0.021964928
220	0x3dc5221d	0.09625647
221	0x3d046baa	0.03232924
222	0x3d609470	0.05482906
223	0x3d5ce0ef	0.05392545
224	0x3d030ddb	0.031995635
225	0xbd4f57f2	-0.05062098
226	0xbcf12358	-0.029435799
227	0x3a057424	0.00050908537
228	0x3daf28be	0.08552693
229	0x3dfc0291	0.12305177
230	0xbd124e97	-0.03571948
231	0xbc710565	-0.014710759
232	0x3b17b33d	0.0023147606
233	0x3d9acab3	0.07558193
234	0xbce8541a	-0.028360415
235	0x3d434418	0.04767236
236	0xbd07b6ff	-0.033133503
237	0x3d24c272	0.0402245
238	0x3d049a17	0.032373514
239	0x3b545777	0.0032400766
240	0xbca769b7	-0.020436151
241	0x3d2663bc	0.040622458
242	0x3daad355	0.0834109
243	0x3d77f632	0.060537525
244	0xbc4b3efd	-0.012405154
245	0x3d3bec4c	0.045879647
246	0x3cbd1da5	0.023085425
247	0x3cd041f3	0.025422072
248	0x3d9ec4af	0.07752358
249	0xbb84b46e	-0.004049829
250	0xba843754	-0.001008729
251	0x3c127421	0.00893882
252	0x3d847f19	0.064695545
253	0x3d835c9b	0.064141475
254	0xbbd1e1ff	-0.0064051147
255	0x3d8583c5	0.06519274

conv_v_to_c.feature_module_left.0.bias f4 [64]
0	0xbc07f22a	-0.0082974825
1	0xbcdd5c35	-0.027021507
2	0x3d44e027	0.04806533
3	0x3bd644c3	0.0065389588
4	0xbdcf30e3	-0.10116746
5	0x3d9ea39d	0.077460505
6	0xbdc7bd3e	-0.09752892
7	0x3a891843	0.0010459501
8	0xbdaf360d	-0.08555231
9	0xbd9b3894	-0.07579151
10	0xbd3601b4	-0.044435218
11	0xbdee5592	-0.11637415
12	0x3d905422	0.07047297
13	0xbce3dac3	-0.027814275
14	0xbdc2f9aa	-0.09520276
15	0xbda11bdf	-0.07866644
16	0xbdad610e	-0.08465777
17	0xbda81598	-0.08207244
18	0xbdbb1661	-0.09135128
19	0xbc7af421	-0.015316994
20	0xbdb5a563	-0.08869436
21	0xbd519723	-0.051169526
22	0x3cf7df7a	0.03025793
23	0xbd13ea94	-0.036112383
24	0x3dde8870	0.10865867
25	0xbdf88307	-0.121343665
26	0x3d44490e	0.047921233
27	0xbde7218d	-0.11285696
28	0x3d51fcdb	0.051266532
29	0xbcc6e5b5	-0.024279455
30	0x3a850704	0.0010149186
31	0xbc9e0a95	-0.019292155
32	0xbd48b781	-0.049003128
33	0xbcbb54fd	-0.022867674
34	0xbd8c2a76	-0.06844036
35	0x3d7f9776	0.062400304
36	0xbc869d47	-0.016432418
37	0xbc9d4ded	-0.019202197
38	0x3c705d3d	0.014670667
39	0x3d81ce05	0.06338123
40	0xbcba2b8f	-0.022725848
41	0xbdc31579	-0.0952558
42	0x3d5b1feb	0.053497236
43	0xbb72ccc6	-0.0037048324
44	0xbdc161ae	-0.09442459
45	0x3d042dad	0.032270122
46	0x3cfb90ce	0.030708697
47	0x3d790385	0.060794372
48	0xbd7b1268	-0.06129685
49	0x3d93d474	0.072182566
50	0x3d3d826e	0.046266966
51	0x3d5ac41f	0.053409692
52	0x3ddb68d5	0.107133545
53	0xbdf03f54	-0.11730829
54	0x3d73e261	0.059542064
55	0x3cb6dad8	0.02232115
56	0x3ca1ae49	0.019736426
57	0xbcfb920a	-0.030709285
58	0xbe1dfecf	-0.15429233
59	0x3db6727b	0.08908554
60	0x3d43aa17	0.047769632
61	0xbdd72bfe	-0.10506438
62	0x3d717dd4	0.05895789
63	0xbcab473e	-0.020907994

conv_v_to_c.feature_module_edge.0.weight f4 [64, 1]
0	0x3db5d112	0.088777676
1	0x3d3b06ac	0.04566066
2	0x3d26fa3c	0.040765986
3	0x3c84455c	0.016146354
4	0xbcc07972	-0.02349541
5	0xbd76805f	-0.060181018
6	0x3d0ddf24	0.03463663
7	0xbc07f5e6	-0.008298373
8	0xbc5bffe5	-0.013427709
9	0x3bc154a5	0.005899983
10	0x3dacac37	0.08431285
11	0xbcbae890	-0.022815973
12	0x3d90139e	0.07034992
13	0x3d2f7662	0.042837508
14	0x3ab69609	0.0013930212
15	0x3d797672	0.060903974
16	0x3d6359ed	0.05550568
17	0xbd1164d7	-0.03549656
18	0x3d1c7719	0.038199518
19	0x3d08f01e	0.03343212
20	0xbc57297c	-0.013132449
21	0xbbcca7a0	-0.0062455684
22	0x3d2e59b8	0.04256603
23	0xbce44371	-0.02786419
24	0x3d2e1777	0.042502847
25	0xbcd51b58	-0.026014015
26	0xbb73d4b9	-0.003720565
27	0x3cc60877	0.024173958
28	0x3c4a954d	0.012364698
29	0xbbb5d546	-0.005549106
30	0x3d21e2cf	0.039522942
31	0xbad266f6	-0.0016052413
32	0xbcbc877e	-0.023013826
33	0xbccda69c	-0.02510386
34	0x3c1c5929	0.009542742
35	0x3b2e4932	0.002659392
36	0xbd0a76fc	-0.03380488
37	0xbc730546	-0.0148328
38	0xbbb95fbd	-0.005657165
39	0x3da5a6f9	0.08088488
40	0x3c6b600a	0.014366159
41	0x3c7338dd	0.0148451
42	0xbcf06320	-0.029344141
43	0xbcafbf64	-0.021453567
44	0xbcdeab2b	-0.027181229
45	0xbce171a3	-0.027520007
46	0xbbe08a91	-0.006852456
47	0xbc864507	-0.016390337
48	0xbd5ccc0d	-0.053905535
49	0x3cbe70cd	0.023247147
50	0xbc8ea605	-0.017413149
51	0x3cf9880f	0.030460386
52	0xbcb3790b	-0.021908304
53	0xbd82584e	-0.06364499
54	0x3c99d103	0.018776422
55	0x3c04f1cf	0.008114292
56	0xbcadddca	-0.021223921
57	0xbb03d770	-0.0020117424
58	0x3c6f2cb5	0.014598061
59	0x3d8d6008	0.06903082
60	0xbd258a1e	-0.040414922
61	0x3b813768	0.0039433725
62	0xbccfbc52	-0.025358353
63	0x3cff059b	0.031130603

conv_v_to_c.feature_module_edge.0.bias f4 [64]
0	0xbea8c4e7	-0.32962725
1	0xbe4d9fd5	-0.20080502
2	0xbe9aa70c	-0.30205572
3	0xbf483acd	-0.7821472
4	0xbebcad08	-0.36850762
5	0x3f4e6da3	0.8063604
6	0xbf21ccd1	-0.6320315
7	0xbf02da33	-0.51114196
8	0xbf3dd379	-0.74150807
9	0xbf4acdf6	-0.7922052
10	0xbf1d578e	-0.6146172
11	0x3e925406	0.2857973
12	0x3f26a3a5	0.6509345
13	0x3e37b913	0.17941694
14	0x3e9441b0	0.28956366
15	0xbf2b269a	-0.66855776
16	0x3eed9912	0.46405846
17	0xbf793a9d	-0.9735506
18	0x3f691cd2	0.910596
19	0x3ee8aefd	0.45446005
20	0x3e5d573b	0.21615307
21	0x3e25a735	0.16177066
22	0xbed5732e	-0.41689438
23	0xbf3ef9d3	-0.7459995
24	0xbf50cecc	-0.81565547
25	0xbf5d357a	-0.86409724
26	0xbf149d4c	-0.58052516
27	0x3f110ddf	0.5666179
28	0x3f312a00	0.6920471
29	0x3e9c9d27	0.30588648
30	0x3f5eef6a	0.87084067
31	0xbf0fa609	-0.56112725
32	0x3e1b344f	0.15156673
33	0x3ea9a3d5	0.33132806
34	0xbf260cb7	-0.6486315
35	0xbe957198	-0.29188228
36	0xbe3feec8	-0.18743432
37	0x3d95e364	0.07318762
38	0xbf46ae79	-0.77609974
39	0x3e949a7e	0.29024118
40	0xbf4e7f4e	-0.80663
41	0xbf28c234	-0.6592133
42	0x3f3d56ea	0.73960745
43	0xbf5746b5	-0.84092265
44	0xbf2b9ea1	-0.67038924
45	0xbd79c037	-0.060974326
46	0xbf11c2ce	-0.56937873
47	0x3e9d9dfb	0.30784592
48	0xbf2a5136	-0.6653017
49	0x3f1404b4	0.57819676
50	0xbea82040	-0.32837105
51	0x3eb1142d	0.34585705
52	0xbe9ea255	-0.30983225
53	0xbf3b981f	-0.73278993
54	0xbe976919	-0.2957237
55	0x3d9b67d3	0.07588162
56	0x3f2cbb1a	0.67472994
57	0x3de1e462	0.11029889
58	0x3eda3f6d	0.42626515
59	0x3ee20e0d	0.44151345
60	0xbf1f08ae	-0.6212262
61	0x3e56c4dc	0.20973533
62	0x3ca8f6eb	0.020625552
63	0x3f1e615b	0.618673

conv_v_to_c.feature_module_right.0.weight f4 [64, 64]
0	0x3c5714ff	0.013127564
1	0xbcc346bf	-0.023837445
2	0xbc21adde	-0.009868113
3	0x3d2a01f5	0.041505773
4	0xbcab41b1	-0.020905348
5	0x3d12dfd7	0.035858
6	0xbaa37d3b	-0.0012473235
7	0xbd203255	-0.0391105
8	0xbd087018	-0.033310026
9	0xbc264fcb	-0.01015086
10	0xbc1ab4c9	-0.009442517
11	0xbcbf4f0b	-0.02335312
12	0x3c0b2829	0.008493462
13	0xba8b01e3	-0.0010605421
14	0x3cd0968a	0.025462408
15	0x3cae3936	0.021267515
16	0xbb3674bc	-0.0027840575
17	0xbd022a03	-0.031778347
18	0xbce4b752	-0.027919445
19	0xbcb9e543	-0.022692328
20	0xbc0207ea	-0.007936457
21	0xbd6f2278	-0.05838248
22	0x3cd66bcf	0.026174454
23	0xbbd046d8	-0.0063561015
24	0x3d0a8a6a	0.03382341
25	0xbceb9fab	-0.028762659
26	0x3d1ff841	0.039055113
27	0xbd0dad17	-0.0345889
28	0x3ce1314d	0.027489329
29	0x3c00e7f9	0.007867807
30	0x3c511773	0.012761938
31	0x3a9912dd	0.0011678595
32	0xbb189069	-0.0023279435
33	0xbd0c01b1	-0.0341813
34	0xbc7202b5	-0.014771153
35	0x3b846aba	0.004041043
36	0x3c83cf03	0.016089922
37	0x3d1ae49e	0.037815683
38	0xbd3d27a5	-0.046180386
39	0x3c0af453	0.008481103
40	0x3c9e9c96	0.019361775
41	0xbd073d1e	-0.03301727
42	0xbc73b60d	-0.014874947
43	0x3ae00db8	0.0017093932
44	0xbcaa7e94	-0.02081231
45	0xbc3de9a9	-0.011591353
46	0xbc861d3f	-0.016371367
47	0xbcb0d493	-0.021585738
48	0xbc1a41c3	-0.009415093
49	0xbcc27116	-0.023735564
50	0xbcf64465	-0.03006191
51	0xbc5a7018	-0.013332389
52	0x3c852a85	0.016255626
53	0x3c808310	0.015687495
54	0xbd076137	-0.033051696
55	0xbcce8cdf	-0.025213657
56	0xbc4fe7ba	-0.012689525
57	0xbc3b93b0	-0.011448786
58	0x3c69ce4a	0.014270375
59	0xbb471190	-0.0030375458
60	0x3d491cbb	0.049099665
61	0xbd20c2b7	-0.039248195
62	0xbd4057a5	-0.046958584
63	0xbd01535d	-0.031573642
64	0x3b9f99ca	0.004870628
65	0xbb9ad54b	-0.0047251335
66	0xba7bd078	-0.00096059544
67	0x3cb14214	0.021637954
68	0x3c89099f	0.01672822
69	0xbc8debf6	-0.017324429
70	0x3cd085cd	0.025454426
71	0x3c6610ab	0.01404206
72	0x3b4d7e55	0.0031355817
73	0xba64b9d0	-0.0008725198
74	0x3cb60bda	0.022222448
75	0x3b08bfc6	0.002086626
76	0x3c414c9f	0.011798053
77	0x3cf37803	0.029720312
78	0xbc82eb09	-0.015981214
79	0xbd0b55b0	-0.034017265
80	0xbc06584f	-0.008199765
81	0xbd80365f	-0.062603705
82	0x3b3665c7	0.002783166
83	0xbc243f31	-0.010024832
84	0x3b827e77	0.003982361
85	0x3c40c005	0.011764531
86	0x3c8e6303	0.017381197
87	0x3ccdeafa	0.02513646
88	0x3c6f75a2	0.014615448
89	0xbd4242af	-0.047426876
90	0x3c569d60	0.013099045
91	0x3c59bbf2	0.013289439
92	0xbd29e015	-0.041473467
93	0x3c8b503e	0.017006036
94	0x3d01723e	0.03160309
95	0x3d07b7e9	0.033134375
96	0xbc750632	-0.01495509
97	0xbaf86dda	-0.0018953637
98	0xbd230b4b	-0.03980569
99	0x3c8cb2cf	0.017175106
100	0x3c0ae564	0.008477543
101	0xbc8f7f53	-0.017516768
102	0x3c1d670a	0.009607086
103	0xbc874ce1	-0.01651615
104	0xbbe00058	-0.0068359785
105	0xbbd6e5d8	-0.006558161
106	0x3c1c53af	0.009541436
107	0x3c9fa333	0.019487
108	0xbd293554	-0.041310623
109	0xbca0f8c8	-0.019649878
110	0xba964c7f	-0.0011466889
111	0xbd1ca5d3	-0.03824408
112	0x3c9b8ae3	0.018987125
113	0xbbbd18d3	-0.0057707815
114	0x3cc29331	0.023751827
115	0x3bc6ac5f	0.0060630287
116	0xbc9f48a0	-0.01944381
117	0xbbca9c9c	-0.00618322
118	0x3be8f38b	0.0071091107
119	0xbd39b7ce	-0.045341305
120	0xbcf94bc3	-0.030431634
121	0x39e455f7	0.00043551598
122	0x3d1fbce3	0.038998496
123	0x3c4af50f	0.012387528
124	0xbbda0e1d	-0.0066545145
125	0x3c0bb765	0.008527611
126	0x3d2d82df	0.042361137
127	0xbaf7024f	-0.0018845293
128	0x3d27e628	0.04099098
129	0xbb12192f	-0.0022292843
130	0x3b726997	0.0036989206
131	0x3a947e8b	0.0011329217
132	0xbce9b1c5	-0.02852715
133	0x3b288cff	0.0025718806
134	0xbcd74c23	-0.026281422
135	0xbcee0b6d	-0.029058183
136	0x3d9d7cbf	0.07689809
137	0x3b897cce	0.004195786
138	0xbb30c473	-0.0026972562
139	0xbc217a53	-0.0098558245
140	0xbb512137	-0.0031910667
141	0x3c4ccb7d	0.012499687
142	0x3b166963	0.0022951
143	0x3c4ab824	0.012373004
144	0x3d6f4140	0.058411837
145	0xbd266d7c	-0.040631756
146	0xbd787bfa	-0.06066511
147	0xbbf0242f	-0.007328532
148	0xbc182df9	-0.0092883045
149	0x3becc155	0.0072251954
150	0x3cfbdac0	0.030743957
151	0xbd0ec1e5	-0.03485288
152	0xbbeadcda	-0.007167441
153	0xbd370a3d	-0.0446875
154	0xbd05889d	-0.032600988
155	0xbbec3e3b	-0.007209567
156	0x3cc05758	0.023479149
157	0xbae78edd	-0.0017666478
158	0xbccebc83	-0.025236374
159	0x3d24e093	0.040253233
160	0xbcd185dd	-0.025576526
161	0x3d04b493	0.03239877
162	0x3b6b9f88	0.0035953242
163	0x3d3fb191	0.0468002
164	0xbcb03e8e	-0.021514203
165	0x3c5f9f77	0.013648859
166	0x3be76af8	0.007062312
167	0xbc94dd4a	-0.018171925
168	0x3cf2b7aa	0.029628593
169	0xb9c14398	-0.0003686219
170	0x3a8f730a	0.0010944318
171	0x3cc9104f	0.02454391
172	0x3cc51900	0.024059772
173	0xbcd53fd3	-0.02603141
174	0x3d0f55e7	0.034994032
175	0x3d555e03	0.05209161
176	0x3b8815de	0.0041529974
177	0xbc3ca573	-0.011514056
178	0xbb68f017	-0.0035543495
179	0x3cd7ebd3	0.026357567
180	0xbcc5a302	-0.02412558
181	0x3bcc3798	0.006232213
182	0x3cc85f9e	0.024459656
183	0xbc258575	-0.010102619
184	0xbae8515b	-0.0017724441
185	0xbd039d64	-0.03213252
186	0xbccff5d3	-0.025385773
187	0x3cbe0973	0.023197865
188	0xbc3596c8	-0.011083312
189	0x3be2ba20	0.0069191605
190	0x3bbe7e0b	0.0058133653
191	0x3d193435	0.037403304
192	0xbc9c45e1	-0.01907629
193	0x3c78fdc3	0.01519722
194	0x3d25b265	0.040453333
195	0xbcc91535	-0.024546245
196	0x3c351b1b	0.011053826
197	0x3d44cc4a	0.048046388
198	0xbc71741d	-0.014737156
199	0xbc70e32d	-0.0147026
200	0x3d0e09d4	0.03467734
201	0xbcb6c45a	-0.022310425
202	0x3b9f49d3	0.0048610955
203	0xbb1ee91b	-0.0024247828
204	0x3d218572	0.039433904
205	0xbd0fc0ef	-0.035096105
206	0x3c7e7a70	0.015532121
207	0x3b37cf7c	0.0028047254
208	0x3c590e68	0.013248064
209	0x3b8da372	0.0043224627
210	0x3bedae83	0.0072534694
211	0x3c7a6587	0.015282995
212	0xbd739ab5	-0.059473712
213	0x3be07c13	0.0068507283
214	0x3c52db92	0.012869732
215	0xbc9c2037	-0.01905833
216	0x3b5a0383	0.0033266253
217	0xbc3f9241	-0.0116925845
218	0xbd1f011b	-0.038819414
219	0xbd2c998b	-0.042138617
220	0x3887d3bd	6.476741e-05
221	0xbd2b6193	-0.0418411
222	0xbd3af5ed	-0.04564469
223	0xbd38f74d	-0.04515772
224	0xbcd91577	-0.026499493
225	0xbcc03e14	-0.023467101
226	0xbbd3d65b	-0.006464762
227	0x3b4277b8	0.0029673409
228	0x3d2a8101	0.041626934
229	0x398bd947	0.0002667403
230	0x3cc0424a	0.02346911
231	0xbcf646df	-0.03006309
232	0x3d787138	0.06065485
233	0x3d43c381	0.04779387
234	0xbcfee800	-0.031116486
235	0xbca981fa	-0.02069186
236	0x3d4ecc87	0.05048802
237	0xbd6c6845	-0.057716627
238	0x3b96c5ea	0.00460123
239	0xbb23b660	-0.002498053
240	0xbd40260b	-0.04691128
241	0x3b96095d	0.004578753
242	0x3d0b41ab	0.033998173
243	0x3c449310	0.011997953
244	0x3ca8e47b	0.02061676
245	0xbb3aa847	-0.0028481649
246	0xbcca74d1	-0.024713906
247	0x3c0ed017	0.008716605
248	0x3ce94a50	0.028477818
249	0xbc2e6849	-0.010644981
250	0x3cc848e0	0.024448812
251	0x3cb23b05	0.021756658
252	0xbca20e8f	-0.019782333
253	0x3d77c04f	0.060486134
254	0x3bfa2e52	0.0076349163
255	0xbc547c1b	-0.012969042

conv_v_to_c.feature_module_right.0.bias f4 [64]
0	0x3d87e284	0.06635001
1	0xbd48ea18	-0.049051374
2	0x3cb04050	0.021515042
3	0x3dc9d53c	0.09855124
4	0x3dfb340e	0.12265788
5	0xbd102004	-0.035186782
6	0xbcbeefc8	-0.023307696
7	0x3ddc2ef0	0.1075114
8	0xbc005940	-0.007833779
9	0xbde1209a	-0.109925464
10	0xbd3e6c60	-0.046490073
11	0xbd2a420c	-0.041566893
12	0xbc819258	-0.015816852
13	0x3d050e1c	0.03248416
14	0xbdff607e	-0.12469576
15	0x3df739f4	0.120716006
16	0xbc018630	-0.007905528
17	0x3b90cca0	0.0044189245
18	0x3de8ae16	0.11361329
19	0xbca8b388	-0.02059342
20	0xbd84a99a	-0.064776614
21	0x3bb04c60	0.0053801984
22	0x3d2d60d8	0.042328686
23	0x3d2851c4	0.041093603
24	0xbda3dffc	-0.08001706
25	0xbce35300	-0.027749538
26	0x3d392ca0	0.045208573
27	0x3dcffb52	0.101553574
28	0xbda70aca	-0.08156355
29	0x3d29fd24	0.04150118
30	0xbd570b3c	-0.05250095
31	0x3dbf9ece	0.093564615
32	0xbdb1020a	-0.08642967
33	0x3bbac9e0	0.005700335
34	0xbd7a0108	-0.06103614
35	0x3da82f60	0.08212161
36	0xbd359678	-0.04433295
37	0x3dd9ed1e	0.1064093
38	0x3dd38a42	0.10329105
39	0x3d119f44	0.03555228
40	0x3c1d3a20	0.009596378
41	0x3dc43446	0.09580283
42	0xbc408390	-0.011750117
43	0x3d5838d8	0.052788585
44	0x3d563c3c	0.052303538
45	0xbd91b890	-0.07115281
46	0xbd0ead30	-0.034833133
47	0xbdb2bc92	-0.08727373
48	0xbda8ed26	-0.082483575
49	0x3dba6018	0.0910036
50	0x3d63d920	0.05562699
51	0xbdf88a5e	-0.121357664
52	0x3d6f41c0	0.058412313
53	0x3c341ee0	0.010993689
54	0xbd918b7a	-0.07106681
55	0x3d5037d8	0.050834507
56	0xbdcd5d26	-0.10027532
57	0x3dd888de	0.1057298
58	0x3cb66e58	0.022269413
59	0x3c8083f8	0.015687928
60	0xbd8ea0da	-0.06964274
61	0xbddbb76a	-0.10728343
62	0xbbcd7440	-0.0062699616
63	0xbdc91310	-0.09818089

conv_v_to_c.feature_module_final.0.weight f4 [64]
0	0x3f800000	1.0
1	0x3f800000	1.0
2	0x3f800000	1.0
3	0x3f800000	1.0
4	0x3f800000	1.0
5	0x3f7fd5e5	0.9993575
6	0x3f800000	1.0
7	0x3f800000	1.0
8	0x3f800000	1.0
9	0x3f800000	1.0
10	0x3f800000	1.0
11	0x3f806588	1.0030985
12	0x3f804434	1.0020814
13	0x3f85b69e	1.0446355
14	0x3f809601	1.0045778
15	0x3f800000	1.0
16	0x3f801508	1.0006418
17	0x3f800000	1.0
18	0x3f7f31ac	0.9968517
19	0x3f81d78f	1.0143908
20	0x3f84247b	1.0323633
21	0x3f85ff54	1.0468545
22	0x3f800000	1.0
23	0x3f800000	1.0
24	0x3f800000	1.0
25	0x3f800000	1.0
26	0x3f800000	1.0
27	0x3f803e47	1.0019006
28	0x3f803a57	1.0017804
29	0x3f80b5f4	1.0055528
30	0x3f7e42f3	0.99320906
31	0x3f800000	1.0
32	0x3f80e9d3	1.0071357
33	0x3f809ddf	1.0048178
34	0x3f800000	1.0
35	0x3f800000	1.0
36	0x3f800000	1.0
37	0x3f814096	1.0097835
38	0x3f800000	1.0
39	0x3f804d84	1.0023656
40	0x3f800000	1.0
41	0x3f800000	1.0
42	0x3f7f6c0a	0.9977423
43	0x3f800000	1.0
44	0x3f800000	1.0
45	0x3f817cf5	1.0116259
46	0x3f800000	1.0
47	0x3f7f65e6	0.9976486
48	0x3f800000	1.0
49	0x3f806b27	1.00327
50	0x3f800000	1.0
51	0x3f80fc1e	1.007694
52	0x3f800000	1.0
53	0x3f800000	1.0
54	0x3f800000	1.0
55	0x3f80cae2	1.0061915
56	0x3f7fc76d	0.99913675
57	0x3f8e4fbe	1.1118085
58	0x3f7f75c7	0.9978909
59	0x3f807245	1.0034872
60	0x3f800000	1.0
61	0x3f811b41	1.0086442
62	0x3f8160c0	1.0107651
63	0x3f7dee99	0.99192196

conv_v_to_c.feature_module_final.0.bias f4 [64]
0	0x00000000	0.0
1	0x00000000	0.0
2	0x00000000	0.0
3	0x00000000	0.0
4	0x00000000	0.0
5	0xbacef7c1	-0.0015790389
6	0x00000000	0.0
7	0x00000000	0.0
8	0x00000000	0.0
9	0x00000000	0.0
10	0x00000000	0.0
11	0xbb91d59a	-0.004450512
12	0x3a9b7762	0.001186114
13	0x3cf05d62	0.029341403
14	0xbb433e5c	-0.0029791808
15	0x00000000	0.0
16	0xbb800ac0	-0.0039075315
17	0x00000000	0.0
18	0xbbaf1e30	-0.005344175
19	0x3bc4f8ef	0.0060111205
20	0x3cb8043d	0.022462958
21	0x3d0ca4eb	0.034336966
22	0x00000000	0.0
23	0x00000000	0.0
24	0x00000000	0.0
25	0x00000000	0.0
26	0x00000000	0.0
27	0xbb215050	-0.002461452
28	0xbaef91c1	-0.0018277691
29	0xbaaa72c8	-0.0013004178
30	0xbbf905ab	-0.0075995526
31	0x00000000	0.0
32	0xbb667d3b	-0.0035169858
33	0xba9607ce	-0.0011446418
34	0x00000000	0.0
35	0x00000000	0.0
36	0x00000000	0.0
37	0xbb83a0e4	-0.0040169824
38	0x00000000	0.0
39	0x3b0941ef	0.002094384
40	0x00000000	0.0
41	0x00000000	0.0
42	0xbbb053c4	-0.0053810794
43	0x00000000	0.0
44	0x00000000	0.0
45	0xbbcccfbc	-0.00625035
46	0x00000000	0.0
47	0xbb8a2771	-0.0042161276
48	0x00000000	0.0
49	0xbb3a3202	-0.0028411155
50	0x00000000	0.0
51	0x3984a54c	0.00025300158
52	0x00000000	0.0
53	0x00000000	0.0
54	0x00000000	0.0
55	0xbb545eca	-0.0032405131
56	0xbb87baf4	-0.0041421596
57	0x3d81b3f7	0.06333154
58	0xbb62191c	-0.003449983
59	0xbb04b1e2	-0.0020247628
60	0x00000000	0.0
61	0xbab1c5e3	-0.0013563003
62	0xba963072	-0.001145853
63	0xbc016207	-0.007896907

conv_v_to_c.feature_module_final.2.weight f4 [64, 64]
0	0x3c3eaa2b	0.011637251
1	0x3d0b037b	0.033938866
2	0x3cbbba08	0.022915855
3	0x3cec86c3	0.028872853
4	0xbd5fb87b	-0.054619294
5	0xbd3af787	-0.045646217
6	0xbcbeb968	-0.023281768
7	0xbc59fbed	-0.013304693
8	0x3d240b5b	0.040049892
9	0x3bcf0360	0.006317541
10	0xbb8a0851	-0.004212417
11	0xbccb3cf8	-0.024809346
12	0x3c762710	0.015023962
13	0x3d4e6c22	0.050396092
14	0x3c9bbeb2	0.019011829
15	0x3cab18ab	0.020885786
16	0x3d0991c1	0.033586267
17	0x3cb77d7d	0.022398705
18	0xbc3f495c	-0.011675205
19	0xbc94eb7a	-0.01817869
20	0x3c98fc00	0.01867485
21	0x3d1a2870	0.03763622
22	0x3ce7cc5f	0.028295694
23	0xbccfcb6f	-0.02536556
24	0x3cbb6237	0.02287398
25	0x3c9d33c2	0.01918972
26	0xbcb2d666	-0.021830749
27	0x3c1509d6	0.009096583
28	0xbd052525	-0.032506127
29	0xbd2ef031	-0.042709533
30	0xbca4db1e	-0.020124014
31	0x3cd757e0	0.02628702
32	0xbdaa30e8	-0.083101094
33	0xbb677eb8	-0.0035323333
34	0x3bb26f0e	0.0054453677
35	0x3c807720	0.015681803
36	0xbcb432d2	-0.02199689
37	0xbbf6a1b7	-0.007526602
38	0x39dc91a7	0.0004207019
39	0x3c928b76	0.017888766
40	0xbb1505e0	-0.0022739097
41	0xbc50d168	-0.012745239
42	0xbd21d537	-0.03950998
43	0xbbdc73c8	-0.0067276694
44	0x3a6bc9fa	0.00089946354
45	0xbc9a9880	-0.018871546
46	0xbc418b7f	-0.011813044
47	0xbbc13673	-0.0058963834
48	0x3c75458f	0.014970197
49	0x3ce6088e	0.028080251
50	0xbc516ed3	-0.01278277
51	0x3bb5e2b4	0.0055507068
52	0x3cf128f0	0.029438466
53	0xbb83cf83	-0.00402254
54	0xba088d81	-0.0005209074
55	0xbc7a975f	-0.015294879
56	0xbd37a114	-0.04483135
57	0x3e0fdce4	0.14049107
58	0xbcbf8603	-0.023379331
59	0x3d87e3b3	0.06635227
60	0x3cabf68c	0.020991586
61	0xbd0127ec	-0.031532213
62	0xbd1bbb0e	-0.038020186
63	0xbc8f2ca9	-0.01747735
64	0x3d18e624	0.037328854
65	0x3c73de08	0.014884479
66	0xbaa155bf	-0.001230888
67	0x3d376fc3	0.04478432
68	0x3c436328	0.011925496
69	0x3af91ec4	0.0019006361
70	0x3bde6422	0.006786839
71	0x3c8f49eb	0.017491302
72	0xbcda98f0	-0.026684254
73	0xbce99f22	-0.028518263
74	0xbc907174	-0.017632224
75	0x3b2d1b74	0.0026414068
76	0xbce525c1	-0.027972104
77	0x3d1bec21	0.038066987
78	0xbb94343b	-0.004522828
79	0x3c035cfa	0.008017773
80	0x3d0d72b9	0.034533236
81	0x3d93745d	0.07199929
82	0xbbc7cd88	-0.0060974993
83	0x3d12677f	0.035743233
84	0x3d4e1bf9	0.050319646
85	0x3cd7538a	0.026284952
86	0x3d4aa026	0.049469136
87	0xbc2a8317	-0.010407231
88	0xbcec4dc0	-0.028845668
89	0xbd3d3fed	-0.046203543
90	0xbd80a5ff	-0.06281661
91	0xbcba01b8	-0.022705898
92	0x3ca9ff41	0.020751597
93	0x3c9861ce	0.018601324
94	0x3cdc65b4	0.026903965
95	0xbd1c0a56	-0.038095795
96	0x3beb6838	0.0071840547
97	0x3b44c634	0.0030025365
98	0xbcdc7022	-0.026908938
99	0x3ce6449f	0.028108893
100	0x3d52ad7a	0.05143497
101	0xbd058df4	-0.03260608
102	0xbb7e23c5	-0.0038778645
103	0x3caa3480	0.020776987
104	0x3c1c6e09	0.009547719
105	0xbd1a4a31	-0.03766841
106	0xbc89e129	-0.016830998
107	0xbccc5c5d	-0.024946386
108	0x3cc9f5b9	0.024653303
109	0x3c237f5c	0.009979095
110	0xba09df4a	-0.0005259408
111	0xbcb0452c	-0.021517359
112	0xbc7b28d2	-0.015329557
113	0xba0212f8	-0.0004961933
114	0xbd33f71f	-0.043936845
115	0x3c4e82c4	0.012604419
116	0x3c122c27	0.00892166
117	0xbc29e8b3	-0.010370421
118	0x3c4fa73a	0.012674147
119	0xbc89b1d3	-0.016808426
120	0x38485986	4.776709e-05
121	0x3da723cc	0.081611246
122	0xbbfbd4e1	-0.0076852893
123	0xbbeafe4e	-0.0071714288
124	0x3c2706fb	0.010194535
125	0xbd2aaefb	-0.04167078
126	0xbd255b91	-0.040370528
127	0x3bfab439	0.0076508787
128	0xbc158985	-0.0091270255
129	0xbd0d22df	-0.034457084
130	0x3ca418d6	0.020031374
131	0x3c8c4f03	0.01712752
132	0x3a367c8e	0.0006961309
133	0x3b7791e9	0.0037776178
134	0x3d1448d6	0.036202274
135	0xbd150c46	-0.036388658
136	0x3c9b8053	0.018982088
137	0xbd02355a	-0.03178916
138	0x3cf721ab	0.030167421
139	0x3ce56042	0.028
140	0x3cc317c7	0.023815049
141	0x3d019188	0.03163293
142	0xbd30a618	-0.04312715
143	0x3c818dd2	0.015814696
144	0xbce0ba45	-0.02743257
145	0x3c840d9c	0.01611977
146	0x3c6e5ef6	0.014549008
147	0x3ca1cee5	0.019751975
148	0x3b270fcf	0.00254916
149	0x3c54ea45	0.012995307
150	0xbc2f42e4	-0.0106971
151	0x3ca53d07	0.020170702
152	0x3d0fff7e	0.035155766
153	0x3c020580	0.007935882
154	0x3b2ee785	0.002668829
155	0xbcee97ee	-0.02912518
156	0xbcd56bef	-0.026052443
157	0x3afd3389	0.0019317727
158	0xba8f0dd7	-0.0010914159
159	0x3cb5d528	0.022196367
160	0xbc8f74d3	-0.01751176
161	0xbd102cdd	-0.035199035
162	0x3c7703e2	0.015076609
163	0x3c86aa79	0.01643871
164	0x3cc0d693	0.023539817
165	0x3c1bf767	0.0095194345
166	0xbd145ce3	-0.036221396
167	0xbc7ae36a	-0.015313009
168	0x3c243b48	0.010023899
169	0xbcf4996a	-0.02985831
170	0x3c3269ad	0.010889453
171	0x3aecef58	0.0018076701
172	0x3d1ff581	0.03905249
173	0x3ca56cd7	0.0201935
174	0xbaebb112	-0.0017981848
175	0x3bbf517a	0.00583857
176	0xbd4f9ffd	-0.050689686
177	0xbce06d96	-0.027396005
178	0xbbba8d5f	-0.0056931223
179	0x3cf5456b	0.029940328
180	0xbc144ef9	-0.009052032
181	0x3cdb0672	0.026736472
182	0xbd45aa54	-0.04825814
183	0x3c670f88	0.014102824
184	0x3c644280	0.01393187
185	0x3d4fbde1	0.050718192
186	0x3ce5d02d	0.028053368
187	0x3cc127c1	0.023578526
188	0xbcee33cf	-0.029077439
189	0x3ccc43f4	0.024934746
190	0xbcb9c892	-0.022678647
191	0x3cb5f913	0.022213494
192	0x3b03a9d9	0.002009025
193	0xbb2f206e	-0.002672221
194	0x3c7d6b0f	0.015467419
195	0x3c3f3745	0.011670892
196	0x3bb611ef	0.005556337
197	0x3ca76e32	0.020438287
198	0xbd022e7d	-0.031782616
199	0x3c955a32	0.018231485
200	0xbcdc7d12	-0.026915107
201	0x3bb875c3	0.0056292727
202	0xbcb99937	-0.022656066
203	0xbc9aa29a	-0.018876363
204	0x3d037df3	0.032102536
205	0x3dbe86d0	0.09303057
206	0xbc8b2c81	-0.016988995
207	0x3c4c3d49	0.012465783
208	0xbd428c59	-0.047497127
209	0xbcf80cd5	-0.030279556
210	0xba731dd2	-0.0009274158
211	0x3b116c6e	0.0022189873
212	0xbca78489	-0.02044894
213	0x3b4e7dfe	0.0031508203
214	0x3c1794dd	0.0092518
215	0xbc455bb1	-0.012045787
216	0x3ba4020f	0.005005128
217	0x3ca3eaef	0.020009486
218	0xbcda4c9d	-0.02664786
219	0xbcf85b46	-0.03031696
220	0xbc134c99	-0.00899043
221	0xbc94f21d	-0.018181855
222	0x3c14670f	0.009057774
223	0x3cbe7bca	0.023252387
224	0x3ba95e6c	0.0051687267
225	0x3ccb3956	0.024807613
226	0x3cd598d5	0.026073853
227	0x3bba3b63	0.005683349
228	0x3c330fcc	0.010929059
229	0xbd166ade	-0.03672301
230	0xbc65a260	-0.014015764
231	0xbbc73342	-0.0060791085
232	0x3a390912	0.00070585415
233	0x3b397b5e	0.0028302292
234	0xbd45fbc4	-0.048335806
235	0xbcebefeb	-0.028800925
236	0x3d29dcdf	0.041470405
237	0xbb0dc136	-0.0021630055
238	0x3cd05728	0.025432184
239	0xbcf9ba35	-0.030484298
240	0xbce56b9b	-0.028005412
241	0x3c8e9e9d	0.017409617
242	0x3c97abde	0.01851457
243	0xbc7981a7	-0.015228665
244	0xbc27e0dd	-0.010246483
245	0xbbed14b5	-0.0072351345
246	0xbb9f1fdd	-0.0048560933
247	0x3d2f3783	0.04277755
248	0xbc2dd31b	-0.0106094135
249	0x3de3a692	0.11115755
250	0xbca98deb	-0.020697555
251	0x3ca9981e	0.020702418
252	0x3bf076fb	0.0073384023
253	0xbcb4d30f	-0.022073297
254	0xbd509d45	-0.050931234
255	0xbcc521eb	-0.024064025
