result/saved_models/regression/trained_params_mean_setcover-independentset-combinatorialauction_asymmetric_firstsol_k_prime_epoch157.pth (torch, 261063 bytes, 28 tensors)

cons_embedding.0.weight f4 [64, 1]
000000 ca ec 7f 3d 5d f3 de bc 9b c6 ec bc 7b e3 6b bc
       0.06248168 -0.027215654 -0.028903296 -0.014397497
000010 27 c1 28 bd 85 2f 59 bd 2a 45 b2 bd 29 ef e9 bc
       -0.04119983 -0.053023834 -0.08704598 -0.028556423
000020 0c fc 00 3d 0e bb 5b 3d 24 ee 1a bd c1 b0 c1 3c
       0.03149037 0.053645186 -0.037824765 0.023643853
000030 18 63 3c 3c d1 83 42 bd 0b 9b 59 bc 2d 7d b6 bb
       0.011498235 -0.04748899 -0.013281594 -0.0055691213
000040 2f 51 e4 3c 5c 5e 59 3d 6c 93 6a 3b 18 31 ef bc
       0.027870743 0.053068504 0.0035793437 -0.029198214
000050 84 dc f6 bb ae 2b 3f 3d 53 89 2e bd b7 ec 9c 3d
       -0.0075336117 0.046672516 -0.04261143 0.07662337
000060 fa 40 bc 3c a6 f3 80 bc 08 7d 18 3e da ba d5 3c
       0.022980202 -0.01574118 0.14891446 0.026090074
000070 36 b5 36 bc 19 b6 7a bc 2c 58 16 bd 19 9c 66 3c
       -0.0111516025 -0.0153022045 -0.03670518 0.0140753025
000080 4f d9 ea bc 28 b7 ef ba 0e de e5 bc d9 f5 82 3d
       -0.028668074 -0.0018288838 -0.028059985 0.06394548
000090 8b 0a e9 bd e7 62 94 bd cd dd 9a bd 16 ce 0a bd
       -0.11378964 -0.072454266 -0.075618364 -0.033887945
0000a0 9f c7 90 3d bb 27 d1 3c b1 48 21 bb ca 6c c6 3c
       0.07069325 0.02553164 -0.0024609978 0.024221797
0000b0 14 f6 b0 bd 7b e4 a3 3c 41 3f c2 bc 3f 71 5d bc
       -0.08640686 0.020006409 -0.023711802 -0.0135157695
0000c0 43 6d 9e bc 2c 6f 9d bc 4d 04 62 3d 48 95 7f bd
       -0.01933921 -0.01921805 0.055179883 -0.062398225
0000d0 30 a2 6a 3d 2e 9e 9d bd 10 14 77 bc 4f db 09 bd
       0.05728358 -0.07696186 -0.015080467 -0.033656415
0000e0 50 bc f6 3c 51 65 a5 bb 39 d3 8a bd f1 ee ca bd
       0.030119091 -0.0050474782 -0.06778569 -0.09908856
0000f0 58 32 1b bd 05 5e 56 bc 52 1f ab 3c e5 ca 89 bd
       -0.03788981 -0.013083939 0.020888958 -0.06728152

cons_embedding.2.weight f4 [64, 64]
000000 ce f7 06 3d 69 87 42 3d 4b a0 e0 3c 8e 39 d4 bc
       0.03295117 0.04749242 0.027420184 -0.02590635
000010 ec 24 69 3b 3a ca 2b bc 52 d7 24 3d c3 ad 24 bd
       0.0035574986 -0.010485226 0.040244408 -0.040204775
000020 0b 44 14 3b 9a 9c 31 3d 03 df 15 3d 1f 57 85 3c
       0.0022623565 0.043362238 0.036589634 0.016276894
000030 31 17 29 3c ed 37 ed 3c 62 f7 9a bb 69 74 6e 3c
       0.010320471 0.028957332 -0.0047291974 0.0145541215
000040 cc 48 b1 3c fa 6e e9 3c b9 f1 a3 bb 6f 67 47 3d
       0.021641158 0.0284953 -0.005003181 0.048682626
000050 d4 b0 84 3c 45 58 51 3d c4 4c 54 bb f1 e3 cb 3c
       0.0161976 0.05110957 -0.0032394389 0.024888964
000060 d3 07 18 3b ce 26 52 3c b1 61 3d 3d 0b ea 76 bb
       0.0023198023 0.012826635 0.046235744 -0.0037676122
000070 58 16 a3 bb 36 81 1a 3c 96 a1 a5 bc ab 76 f4 bb
       -0.004977029 0.00943022 -0.020218652 -0.0074604354
000080 a8 94 13 bd 56 b0 17 3c 6d d2 61 3c 5d c4 fe 3a
       -0.03603044 0.00925835 0.01378308 0.0019437183
000090 1f 6c 4b bd 46 f5 f4 bc 16 dc 32 bc 4f 37 93 3c
       -0.04966366 -0.029902112 -0.01091673 0.01797071
0000a0 07 e4 c1 3c 29 77 eb 3c c7 ee b6 bc 74 c9 f6 3b
       0.023668302 0.028743343 -0.022330655 0.0075313393
0000b0 dd ba 02 bd d2 52 16 3d 86 c5 31 3d 95 30 1a bd
       -0.031916488 0.036700077 0.043401264 -0.037643988
0000c0 03 16 c7 3b cb af ed bc 25 bf 5a 3d d0 32 16 3d
       0.006075622 -0.029014489 0.053404946 0.036669552
0000d0 aa c7 5e 3c 88 2c 3e bd f3 c2 e2 3b 5e e6 74 3c
       0.013597408 -0.046429187 0.0069202124 0.014947502
0000e0 f7 75 88 bb bd 48 2e bc ab 76 61 3c 86 91 4d 3c
       -0.004164453 -0.010637459 0.013761203 0.0125469025
0000f0 e1 8d f1 bc 54 98 8e bc e8 41 89 3d 52 8d 8a 3b
       -0.029486598 -0.01740662 0.06702024 0.0042282725
000100 0b 38 82 3c dd 3a ca bc 29 bf cc ba 15 13 78 bd
       0.015895864 -0.024686271 -0.0015620935 -0.060565073
000110 dc b2 17 bd ea e4 79 3c f1 0d ab 3c af ad ae 3b
       -0.037035808 0.015252331 0.020880671 0.0053307633
000120 88 88 85 ba 27 ed 65 bc 31 92 02 bd c4 41 54 bd
       -0.0010187784 -0.014033592 -0.0318777 -0.05182053
000130 fe 18 ce bc a8 39 29 bc 30 26 b2 3c 73 de 12 3d
       -0.025158402 -0.010328688 0.021746725 0.035856675
000140 2d 4b 68 bc da af e9 3c 56 e4 e0 bc b0 6c 94 3c
       -0.01417808 0.028526235 -0.027452629 0.018118232
000150 96 ce 8d 3c 63 7c 72 3d 55 b0 39 bc 69 9a dd 3c
       0.017310422 0.059200656 -0.011333545 0.027051168
000160 df be 00 bc 32 85 3a bd bb bf 0a 3c 12 8c 96 3c
       -0.007858007 -0.04553718 0.008468564 0.018377338
000170 95 06 2c bd 3f 38 57 bc aa 4a 12 bd 2f 4c c4 bc
       -0.041998465 -0.013135969 -0.035715736 -0.023962108
000180 7a 88 07 bb d8 f8 ae bb 01 f0 23 3c fa 64 3c 3d
       -0.0020680712 -0.005339723 0.010005952 0.045994736
000190 f3 d4 48 3b 1a 8a 84 3c f3 6a 54 bd 55 f2 19 3d
       0.0030644506 0.016179133 -0.051859807 0.03758462
0001a0 a1 1d 05 3c d8 5d 68 bc bf 0d 4f 3c 1c 90 f3 3c
       0.00812474 -0.01418253 0.012637555 0.029731803
0001b0 f0 d4 e9 bb 59 6b de 3c 76 be cc bb 6b 17 4a 3c
       -0.00713598 0.027150797 -0.0062482907 0.012334685
0001c0 f8 a1 14 3c 49 a8 c0 3c d2 a8 d7 3c aa b6 ec 3c
       0.0090718195 0.023517745 0.026325617 0.028895695
0001d0 9b ec a9 3b 5d 24 9d bc eb 5e a3 bc 73 84 b5 bb
       0.0051856763 -0.019182378 -0.019942721 -0.005539471
0001e0 ea ce e8 3c 04 5f 39 bd 55 6a 6e bc b7 ae 8f bc
       0.028418977 -0.04525663 -0.014551719 -0.017539365
0001f0 1d 59 5b bd 7f 62 af 3c ff 27 a6 bb d8 51 d7 bc
       -0.053551782 0.021409271 -0.005070686 -0.026284143
000200 b1 75 34 3d c9 fe 0d 3d c4 82 d8 3c f0 1b 0c bd
       0.04405755 0.03466681 0.026429541 -0.03420633
000210 78 14 c8 3c cf b1 b3 3c 94 3b 70 3c 0f a4 ca 3b
       0.024423823 0.021935372 0.014662642 0.006184108
000220 39 03 35 bb dd 4c 60 bd f6 a8 0b 3c 15 20 96 3b
       -0.002762033 -0.054760803 0.00852417 0.004581461
000230 03 42 3b 3c 0d 48 87 3c dc e3 19 3c 8a 16 be 3a
       0.011429313 0.016513849 0.009392705 0.0014502567
000240 47 63 2c b9 89 3a a0 bc 69 d3 e7 3b e4 fd 03 3d
       -0.00016440182 -0.019559162 0.0070747626 0.03222455
000250 ae dd 21 bc 68 5f cb 3c 02 40 b7 3c 91 69 cb bc
       -0.009879513 0.024825767 0.022369388 -0.024830611
000260 87 38 6c 3c 95 56 06 bd 5e 3f 9a 3c c8 be 7f 3c
       0.014417774 -0.032797415 0.018829044 0.015609451
000270 83 67 e6 3c 1f 07 92 bc a2 71 83 3d fd 11 1a bb
       0.02812553 -0.017825661 0.06418158 -0.0023509257
000280 b7 d6 5a 3c e5 11 ce bc c0 a4 32 3b 8c 3c db bb
       0.013356856 -0.025155017 0.0027258843 -0.0066905674
000290 af e9 33 3d 9f f5 4d 3d 46 08 f3 bb 14 13 79 3c
       0.04392403 0.05028307 -0.0074167578 0.0152023025
0002a0 69 6d 4a bc 47 ba 48 3b 66 f5 a9 bc f6 8e 74 bb
       -0.012355187 0.0030628608 -0.020746898 -0.0037316657
0002b0 24 0f fc 3c a1 46 8f bc 68 72 83 bc 53 e2 72 bd
       0.030768938 -0.017489733 -0.016045764 -0.05929787
0002c0 97 d8 bd 3c d4 75 4d 3c 5c bb 14 3c 2a 94 c7 3c
       0.023174567 0.012540299 0.009077873 0.024362642
0002d0 56 f5 58 bc 26 4d 71 3b eb 4e 0e bd 29 d0 cf bc
       -0.013242086 0.0036819666 -0.03474323 -0.025367813
0002e0 da 3b 2b bd 80 da 50 bc d7 69 77 3b 70 2d 08 3c
       -0.041805126 -0.012747407 0.0037752294 0.008311614
0002f0 99 f8 c2 3a 2f d2 97 bc 44 f9 e2 bc fb a9 87 3d
       0.0014875113 -0.01853284 -0.02770675 0.06624218
000300 3b bf d6 bc 6b 46 98 3c ae 74 56 3c 2b 42 3c 3b
       -0.026214233 0.018588265 0.013089342 0.0028725963
000310 f5 0a 20 3b e4 82 79 3a ab 40 06 bd 09 60 e7 3b
       0.0024420593 0.00095181004 -0.032776516 0.007061009
000320 78 e3 12 bd 5f 06 90 bc 89 0e a9 bc 4f b4 24 bc
       -0.035861462 -0.017581163 -0.020636814 -0.010052755
000330 b5 f2 8a 3c 71 e4 c9 3b 8c 73 ea ba c1 c3 e0 bc
       0.016961435 0.0061612655 -0.0017887219 -0.027437093
000340 de 6a 94 bc c7 43 4e bb 5e 84 9c 3c 02 9b 4c bc
       -0.018117364 -0.0031473504 0.019106086 -0.012488129
000350 dd d0 ba bc 17 39 92 bc 8a c0 07 bd a5 37 9a bc
       -0.022804672 -0.017849488 -0.033142604 -0.018825362
000360 4d 25 01 bc 56 08 bc bc 1b c6 94 3c 73 95 16 bc
       -0.007882428 -0.022953194 0.01816087 -0.009190905
000370 bb 19 8e bc 39 a3 d5 bc d3 f9 0d 3c c1 5f 30 3c
       -0.017346254 -0.026078807 0.00866552 0.010765017
000380 4f 7e e2 3c 9b 4b e3 bc 6d c8 6e bd 16 ea 1f bd
       0.02764812 -0.027746012 -0.05829661 -0.0390416
000390 f7 e6 bd bc c9 0f 14 bd 39 48 6d 3c 53 94 f6 3c
       -0.023181422 -0.036147866 0.014482551 0.030100023
0003a0 15 a2 66 ba bb 97 60 3d dd a4 d9 3c 3f f9 2e bb
       -0.0008797956 0.0548322 0.02656787 -0.0026698855
0003b0 f3 02 a6 3c e8 12 19 3d cc 86 88 3c fb 64 80 bc
       0.020265078 0.037371546 0.016665839 -0.015673151
0003c0 d6 95 2b 3d e0 7b 1b bc 3b c2 59 3d 43 e8 e2 3c
       0.04189094 -0.009489983 0.05316375 0.027698642
0003d0 fb d9 8c 3b 5b 5a a9 3b 29 aa cb 3a 26 99 67 3b
       0.0042984462 0.005168242 0.0015538383 0.0035339086
0003e0 1f 86 16 bb 2f 32 12 3b 87 24 d7 ba 6e 72 a8 ba
       -0.0022968126 0.0022307744 -0.0016414084 -0.0012851486
0003f0 5d 68 e0 bc a7 93 ec 3b 03 42 7d bc 60 cd f8 3b
       -0.027393514 0.00721975 -0.015457633 0.007592842

var_embedding.0.weight f4 [64, 1]
000000 6e ee a6 bd 85 a4 b5 bc 95 28 d4 bc dd eb 7f bc
       -0.081509456 -0.022173176 -0.025898257 -0.015620199
000010 a0 4f 99 3e aa 5c a1 3e b1 7b 95 bb 4c 82 16 bd
       0.29943562 0.3151601 -0.0045618643 -0.036745355
000020 f4 9e a1 3e 77 8e 8f 3e 8b 08 48 bd 62 01 8a 3e
       0.31566584 0.2803838 -0.048836272 0.2695418
000030 59 5a 6b bc b9 ac 9c 3e f1 0e b2 bc b3 5c ab 3e
       -0.014364802 0.30600527 -0.02173564 0.3346916
000040 13 be 88 3e fb 7b 35 bd 03 0f ac bb 37 96 0f bd
       0.26707515 -0.04430769 -0.005250813 -0.035055365
000050 a4 25 e0 ba b0 ee 04 bd 47 d0 aa bc 65 d5 88 3e
       -0.0017101062 -0.032454193 -0.020851268 0.26725307
000060 48 48 47 ba 57 af 8f 3e ca 72 a1 3e ee 61 9b 3e
       -0.00076020183 0.2806346 0.3153289 0.30348152
000070 4a 27 b2 bc 76 97 92 3e dd fd 94 3e 4c 6a 89 3e
       -0.02174725 0.2863118 0.29099932 0.2683891
000080 92 2a b9 bd d1 85 ee ba 90 f6 90 3e 41 d6 9d bb
       -0.09041323 -0.0018197839 0.28313112 -0.004816801
000090 f5 c8 89 bc d0 0c b6 bb f5 db 89 3e 15 3c 90 3e
       -0.016819457 -0.0055557266 0.26925626 0.2817084
0000a0 56 52 8c 3e 37 e0 8b 3e 3f 4e a1 3e 96 69 96 3e
       0.27406567 0.273195 0.3150501 0.2937743
0000b0 b3 db 9f 3e 79 37 8b 3e 5b ca 8a bb 80 3f 2c bd
       0.31222305 0.2719076 -0.0042355484 -0.042052746
0000c0 d7 af e8 bc e4 f9 8b 3e 93 af 9c 3e 38 e9 04 bd
       -0.02840416 0.2733909 0.30602702 -0.032448977
0000d0 3e 10 b3 bc fe dc 3c bd 85 a1 98 3e e2 e2 27 bd
       -0.02185833 -0.046109192 0.2981073 -0.040987857
0000e0 7f 27 9d 3e 46 3d 98 3e d8 c6 a5 3e 38 79 94 3e
       0.30694196 0.29734248 0.32378268 0.28998733
0000f0 dd 2b 5e bc 3a 62 50 bb fd 8e 0f bd f6 b0 b8 bc
       -0.0135602625 -0.003179683 -0.035048474 -0.022545319

var_embedding.2.weight f4 [64, 64]
000000 9a 83 c5 3c 5d 7c 94 bc 0f cf ab 3c 3f 9c 69 3c
       0.024110604 -0.018125707 0.020972757 0.014258443
000010 f4 1e 88 3e 38 1b 99 3e 93 ea 4d 3c 5c 79 1a bd
       0.26586115 0.2990358 0.012568134 -0.037713394
000020 02 06 97 3e 46 ca 94 3e 00 84 53 3b 7c f4 7e 3e
       0.2949677 0.29060572 0.0032274723 0.24897951
000030 b3 92 a1 3c ff ba 6b 3e 1a a5 f0 bc 79 58 80 3e
       0.019723272 0.23020552 -0.029375602 0.250675
000040 8b ed 8a 3e 64 37 a7 bb e2 76 ee 3c ea b4 db bc
       0.27134356 -0.0051030386 0.029109422 -0.026819665
000050 78 74 e0 bc 64 93 c8 bc 0b 24 7b 3c 4a 42 6c 3e
       -0.027399287 -0.024484344 0.0153284175 0.23072162
000060 24 7e b9 3c b0 1b a0 3e 3e 00 84 3e 21 e5 83 3e
       0.022643156 0.31271124 0.25781435 0.2576075
000070 94 68 b3 3b d3 45 8d 3e dc c7 8b 3e 71 73 9c 3e
       0.005475113 0.27592334 0.27300918 0.30556825
000080 bd 4c b9 3c 42 35 cd bc 08 dd 8d 3e a5 61 3f 3d
       0.0226196 -0.02504981 0.27707696 0.04672398
000090 03 3c 23 3d d8 53 f2 3a 78 83 89 3e 28 cc 6f 3e
       0.039852154 0.0018488122 0.26858115 0.23417723
0000a0 36 31 89 3e 32 6e 7a 3e a9 e1 90 3e 2e 37 93 3e
       0.26795357 0.24456099 0.28297165 0.28753036
0000b0 e0 b6 a0 3e a5 31 5f 3e ff a2 4d bc 62 a8 b5 3b
       0.31389523 0.21796282 -0.012551068 0.0055437544
0000c0 3f de c6 bb f3 e3 94 3e 5c d2 77 3e c7 da af bc
       -0.0060689743 0.2908016 0.2420134 -0.021466626
0000d0 bb dd 48 3c 8b 1f 42 bc 08 66 84 3e d7 19 d9 3c
       0.012259896 -0.011848341 0.25859094 0.02650158
0000e0 f9 6f 6f 3e ba 16 80 3e f2 0d 98 3e 59 e3 9b 3e
       0.23382558 0.2501734 0.2969814 0.3044689
0000f0 c0 97 cb bb 57 16 09 bd 2f f1 a8 bc 1d 6a ce 3a
       -0.0062131584 -0.03346857 -0.020622818 0.0015748177
000100 5f 00 fd 3c c0 7e a5 bc df 9d b9 bc 90 57 e9 bc
       0.030883966 -0.02020204 -0.022658287 -0.028484136
000110 73 d9 4d 3c 5b 3b 90 bc 9f 64 57 3d f3 b5 95 bb
       0.012564051 -0.017606428 0.052586194 -0.004568809
000120 23 5e 8a bc f5 ba 6c bb 5c d7 45 bc db 1d a3 bb
       -0.016890591 -0.0036122177 -0.012075271 -0.0049779243
000130 a9 92 be 3c e7 b8 83 3c ab 3d b2 3c 90 cd c3 bc
       0.023263292 0.01607938 0.021757921 -0.02390173
000140 93 b8 9f bc 58 bf 3f 3d 27 99 9e bc c5 13 8c 3c
       -0.019497192 0.04681334 -0.019360138 0.01709927
000150 10 24 ce 3c 5d 5c 4a 3d fe db 3f bc 40 0b 34 bc
       0.02516368 0.04940449 -0.011710165 -0.01098901
000160 7f 49 a4 bc d0 fa ff bc 7f 0f 91 3c 7b 5d 08 bd
       -0.020054577 -0.031247526 0.017707584 -0.033292275
000170 a3 79 b4 3b 1c 29 a5 bc 0e 6a 3a 3c 1b 47 24 bc
       0.0055076643 -0.020161204 0.0113778245 -0.0100267185
000180 23 5b 47 bc db 9e 6d 3c be e8 3f bb 93 23 08 3d
       -0.012167725 0.014503206 -0.0029283012 0.03323705
000190 cf 2f 27 bd 4b 0c 81 bd 72 4a fe bb 47 81 30 3c
       -0.04081708 -0.06301173 -0.0077603394 0.01077301
0001a0 0b 2c 0a 3b 40 07 bb 3c af 73 83 bd 28 70 58 3c
       0.002108338 0.022830606 -0.06418549 0.013210334
0001b0 d3 ba 44 3c c2 3f 92 bc 63 a5 9d 3c dd 94 8e bc
       0.012007433 -0.017852668 0.019243902 -0.017404968
0001c0 26 f2 44 bd 60 a0 f8 bc 22 ab 61 bc 30 4b 67 bc
       -0.048082493 -0.03034991 -0.013773711 -0.014117047
0001d0 a4 43 44 3b 3b 7b 41 bd 33 29 0e 3c 8f 99 a9 bc
       0.0029947544 -0.047236662 0.008676815 -0.020703105
0001e0 e6 7b 27 3d 57 16 5c bc c0 02 f4 3b 3b 56 ce 3c
       0.040889643 -0.013433061 0.007446617 0.025187602
0001f0 f3 f4 e2 bc 32 65 3f bd 61 f0 49 bc b0 94 41 bd
       -0.027704692 -0.046727367 -0.012325377 -0.04726094
000200 0b 2e 5f 3d 8f a2 13 bd 82 2b 1f 3d b8 4a e4 3c
       0.05448727 -0.0360437 0.03885985 0.02786766
000210 e6 e2 9f 3e 75 f7 8d 3e d3 94 5d 3b ad 7a 79 3c
       0.31227797 0.27727857 0.003381063 0.015227002
000220 44 e8 94 3e 2a ea 93 3e 3b 35 9f bc d9 e1 90 3e
       0.29083455 0.2888959 -0.019434562 0.28297308
000230 a8 60 32 3c b1 f1 a4 3e c5 8f 93 3c 54 5c 8d 3e
       0.010887302 0.32215646 0.01801289 0.27609503
000240 56 4a 86 3e 82 db 6a bb bb b7 e8 3c 2f a0 3c bc
       0.2622859 -0.0035836403 0.028407922 -0.0115128
000250 aa 4c 18 bb 67 95 9b bb e3 f6 91 bc e2 1f 90 3e
       -0.0023239055 -0.0047480348 -0.01781792 0.28149325
000260 de 40 82 bc ca b0 80 3e 12 43 56 3e 6f 17 93 3e
       -0.015900072 0.2513488 0.20924023 0.28728816
000270 21 fe 90 3c 71 bc 95 3e 85 be 8e 3e c8 01 97 3e
       0.017699303 0.29245332 0.2787973 0.29493546
000280 53 88 99 3c 33 e7 e2 3c a4 20 91 3e 0f ab 74 bb
       0.018741762 0.027698135 0.28345215 -0.0037333404
000290 b1 51 91 bc b0 55 1d 3d 67 ef 96 3e 0a d2 84 3e
       -0.017739149 0.038411796 0.29479524 0.25941497
0002a0 eb 6c 75 3e 35 bd 5f 3e 8d 5e 8d 3e bb b6 77 3e
       0.2396733 0.2184952 0.276112 0.241908
0002b0 7a 29 8b 3e e2 25 7b 3e ca 1f dd ba c7 62 67 ba
       0.27180082 0.2452617 -0.0016870436 -0.00088266697
0002c0 88 da 7f bd 3e 2b 9c 3e 5d d9 91 3e 4d a0 10 bc
       -0.062464267 0.3050174 0.28486148 -0.008827281
0002d0 65 0c da bc 53 fe 09 bd 84 17 81 3e 99 fd 13 b9
       -0.026617238 -0.033689808 0.25213253 -0.00014113485
0002e0 16 d6 7a 3e fc 3b 76 3e 93 35 8b 3e 82 5a 49 3e
       0.2449573 0.2404632 0.2718931 0.19663432
0002f0 e3 fd 4e 3c 5d 2b e8 3c 7e e7 2d bd c5 0d 0a 3d
       0.0126337735 0.02834099 -0.042457096 0.033704538
000300 62 e2 e9 3c 93 ae 23 3d bf c9 3e 3c 13 68 82 bc
       0.02855033 0.03996141 0.01164478 -0.015918767
000310 f3 72 71 3e ff 7a 89 3e 9c 53 09 bd f6 4c 14 3d
       0.23579006 0.2685165 -0.033527 0.03620621
000320 df 3c 63 3e 39 cb 8f 3e 83 46 e2 bc 95 62 6d 3e
       0.22191189 0.28084734 -0.027621513 0.23182137
000330 47 b4 d3 bb f0 bf 82 3e 27 f3 94 3c 5b d8 88 3e
       -0.0064606997 0.25537062 0.01818235 0.26727566
000340 4c 90 88 3e 33 3a 13 bc 6f c0 d3 bc a6 7e 9e 3c
       0.2667259 -0.008986044 -0.025848595 0.0193475
000350 83 f4 24 3d 8c 91 a6 3b c2 e5 f0 3b 71 75 6c 3e
       0.040272247 0.0050832685 0.007351608 0.23091675
000360 aa 67 2a 3b bd 87 8a 3e 81 f3 84 3e 6a 4b 5c 3e
       0.002600173 0.27056685 0.2596703 0.21513143
000370 08 dc 2d 3c 08 51 83 3e 36 82 65 3e 6f ea 48 3e
       0.010611542 0.2564776 0.22412953 0.1962068
000380 37 d9 01 3c 8d 2f c9 3b 97 b6 7f 3e 97 8c ce 3b
       0.007925323 0.0061397017 0.24971996 0.0063033807
000390 0a 8b 05 3d 53 d8 03 bc 72 6a 7c 3e f2 cd 79 3e
       0.0326033 -0.008047181 0.2464998 0.24394968
0003a0 4f 6a 90 3e 21 1a 85 3e 9e 7b 56 3e 58 ea 83 3e
       0.28206107 0.25996497 0.20945594 0.25764728
0003b0 35 85 82 3e 80 42 70 3e 4b 4f f4 3b a8 cd e5 3c
       0.25492254 0.23462868 0.0074557415 0.028052166
0003c0 ab 60 57 3b 0b 66 80 3e ce 27 95 3e 07 fb 51 ba
       0.0032864015 0.25077853 0.2913193 -0.0008010123
0003d0 57 81 09 3d 77 20 be 3b c6 9f 6e 3e 42 bf 4f 3c
       0.033570614 0.00580221 0.23303136 0.012679877
0003e0 65 28 77 3e cd a8 84 3e 97 2b 60 3e 90 d2 68 3e
       0.24136503 0.25910035 0.21891628 0.22736573
0003f0 30 dc 52 3c ff da 36 3c 4b 14 e3 3b ba c8 fd 3b
       0.01286988 0.011160611 0.0069299093 0.0077448757

conv_v_to_c.feature_module_left.0.weight f4 [64, 64]
000000 57 c9 37 3d fb 09 ae 3c 0e 35 be 3c 0a 71 cd 3d
       0.044869747 0.021244993 0.023218658 0.10031326
000010 52 06 b0 bb 43 c9 08 3e b0 e3 c4 3d d6 45 a3 3d
       -0.005371847 0.13358025 0.096137404 0.079723045
000020 08 c5 b6 3d 6f 45 45 3c ae 6c 6f 3d c2 f6 cc 3b
       0.089242995 0.01204048 0.058453254 0.0062550018
000030 df 13 17 3d 2f 84 4e bc 1b 65 62 ba df 37 95 3d
       0.036884185 -0.012604757 -0.0008636282 0.07286047
000040 04 34 91 3c b3 36 24 3d ff 5c 9a bc a1 f4 3a 3c
       0.017724998 0.040091228 -0.018843172 0.011410863
000050 16 70 86 3d 51 b5 60 bb 03 2a dd bc a1 32 99 3d
       0.065643474 -0.003428776 -0.026997572 0.0748036
000060 07 c1 83 3d 41 71 87 b9 c5 9d 47 3d c3 b8 f4 3c
       0.064333014 -0.00025833587 0.048734445 0.029873258
000070 61 91 a7 3d 40 2b d2 3c 96 93 b0 3d b1 e2 89 3d
       0.08182026 0.025655389 0.086219 0.06732691
000080 04 17 87 3c eb 78 0c 3d bd a4 66 bc cf 79 74 3b
       0.016490467 0.034295004 -0.014077363 0.003730405
000090 33 16 b1 3d d8 95 b3 3d 56 2e 2f bd db a6 22 3c
       0.08646812 0.08768815 -0.0427688 0.009927477
0000a0 f1 73 81 3c 02 05 db 3c 03 b3 07 3d f5 d4 b5 3d
       0.015802355 0.026735786 0.033129703 0.08878509
0000b0 12 18 21 3d e6 cd b1 bc a8 df a2 bc df 0c 34 ba
       0.039329596 -0.021704625 -0.019882038 -0.0006868373
0000c0 7d 71 ef 3b ba f6 88 3d 3d 73 65 3d 5f 5c 7f bc
       0.00730723 0.06687684 0.056018103 -0.015585988
0000d0 c3 b5 ac bd 2a 34 8b 3d 44 3f 4c bc 5f fa e0 bc
       -0.08433106 0.06797059 -0.012466256 -0.027463136
0000e0 5d c8 5b 3d 56 e7 85 3c c3 57 ce bb 4b d4 57 bd
       0.05365788 0.016345661 -0.006297083 -0.052692693
0000f0 e8 f8 3f 3d 7a 95 a1 3d 57 aa 12 bd 2d be 38 3d
       0.046868235 0.078898385 -0.03580698 0.04510324
000100 6a 08 9a 3d 3a 01 af 3c 65 f3 94 3d 7b a9 bc 3d
       0.07521136 0.02136289 0.07272986 0.09212013
000110 d5 9d 78 bb cf ea 82 3d 9e c6 0b 3d bd 08 92 3d
       -0.0037935872 0.063924424 0.034124963 0.07130573
000120 9f a8 83 3d 63 32 93 b9 9c e3 98 3d 13 2c e5 bb
       0.06428646 -0.00028075566 0.07465288 -0.0069937794
000130 c7 c8 2e 3d 62 b7 ec 3b 70 40 cd 3c 75 56 f3 3c
       0.042671945 0.0072240094 0.02505514 0.029704312
000140 da a7 04 bb 80 b6 36 3c 13 e8 e1 bc c2 0f d8 bc
       -0.002024165 0.01115191 -0.027576482 -0.026374701
000150 d5 c3 9b 3d ff 47 a3 3c 50 5f a3 3b b8 db 8e bb
       0.07605711 0.019931791 0.0049857274 -0.0043596886
000160 48 95 48 3d db c1 93 3c e6 52 d1 3d 43 26 b3 bc
       0.04897049 0.018036773 0.1022089 -0.02186883
000170 fa 52 fa 3d bb a1 1a 3d 8f 8d 6e 3d be 16 c6 3d
       0.12222858 0.037751894 0.05824047 0.096723065
000180 bb dd 66 3b 9b b4 45 bc 27 7f e4 3c 3f 8f f4 3c
       0.0035227377 -0.0120669855 0.027892662 0.029853461
000190 cb 93 01 3e 77 73 4f 3d 77 33 d6 3c c4 2f 8a bc
       0.12654035 0.050647225 0.026147587 -0.01686848
0001a0 20 e4 d3 3c 72 bb f6 3d af 2f bd bc 27 58 e4 3d
       0.025865614 0.12047471 -0.023094026 0.11149626
0001b0 af db 93 bc 0c b7 9c 3c 47 d3 30 bd 2c a3 36 3c
       -0.01804909 0.019130252 -0.04317024 0.011147302
0001c0 a4 36 84 3c 6c c3 a8 3d 98 54 86 3d a2 96 49 3d
       0.016139336 0.08240399 0.06559104 0.04921592
0001d0 77 01 df 3c 68 74 a1 3d fb 0e 5e bd ba 71 34 3c
       0.027222378 0.07883531 -0.054213505 0.011013443
0001e0 b5 9c da 3c c3 2a c4 3c d5 23 09 bd 4a 9f 8e bc
       0.026686052 0.023946172 -0.033481438 -0.01740994
0001f0 47 1c a9 3d ff 0c 3b 3d e2 f5 fa 3b ec 11 bb 3d
       0.082573466 0.04566669 0.007658706 0.09134278
000200 f4 c6 c1 3d 35 c5 6e bd eb b6 b8 3d e6 55 77 3d
       0.094617754 -0.05829354 0.09019264 0.060384654
000210 af 8b d7 3b 86 da f4 3d 16 fb f0 3d 99 31 17 3d
       0.006577931 0.119557425 0.11766641 0.036912534
000220 56 4c d8 3d 2b 67 ab 3b 1a 15 0a 3d 62 95 4f ba
       0.10561435 0.0052308044 0.03371153 -0.0007918683
000230 9e 51 91 3d 1b fa 4a 3b d8 ce 4a 3a 45 85 2e ba
       0.07095645 0.0030971828 0.00077365106 -0.0006657432
000240 62 88 c4 ba 39 e4 14 bc 8a 0b 89 bc a9 52 0b bd
       -0.0014994259 -0.009087616 -0.016729135 -0.034014378
000250 ed 23 f6 3d 3b e2 9f bc 35 18 e4 3c cb 2a 0d 38
       0.12018571 -0.019517055 0.027843574 3.3656874e-05
000260 95 ef 5f 3d 3f 5f 63 bc bc cc a5 3d d5 b4 63 ba
       0.054671843 -0.013877689 0.080956906 -0.0008686309
000270 a6 a8 5d 3d 77 86 77 bc 76 c7 d8 3d ba be f9 3d
       0.054115914 -0.0151077425 0.10584919 0.12194581
000280 9e f4 0e bd 9b c9 48 bd aa da c8 3c 13 a2 78 bd
       -0.034901254 -0.04902039 0.02451833 -0.06070144
000290 0f 10 de 3d cb 1a 38 3d ed 50 bb 3c 40 6d d2 3c
       0.10842907 0.044947427 0.022865737 0.02568686
0002a0 ab ac 09 bd 0d f3 43 3d 17 e1 67 bc 7a 04 f9 3d
       -0.033611935 0.047839213 -0.014152787 0.12159057
0002b0 31 0f 0d bd eb e1 d6 3c 4e 41 28 3d 9a 46 86 bc
       -0.034438316 0.026230773 0.041077904 -0.016391087
0002c0 92 5a 21 bd c9 fb 9b 3d 6e 1f bd 3d b7 31 b1 bc
       -0.039393015 0.076163836 0.0923451 -0.021630151
0002d0 2f 9b 25 ba 5f 48 91 3d 30 f4 35 bc c0 1c 34 3d
       -0.00063173746 0.07093882 -0.011105582 0.04397273
0002e0 44 51 72 3d 7b 53 cc 3b 68 28 67 bc ff 7a 85 bc
       0.059159532 0.0062355376 -0.014108755 -0.016294
0002f0 2c 41 d8 3d 12 f9 e0 3d ae 57 9f bc 93 db d1 3d
       0.105593055 0.109850064 -0.019450989 0.102469586
000300 cb 1d 19 3d 28 95 fe 3c 03 67 23 3d 86 35 7c 3d
       0.03738193 0.031076983 0.03989316 0.06157448
000310 8f 04 c2 bc 33 69 58 3d bc fe ee 3c ef 42 cb 3b
       -0.023683814 0.0528347 0.029174201 0.0062030475
000320 61 6c 98 3d 14 d6 0c 3d dc 72 e3 3c d7 9e 7b bb
       0.07442547 0.03438385 0.02776473 -0.0038394236
000330 b5 b5 18 3d 90 5b 86 bc cf c2 81 3b ea ac e5 bb
       0.037282664 -0.016401082 0.0039599906 -0.0070091384
000340 ff cb 13 ba 0c d6 e4 3c 35 b5 e8 3b 77 99 05 3c
       -0.0005638003 0.027934097 0.0071016797 0.008154265
000350 4d db 8f 3d 11 76 05 3c 89 8f ef bc f0 a4 f1 bc
       0.0702425 0.008145825 -0.029243248 -0.029497594
000360 e1 a2 6e 3d 90 5b e8 bc 5e af 5f 3d cb ef b3 3c
       0.058260802 -0.028363973 0.054610603 0.021964928
000370 74 9b 99 3d aa 6b 04 3d 26 cf 08 3d ce 4c 04 3d
       0.075003535 0.03232924 0.033400677 0.03229981
000380 db 0d 03 3d f2 57 4f bd 58 23 f1 bc e6 31 e0 bb
       0.031995635 -0.05062098 -0.029435799 -0.006841886
000390 4a 5d 83 3d e2 11 d0 3d 97 4e 12 bd 65 05 71 bc
       0.06414278 0.10159661 -0.03571948 -0.014710759
0003a0 3d b3 17 3b c4 ab 5f 3d 1a 54 e8 bc 73 dd d6 3c
       0.0023147606 0.054607168 -0.028360415 0.026228642
0003b0 ff b6 07 bd 72 c2 24 3d 17 9a 04 3d 77 57 54 3b
       -0.033133503 0.0402245 0.032373514 0.0032400766
0003c0 20 6a a4 bc 34 42 9e 3c 81 b5 7c 3d 32 f6 77 3d
       -0.020070136 0.019318677 0.061696533 0.060537525
0003d0 fd 3e 4b bc b5 a3 c8 3c a5 1d bd 3c f3 41 d0 3c
       -0.012405154 0.024492124 0.023085425 0.025422072
0003e0 3c de 65 3d 6e b4 84 bb 54 37 84 ba a6 73 12 3c
       0.056120142 -0.004049829 -0.001008729 0.008938706
0003f0 fb da 30 3d 1e d0 2d 3d ff e1 d1 bb a3 88 35 3d
       0.043177586 0.042434804 -0.0064051147 0.04431976

conv_v_to_c.feature_module_left.0.bias f4 [64]
000000 a5 6f 26 3d 98 27 ac 3c e5 4d e6 3d c4 0e a9 3c
       0.040633816 0.021014974 0.11245326 0.020636924
000010 9e 24 1a bd 13 32 1b 3e af 5c 9e bd 1b f3 6f 3d
       -0.037632577 0.1515582 -0.07732522 0.058581453
000020 58 5d 9c bd 12 ca 7b bd 31 40 23 3c c9 91 26 be
       -0.076349914 -0.061472006 0.009964035 -0.1626655
000030 21 8c d9 3d cf 15 ef ba 4d f0 08 be 12 a5 4e bd
       0.106224306 -0.0018240752 -0.13372917 -0.050450392
000040 73 41 f8 bd 5f b4 90 bd 90 fa ea bd 6e 9d 2d 3c
       -0.121218584 -0.07065653 -0.11473572 0.010596616
000050 18 0e 82 bd 00 e4 d3 bc ff 1a ca 3d 6b 26 05 bd
       -0.063503444 -0.025865555 0.0986843 -0.03250734
000060 92 01 18 3e f3 c0 e1 bd 40 ee d0 3d 7a c0 16 be
       0.14844349 -0.1102313 0.102016926 -0.14721861
000070 f9 45 cc 3c 72 13 80 bd ac 66 8c 3d d7 5d 1f 3d
       0.02493571 -0.06253709 0.068555206 0.038907852
000080 9e 2d a6 bd 21 6b 83 bd 48 fd 8d bd 88 56 d9 3d
       -0.081141695 -0.064169176 -0.06933075 0.10612208
000090 ae e8 d8 3c 75 3f 3c bd 98 60 87 3c 3b bf 8a 3d
       0.026478138 -0.045958955 0.016525552 0.067747556
0000a0 68 d5 c8 bb 45 b1 ae bd 7b 80 c0 3c 42 4a ce 3b
       -0.0061289556 -0.08529905 0.023498764 0.0062954733
0000b0 90 16 bf bd 83 7a 06 3d ca cd b4 3d dd 5f 4a 3c
       -0.09330475 0.03283168 0.08828314 0.012351957
0000c0 3b 64 7d bd a0 2e d4 3d 7d 71 cd 3d a4 bb a1 3d
       -0.061863165 0.103604555 0.10031412 0.07897118
0000d0 71 8a 18 3e e8 29 e7 bd 2f f5 f5 3d 7e 78 84 bc
       0.14896561 -0.1128729 0.12009656 -0.016170736
0000e0 ea 5d 38 bc 27 30 54 bb ce e2 36 be 1b e3 f2 3d
       -0.01125286 -0.0032377334 -0.17859957 0.11859723
0000f0 24 3f c7 3d f7 43 17 be ef 25 e4 3c 0b 9b 09 bc
       0.0972884 -0.1477202 0.02785012 -0.0083987815

conv_v_to_c.feature_module_edge.0.weight f4 [64, 1]
000000 69 62 02 3e 57 f1 b3 3d 89 48 c6 3d 78 5c 72 bc
       0.12732853 0.08786266 0.09681804 -0.014792554
000010 b8 05 fc 3c 4e b4 c3 3c dc 90 44 3d 8f 5a 13 3d
       0.030764446 0.023889687 0.04798971 0.035975035
000020 36 b3 32 bd 38 b7 85 bc 97 1c 02 3e 5c 6e c5 bd
       -0.04362794 -0.016322717 0.12706219 -0.0964019
000030 9e 75 13 3e c7 d3 b1 3d 41 32 5a bd e9 6b b1 3d
       0.14400336 0.086829714 -0.053270582 0.0866316
000040 27 34 77 3b 39 38 4f bd d6 93 79 3a ec cb 9c 3d
       0.0037720294 -0.050590727 0.00095206255 0.076560825
000050 49 8f c5 3c 37 6b 11 3d f2 cd cf 3d 14 53 7c bd
       0.024116175 0.03550264 0.10146703 -0.061602667
000060 29 35 a5 3d a2 6a 33 bd 87 c8 0c 3d d0 aa dd bc
       0.0806678 -0.043802865 0.034370925 -0.027058989
000070 9b f1 e8 bc a9 64 86 bd fc 97 1b 3e 3f bc 2e 3d
       -0.028435519 -0.06562168 0.15194696 0.042659994
000080 94 9d b3 bd b9 bd bf bd 5e ae 0b bd c9 95 16 3d
       -0.0877029 -0.093623586 -0.034101836 0.03676394
000090 24 84 98 bb e1 83 8f bd 12 ee 35 bd 84 ea f8 3d
       -0.0046544243 -0.07007576 -0.044416495 0.12154105
0000a0 ee ef c3 bb 8d a0 b7 bc 5e a4 a4 bd a8 fc 49 bd
       -0.0059795296 -0.022415424 -0.08039163 -0.049313217
0000b0 3c 34 80 bd e2 29 7a bd ca e9 19 3d 73 de 94 bd
       -0.06259963 -0.0610751 0.037576474 -0.07268991
0000c0 02 b2 b1 bd 96 ae a0 3d 33 bb f0 3c 72 14 9d 3d
       -0.086765304 0.078457996 0.029386139 0.07669915
0000d0 3e 04 c7 3b bb 44 be bd 98 06 8f 3d 02 1b 72 bd
       0.0060735038 -0.09290453 0.069836795 -0.059107788
0000e0 4d c2 99 bd 79 cb 32 3d 91 5a a4 3c 26 a7 e7 3d
       -0.07507763 0.043651078 0.020062717 0.11311178
0000f0 c7 b5 38 bc 80 29 85 bd e3 8f b3 bd 23 f7 7d 3d
       -0.011273808 -0.06502056 -0.087676786 0.062003266

conv_v_to_c.feature_module_edge.0.bias f4 [64]
000000 ab b7 8f be 32 6f 1c be a3 60 73 be 8d 9f 44 bf
       -0.28069815 -0.15276793 -0.23767333 -0.76805955
000010 36 25 9c be 56 66 61 3f a2 a0 1c bf 2a 3e e8 be
       -0.3049714 0.8804678 -0.61182606 -0.45359927
000020 2d 78 3b bf a0 23 47 bf 54 6a 0f bf cf 3f 75 3e
       -0.7323025 -0.77788734 -0.5602162 0.23950122
000030 1a cb 2f 3f 72 56 52 3e 13 88 80 3e 49 ed 23 bf
       0.68669283 0.20540789 0.25103816 -0.64033943
000040 de e0 da 3e 6b 4e 76 bf 45 20 63 3f 35 f3 f5 3e
       0.42749685 -0.96213406 0.88721114 0.48037115
000050 02 23 77 3e 79 91 3f 3e 27 6a b2 be cc 0d 3e bf
       0.24134448 0.18707837 -0.34846613 -0.742398
000060 b2 9f 46 bf 49 5d 5a bf 12 c4 06 bf 7e 42 08 3f
       -0.77587426 -0.8529859 -0.5264293 0.5322646
000070 bd 6c 2a 3f 4b 06 89 3e ef 39 70 3f aa bf 00 bf
       0.6657217 0.26762614 0.938384 -0.50292456
000080 7a 97 f4 3d 10 7e 94 3e 1a 47 26 bf c1 1d 7e be
       0.11942954 0.29002428 -0.6495224 -0.24816038
000090 08 fe 13 be 19 2e 3e 3d ab 34 46 bf 9d d6 96 3e
       -0.14452374 0.04643068 -0.77424115 0.29460612
0000a0 20 40 4a bf 6e 35 26 bf d0 a8 35 3f 93 b7 54 bf
       -0.79004097 -0.6492528 0.7096071 -0.8309261
0000b0 ca 55 2b bf 61 73 77 bd 81 05 03 bf 5e d0 84 3e
       -0.6692778 -0.06041277 -0.51180273 0.25940222
0000c0 a4 76 2a bf d0 0f 1c 3f f6 73 8c be 30 2b be 3e
       -0.6658728 0.6096163 -0.2743222 0.37142324
0000d0 4a 37 89 be 60 75 3a bf e1 cf 70 be 75 26 19 3d
       -0.26799995 -0.7283535 -0.235168 0.03739019
0000e0 ff cb 24 3f 68 13 0d 3e 4b ce cd 3e aa 2a f1 3e
       0.64373773 0.13776934 0.40196452 0.47102863
0000f0 43 5b 12 bf e7 16 2b 3e 0a bd 2b bc 0a 95 21 3f
       -0.57170504 0.16707955 -0.010482082 0.6311804

conv_v_to_c.feature_module_right.0.weight f4 [64, 64]
000000 ff 14 57 3c bf 46 c3 bc de ad 21 bc f5 01 2a 3d
       0.013127564 -0.023837445 -0.009868113 0.041505773
000010 b1 41 ab bc d7 df 12 3d 3b 7d a3 ba 55 32 20 bd
       -0.020905348 0.035858 -0.0012473235 -0.0391105
000020 18 70 08 bd cb 4f 26 bc c9 b4 1a bc 0b 4f bf bc
       -0.033310026 -0.01015086 -0.009442517 -0.02335312
000030 29 28 0b 3c e3 01 8b ba 8a 96 d0 3c 36 39 ae 3c
       0.008493462 -0.0010605421 0.025462408 0.021267515
000040 bc 74 36 bb 03 2a 02 bd 52 b7 e4 bc 43 e5 b9 bc
       -0.0027840575 -0.031778347 -0.027919445 -0.022692328
000050 ea 07 02 bc 78 22 6f bd cf 6b d6 3c d8 46 d0 bb
       -0.007936457 -0.05838248 0.026174454 -0.0063561015
000060 6a 8a 0a 3d ab 9f eb bc 41 f8 1f 3d 17 ad 0d bd
       0.03382341 -0.028762659 0.039055113 -0.0345889
000070 4d 31 e1 3c f9 e7 00 3c 73 17 51 3c dd 12 99 3a
       0.027489329 0.007867807 0.012761938 0.0011678595
000080 69 90 18 bb b1 01 0c bd b5 02 72 bc ba 6a 84 3b
       -0.0023279435 -0.0341813 -0.014771153 0.004041043
000090 03 cf 83 3c 9e e4 1a 3d a5 27 3d bd 53 f4 0a 3c
       0.016089922 0.037815683 -0.046180386 0.008481103
0000a0 96 9c 9e 3c 1e 3d 07 bd 0d b6 73 bc b8 0d e0 3a
       0.019361775 -0.03301727 -0.014874947 0.0017093932
0000b0 94 7e aa bc a9 e9 3d bc 3f 1d 86 bc 93 d4 b0 bc
       -0.02081231 -0.011591353 -0.016371367 -0.021585738
0000c0 c3 41 1a bc 16 71 c2 bc 65 44 f6 bc 18 70 5a bc
       -0.009415093 -0.023735564 -0.03006191 -0.013332389
0000d0 85 2a 85 3c 10 83 80 3c 37 61 07 bd df 8c ce bc
       0.016255626 0.015687495 -0.033051696 -0.025213657
0000e0 ba e7 4f bc b0 93 3b bc 4a ce 69 3c 90 11 47 bb
       -0.012689525 -0.011448786 0.014270375 -0.0030375458
0000f0 bb 1c 49 3d b7 c2 20 bd a5 57 40 bd 5d 53 01 bd
       0.049099665 -0.039248195 -0.046958584 -0.031573642
000100 ca 99 9f 3b 4b d5 9a bb 78 d0 7b ba 14 42 b1 3c
       0.004870628 -0.0047251335 -0.00096059544 0.021637954
000110 9f 09 89 3c f6 eb 8d bc cd 85 d0 3c ab 10 66 3c
       0.01672822 -0.017324429 0.025454426 0.01404206
000120 55 7e 4d 3b d0 b9 64 ba da 0b b6 3c c6 bf 08 3b
       0.0031355817 -0.0008725198 0.022222448 0.002086626
000130 9f 4c 41 3c 03 78 f3 3c 09 eb 82 bc b0 55 0b bd
       0.011798053 0.029720312 -0.015981214 -0.034017265
000140 4f 58 06 bc 5f 36 80 bd c7 65 36 3b 31 3f 24 bc
       -0.008199765 -0.062603705 0.002783166 -0.010024832
000150 77 7e 82 3b 05 c0 40 3c 03 63 8e 3c fa ea cd 3c
       0.003982361 0.011764531 0.017381197 0.02513646
000160 a2 75 6f 3c af 42 42 bd 60 9d 56 3c f2 bb 59 3c
       0.014615448 -0.047426876 0.013099045 0.013289439
000170 15 e0 29 bd 3e 50 8b 3c 3e 72 01 3d e9 b7 07 3d
       -0.041473467 0.017006036 0.03160309 0.033134375
000180 32 06 75 bc da 6d f8 ba 4b 0b 23 bd cf b2 8c 3c
       -0.01495509 -0.0018953637 -0.03980569 0.017175106
000190 64 e5 0a 3c 53 7f 8f bc 0a 67 1d 3c e1 4c 87 bc
       0.008477543 -0.017516768 0.009607086 -0.01651615
0001a0 58 00 e0 bb d8 e5 d6 bb af 53 1c 3c 33 a3 9f 3c
       -0.0068359785 -0.006558161 0.009541436 0.019487
0001b0 54 35 29 bd c8 f8 a0 bc 7f 4c 96 ba d3 a5 1c bd
       -0.041310623 -0.019649878 -0.0011466889 -0.03824408
0001c0 e3 8a 9b 3c d3 18 bd bb 31 93 c2 3c 5f ac c6 3b
       0.018987125 -0.0057707815 0.023751827 0.0060630287
0001d0 a0 48 9f bc 9c 9c ca bb 8b f3 e8 3b ce b7 39 bd
       -0.01944381 -0.00618322 0.0071091107 -0.045341305
0001e0 c3 4b f9 bc f7 55 e4 39 e3 bc 1f 3d 0f f5 4a 3c
       -0.030431634 0.00043551598 0.038998496 0.012387528
0001f0 1d 0e da bb 65 b7 0b 3c df 82 2d 3d 4f 02 f7 ba
       -0.0066545145 0.008527611 0.042361137 -0.0018845293
000200 28 e6 27 3d 2f 19 12 bb 97 69 72 3b 8b 7e 94 3a
       0.04099098 -0.0022292843 0.0036989206 0.0011329217
000210 c5 b1 e9 bc ff 8c 28 3b 23 4c d7 bc 6d 0b ee bc
       -0.02852715 0.0025718806 -0.026281422 -0.029058183
000220 bf 7c 9d 3d ce 7c 89 3b 73 c4 30 bb 53 7a 21 bc
       0.07689809 0.004195786 -0.0026972562 -0.0098558245
000230 37 21 51 bb 7d cb 4c 3c 63 69 16 3b 24 b8 4a 3c
       -0.0031910667 0.012499687 0.0022951 0.012373004
000240 40 41 6f 3d 7c 6d 26 bd fa 7b 78 bd 2f 24 f0 bb
       0.058411837 -0.040631756 -0.06066511 -0.007328532
000250 f9 2d 18 bc 55 c1 ec 3b c0 da fb 3c e5 c1 0e bd
       -0.0092883045 0.0072251954 0.030743957 -0.03485288
000260 da dc ea bb 3d 0a 37 bd 9d 88 05 bd 3b 3e ec bb
       -0.007167441 -0.0446875 -0.032600988 -0.007209567
000270 58 57 c0 3c dd 8e e7 ba 83 bc ce bc 93 e0 24 3d
       0.023479149 -0.0017666478 -0.025236374 0.040253233
000280 dd 85 d1 bc 93 b4 04 3d 88 9f 6b 3b 91 b1 3f 3d
       -0.025576526 0.03239877 0.0035953242 0.0468002
000290 8e 3e b0 bc 77 9f 5f 3c f8 6a e7 3b 4a dd 94 bc
       -0.021514203 0.013648859 0.007062312 -0.018171925
0002a0 aa b7 f2 3c 98 43 c1 b9 0a 73 8f 3a 4f 10 c9 3c
       0.029628593 -0.0003686219 0.0010944318 0.02454391
0002b0 00 19 c5 3c d3 3f d5 bc e7 55 0f 3d 03 5e 55 3d
       0.024059772 -0.02603141 0.034994032 0.05209161
0002c0 de 15 88 3b 73 a5 3c bc 17 f0 68 bb d3 eb d7 3c
       0.0041529974 -0.011514056 -0.0035543495 0.026357567
0002d0 02 a3 c5 bc 98 37 cc 3b 9e 5f c8 3c 75 85 25 bc
       -0.02412558 0.006232213 0.024459656 -0.010102619
0002e0 5b 51 e8 ba 64 9d 03 bd d3 f5 cf bc 73 09 be 3c
       -0.0017724441 -0.03213252 -0.025385773 0.023197865
0002f0 c8 96 35 bc 20 ba e2 3b 0b 7e be 3b 35 34 19 3d
       -0.011083312 0.0069191605 0.0058133653 0.037403304
000300 e1 45 9c bc c3 fd 78 3c 65 b2 25 3d 35 15 c9 bc
       -0.01907629 0.01519722 0.040453333 -0.024546245
000310 1b 1b 35 3c 4a cc 44 3d 1d 74 71 bc 2d e3 70 bc
       0.011053826 0.048046388 -0.014737156 -0.0147026
000320 d4 09 0e 3d 5a c4 b6 bc d3 49 9f 3b 1b e9 1e bb
       0.03467734 -0.022310425 0.0048610955 -0.0024247828
000330 72 85 21 3d ef c0 0f bd 70 7a 7e 3c 7c cf 37 3b
       0.039433904 -0.035096105 0.015532121 0.0028047254
000340 68 0e 59 3c 72 a3 8d 3b 83 ae ed 3b 87 65 7a 3c
       0.013248064 0.0043224627 0.0072534694 0.015282995
000350 b5 9a 73 bd 13 7c e0 3b 92 db 52 3c 37 20 9c bc
       -0.059473712 0.0068507283 0.012869732 -0.01905833
000360 83 03 5a 3b 41 92 3f bc 1b 01 1f bd 8b 99 2c bd
       0.0033266253 -0.0116925845 -0.038819414 -0.042138617
000370 bd d3 87 38 93 61 2b bd ed f5 3a bd 4d f7 38 bd
       6.476741e-05 -0.0418411 -0.04564469 -0.04515772
000380 77 15 d9 bc 14 3e c0 bc 5b d6 d3 bb b8 77 42 3b
       -0.026499493 -0.023467101 -0.006464762 0.0029673409
000390 01 81 2a 3d 47 d9 8b 39 4a 42 c0 3c df 46 f6 bc
       0.041626934 0.0002667403 0.02346911 -0.03006309
0003a0 38 71 78 3d 81 c3 43 3d 00 e8 fe bc fa 81 a9 bc
       0.06065485 0.04779387 -0.031116486 -0.02069186
0003b0 87 cc 4e 3d 45 68 6c bd ea c5 96 3b 60 b6 23 bb
       0.05048802 -0.057716627 0.00460123 -0.002498053
0003c0 0b 26 40 bd 5d 09 96 3b ab 41 0b 3d 10 93 44 3c
       -0.04691128 0.004578753 0.033998173 0.011997953
0003d0 7b e4 a8 3c 47 a8 3a bb d1 74 ca bc 17 d0 0e 3c
       0.02061676 -0.0028481649 -0.024713906 0.008716605
0003e0 50 4a e9 3c 49 68 2e bc e0 48 c8 3c 05 3b b2 3c
       0.028477818 -0.010644981 0.024448812 0.021756658
0003f0 8f 0e a2 bc 4f c0 77 3d 52 2e fa 3b 1b 7c 54 bc
       -0.019782333 0.060486134 0.0076349163 -0.012969042

conv_v_to_c.feature_module_right.0.bias f4 [64]
000000 84 e2 87 3d 18 ea 48 bd 50 40 b0 3c 3c d5 c9 3d
       0.06635001 -0.049051374 0.021515042 0.09855124
000010 0e 34 fb 3d 04 20 10 bd c8 ef be bc f0 2e dc 3d
       0.12265788 -0.035186782 -0.023307696 0.1075114
000020 40 59 00 bc 9a 20 e1 bd 60 6c 3e bd 0c 42 2a bd
       -0.007833779 -0.109925464 -0.046490073 -0.041566893
000030 58 92 81 bc 1c 0e 05 3d 7e 60 ff bd f4 39 f7 3d
       -0.015816852 0.03248416 -0.12469576 0.120716006
000040 30 86 01 bc a0 cc 90 3b 16 ae e8 3d 88 b3 a8 bc
       -0.007905528 0.0044189245 0.11361329 -0.02059342
000050 9a a9 84 bd 60 4c b0 3b d8 60 2d 3d c4 51 28 3d
       -0.064776614 0.0053801984 0.042328686 0.041093603
000060 fc df a3 bd 00 53 e3 bc a0 2c 39 3d 52 fb cf 3d
       -0.08001706 -0.027749538 0.045208573 0.101553574
000070 ca 0a a7 bd 24 fd 29 3d 3c 0b 57 bd ce 9e bf 3d
       -0.08156355 0.04150118 -0.05250095 0.093564615
000080 0a 02 b1 bd e0 c9 ba 3b 08 01 7a bd 60 2f a8 3d
       -0.08642967 0.005700335 -0.06103614 0.08212161
000090 78 96 35 bd 1e ed d9 3d 42 8a d3 3d 44 9f 11 3d
       -0.04433295 0.1064093 0.10329105 0.03555228
0000a0 20 3a 1d 3c 46 34 c4 3d 90 83 40 bc d8 38 58 3d
       0.009596378 0.09580283 -0.011750117 0.052788585
0000b0 3c 3c 56 3d 90 b8 91 bd 30 ad 0e bd 92 bc b2 bd
       0.052303538 -0.07115281 -0.034833133 -0.08727373
0000c0 26 ed a8 bd 18 60 ba 3d 20 d9 63 3d 5e 8a f8 bd
       -0.082483575 0.0910036 0.05562699 -0.121357664
0000d0 c0 41 6f 3d e0 1e 34 3c 7a 8b 91 bd d8 37 50 3d
       0.058412313 0.010993689 -0.07106681 0.050834507
0000e0 26 5d cd bd de 88 d8 3d 58 6e b6 3c f8 83 80 3c
       -0.10027532 0.1057298 0.022269413 0.015687928
0000f0 da a0 8e bd 6a b7 db bd 40 74 cd bb 10 13 c9 bd
       -0.06964274 -0.10728343 -0.0062699616 -0.09818089

conv_v_to_c.feature_module_final.0.weight f4 [64]
000000 bf 7b 80 3f 62 47 83 3f b9 a2 81 3f 00 00 80 3f
       1.0037764 1.0256159 1.0127784 1.0
000010 94 d7 7d 3f 41 85 7c 3f ef 8d 7b 3f 72 cd 7f 3f
       0.9915707 0.9864083 0.9826345 0.9992286
000020 7c 19 80 3f 16 b0 7d 3f b7 e7 82 3f 4c d5 6f 3f
       1.0007777 0.9909681 1.0226964 0.9368484
000030 7b a0 80 3f 16 b4 87 3f fa 30 71 3f d3 b8 80 3f
       1.0048975 1.0601833 0.9421536 1.0056404
000040 44 85 54 3f 4b 1a 79 3f 6d 5e 59 3f 42 28 83 3f
       0.8301585 0.97305745 0.8490971 1.0246661
000050 60 5c 85 3f 8a 6c 87 3f f7 15 84 3f 74 a9 7f 3f
       1.0418816 1.0579998 1.0319203 0.9986794
000060 b9 05 83 3f ee 0a 77 3f 33 f9 7b 3f 79 64 60 3f
       1.0236121 0.9650105 0.9842712 0.8765331
000070 f5 30 64 3f 40 6f 71 3f 4c 84 7a 3f 49 7a 81 3f
       0.891372 0.9431038 0.9785812 1.0115443
000080 10 10 7f 3f 75 70 73 3f 00 00 80 3f 77 5f 79 3f
       0.99633884 0.9509347 1.0 0.9741129
000090 7a 35 7e 3f da 98 7e 3f 4f d5 7f 3f 7e 91 7d 3f
       0.9930035 0.9945198 0.9993486 0.9905013
0000a0 fa 67 7d 3f 00 00 80 3f 11 83 65 3f d0 e6 7f 3f
       0.9898678 1.0 0.89653116 0.99961567
0000b0 10 a6 7f 3f fb 26 9d 3f 5b dc 81 3f 7b d6 5e 3f
       0.99862766 1.2277521 1.0145372 0.8704602
0000c0 11 48 7e 3f bc 13 81 3f 1b 5f 7d 3f 5d e6 81 3f
       0.99328715 1.0084147 0.98973244 1.0148426
0000d0 00 00 80 3f 07 9a 7c 3f aa cd 80 3f e0 32 73 3f
       1.0 0.9867253 1.0062764 0.94999504
0000e0 46 42 5c 3f 52 e5 8f 3f 7c aa 79 3f 5f 65 82 3f
       0.86038625 1.1241858 0.97525764 1.0187186
0000f0 d4 e1 7f 3f 9b 86 78 3f e8 77 81 3f fe 16 78 3f
       0.9995396 0.9708039 1.0114717 0.96910083

conv_v_to_c.feature_module_final.0.bias f4 [64]
000000 5e ff 4e 3b 4e 48 92 3c b5 b7 1a 3c 00 00 00 00
       0.0031585316 0.017856743 0.009443213 0.0
000010 08 3a 26 bb b5 80 79 bc d1 d0 18 bc 7e 82 54 3b
       -0.002536418 -0.01522844 -0.009327129 0.0032426412
000020 71 41 7e 3a a4 49 82 bc 44 6c 78 3c 43 e0 b0 bd
       0.00096990826 -0.015904255 0.015162531 -0.086365245
000030 f9 8f 2c ba eb 21 3f 3d 3a de a7 bd 67 b2 15 3b
       -0.0006582733 0.046663206 -0.08196683 0.0022841932
000040 7c b1 32 be 26 ce 19 bd 3a 6b 20 be df 67 70 3c
       -0.17450517 -0.037550114 -0.15665904 0.014673202
000050 05 dc 22 3d cf 6e 5a 3d 30 b9 9d 3c 1a d9 b9 3a
       0.03976061 0.05332833 0.019253343 0.0014179081
000060 c0 6d 57 3c 63 a5 0d bd 48 d9 9d bb 25 f4 04 be
       0.013148725 -0.034581553 -0.0048171617 -0.12983759
000070 b6 41 e9 bd c0 b8 9a bd 80 b3 db bc 2b 80 46 3c
       -0.113894865 -0.075547695 -0.02681899 0.012115519
000080 7e 37 4a bd 66 f3 89 bd 00 00 00 00 b7 b6 9d bc
       -0.049369328 -0.06735878 0.0 -0.019252164
000090 66 62 88 bc ff 03 39 bd 77 be b1 3a 0b 73 42 bc
       -0.016648483 -0.045169827 0.0013560791 -0.011868249
0000a0 c2 eb 1d bc 00 00 00 00 4d 52 e5 bd 7b 03 57 bb
       -0.009638729 0.0 -0.11197338 -0.003280847
0000b0 28 78 20 ba f6 b2 80 bc e3 51 13 3c 44 4d 0a be
       -0.00061214203 -0.015710335 0.008991691 -0.13506037
0000c0 23 76 2a bc 8a b1 ce 3a 98 df f9 bb 39 92 e3 3b
       -0.010404143 0.0015769463 -0.0076255314 0.0069449213
0000d0 00 00 00 00 ba 10 e7 bb 0d 20 12 3c fb 29 94 bd
       0.0 -0.0070515545 0.008918774 -0.0723457
0000e0 c7 6a 18 be 03 ce ae 3d 1d 16 c8 bc 79 7b 28 3c
       -0.14884482 0.08535387 -0.024424607 0.010283344
0000f0 7e 04 4e bb bf cf 80 bd 5b dd 38 bd 60 24 0b bd
       -0.0031435783 -0.062896244 -0.045132976 -0.033970237

conv_v_to_c.feature_module_final.2.weight f4 [64, 64]
000000 24 cc 89 3d 36 a2 9a 3d 34 11 91 3d c3 86 ec 3c
       0.0672839 0.075504705 0.07083359 0.028872853
000010 39 cf 9c bc d8 23 46 bd 86 03 c4 bb c8 4e 34 3c
       -0.01914178 -0.048374027 -0.0059818653 0.011005111
000020 45 ee 20 3d a0 28 7f 3c dc fc 0d 3d 1e f6 42 bd
       0.03928973 0.015573651 0.034664974 -0.047597997
000030 5c 1c a3 3c 46 05 81 3d 0a c2 0c bc 99 77 4c 3d
       0.019910984 0.06299834 -0.008591184 0.049918745
000040 da 53 e9 3c bd c9 a1 3c f7 a1 89 bc 90 84 3c bc
       0.028482366 0.019749517 -0.016800864 -0.011506215
000050 bd 8c b4 3c 00 03 2d 3d db 62 9e 3d a3 4e d0 bc
       0.022039765 0.04223919 0.07733699 -0.025428122
000060 99 10 80 3d b5 19 c0 3c a3 2c 15 3b 14 15 5a 3b
       0.06253166 0.023449758 0.0022762201 0.0033276724
000070 ab a1 24 bd 01 9c 82 bd ad 4e 98 bc 2c ca 5f 3d
       -0.04019324 -0.06377412 -0.018592203 0.054636165
000080 64 90 0a be c4 f9 c3 bc 0e 6f b2 3b fa 0b 08 3d
       -0.13531643 -0.023922808 0.0054453677 0.033214547
000090 44 df a7 bc 90 6f 90 bd cd c5 9a b8 87 a0 ca 3c
       -0.020492204 -0.07052529 -7.3801355e-05 0.024734749
0000a0 d1 13 c7 ba 68 d1 50 bc 64 b4 4b bd bf bb b5 bb
       -0.0015188401 -0.012745239 -0.04973258 -0.0055460627
0000b0 ba ee 64 3a 36 02 5a be f8 29 89 3c 30 41 5a bc
       0.0008733083 -0.21289906 0.016743645 -0.013321206
0000c0 a3 c9 a4 3c c8 72 fc 3c f9 23 69 3c 80 e4 4c 3c
       0.02011568 0.03081645 0.014229768 0.0125056505
0000d0 f0 28 f1 3c bc c6 ec bb 28 20 d5 3c 74 5c 32 bd
       0.029438466 -0.0072258394 0.02601631 -0.0435452
0000e0 2e dc 60 bd 59 c8 16 3e a6 fc a8 bc c3 df 95 3d
       -0.05489748 0.14724864 -0.020628285 0.0731807
0000f0 0c e1 b1 3c 67 43 8d bd a4 01 d0 bd b0 75 84 bc
       0.021713756 -0.068976216 -0.10156563 -0.016169399
000100 8c 20 5d 3d 82 cf 8b 3b 88 3b fc 3b c3 6f 37 3d
       0.053986117 0.00426668 0.0076975264 0.04478432
000110 63 d3 a8 3c 9f 53 99 bb b1 91 45 3c f3 78 d8 3c
       0.02060861 -0.004679158 0.012058661 0.02642486
000120 2e 9d c9 bc 53 18 a7 bc af b0 77 3a 48 4f f5 bb
       -0.024611082 -0.02039734 0.000944863 -0.0074862577
000130 4c c3 13 bd a4 f8 ed 3c aa a8 76 bc 9d ff 87 3c
       -0.03607492 0.029049225 -0.015054861 0.016601378
000140 06 64 d4 3c bb 7c a2 3d f0 25 63 bc 2d 59 e5 3c
       0.025926601 0.07933947 -0.0138640255 0.027996624
000150 db 48 2d 3d 9f 3f 91 3c 39 1c 94 3d f4 ce 41 bc
       0.04230581 0.017730532 0.072319455 -0.011829127
000160 de 33 a0 bc f1 9c e9 bc ac 75 66 bd cb da f5 bc
       -0.019555982 -0.028517218 -0.056264564 -0.030011555
000170 ab 3a 4f 3c 00 1f 2d 3c bc cc 9e 3c a1 ec 00 bd
       0.012648265 0.010566473 0.019384734 -0.031475667
000180 4c 22 e3 bb f7 1f dd bb 22 70 dc bc ea 09 10 3d
       -0.0069315787 -0.0067481953 -0.026908938 0.035165705
000190 76 bd 6b 3d f1 20 2c bd 03 18 1c bb b1 ea 38 3c
       0.05755373 -0.042023603 -0.0023818023 0.011286424
0001a0 78 83 3e 3c 31 4a 1a bd a5 ed ca bc 09 2e cc bc
       0.011628024 -0.03766841 -0.02477152 -0.024924295
0001b0 d1 7b c0 3c 32 43 91 bc be b9 b0 3b 10 3b db bc
       0.02349654 -0.017732237 0.005393236 -0.026761562
0001c0 ec 87 4d bc ac 07 0e bc 59 63 20 bd 05 d2 9e 3b
       -0.012544613 -0.008668821 -0.039157245 0.0048468136
0001d0 27 2c 12 3c 17 e0 14 bc cf f3 56 3c 8d 91 d5 bc
       0.00892166 -0.00908663 0.013119652 -0.02607038
0001e0 89 10 e6 bb ba 35 98 3d e3 e1 87 bc 33 72 86 bc
       -0.007021014 0.074321225 -0.016587203 -0.016411876
0001f0 1d 01 24 3c 90 69 62 bd bd 9f 5a bd 5b 3c 11 3a
       0.010010031 -0.055276453 -0.053374995 0.00055403047
000200 59 5c a0 bc ae a4 49 bd f2 89 56 bb 03 4f 8c 3c
       -0.019575285 -0.049229316 -0.003273603 0.01712752
000210 2f 74 83 bc 9b 06 46 3c eb fa ba 3c a5 01 49 bd
       -0.016046612 0.012086536 0.022824725 -0.049073834
000220 86 27 aa 3c 68 c0 0b bd c4 c2 e4 3c 5a 22 23 3d
       0.0207708 -0.03411904 0.027924903 0.039827682
000230 0b e5 08 3d 0d 67 2b 3d 8c 61 0c bd 44 f6 13 3a
       0.033421557 0.041846324 -0.034272715 0.00056443014
000240 5a 17 94 bc d2 ad 99 3c 6e 49 af 3c af 31 fa 3c
       -0.018077541 0.018759642 0.021397319 0.03054127
000250 71 7a 1e 3c df ab 9e 3c 1a 3f da bc 42 05 9f 3c
       0.009672747 0.019369064 -0.026641417 0.019411687
000260 23 36 ab 3c 5a ef ca 3c 99 43 2f bc 3b bb ad bc
       0.020899838 0.024772335 -0.010697269 -0.021207443
000270 c1 f0 a3 bc 3e 10 1f 3c 25 37 d7 3b 73 57 9e 3b
       -0.020012261 0.009708462 0.006567853 0.004832202
000280 28 db 03 bb 80 77 00 bd e2 03 77 3c 37 55 ee 3b
       -0.002011964 -0.031363964 0.015076609 0.007273342
000290 a3 3d e4 3c 08 f4 1f 3b 52 93 0f bd 06 2e 04 bc
       0.027861422 0.0024406929 -0.035052605 -0.0080676135
0002a0 f8 e0 ab 3c 6a 99 f4 bc ec a4 80 3c 1d 11 f1 39
       0.020981297 -0.02985831 0.01570364 0.00045979852
0002b0 da 97 1c 3d 24 58 37 bd 46 6a a3 bc 08 21 86 3c
       0.038230754 -0.04476179 -0.019948136 0.016373172
0002c0 28 7f 66 bd ba 4e 89 bc 99 60 c2 bc 74 7e 25 3d
       -0.05627361 -0.016761173 -0.023727702 0.0404038
0002d0 f9 4e 14 bc 3a 68 e6 3c 8b 26 7a bd 54 c2 15 3d
       -0.009052032 0.028125871 -0.061071914 0.03656228
0002e0 3e 8b a5 3c 22 50 5c 3d 3f d0 0d 3d 55 f0 14 3d
       0.020207997 0.053787358 0.034622427 0.03636201
0002f0 c0 c7 f6 bc de 4c 2e 3d 05 64 2c bc 1b 8e 03 3d
       -0.030124545 0.042553775 -0.010521893 0.032117944
000300 f1 f1 44 3d 70 f6 04 3d 61 db 6b 3d 45 37 3f 3c
       0.048082296 0.032461584 0.057582263 0.011670892
000310 d2 24 39 3d b7 cf 3e 3c 8e af 73 3a f5 2f 59 3d
       0.04520113 0.011646203 0.0009295874 0.05302425
000320 93 2a e4 bc e1 e3 8e 3c 2e 42 73 3c 3a 5c 2b bd
       -0.027852332 0.017442646 0.014847321 -0.041836
000330 a2 ba 01 3d 36 61 d0 3d cf dc 40 bd 4f 2c 54 3d
       0.031672128 0.101747915 -0.04708558 0.05180007
000340 4b 97 6e bd 86 d1 fd bc 5c da 3f bc ba 5d 6e 3b
       -0.058249753 -0.030983698 -0.011709776 0.0036371783
000350 11 69 c2 bc 49 19 d0 3a 98 85 82 3d 6b 41 42 bc
       -0.02373174 0.0015876676 0.06373137 -0.011856417
000360 8b 27 35 3d 78 ee d2 3c a2 ac 11 3c 28 58 2a bd
       0.044227164 0.025748476 0.0088912565 -0.04158798
000370 72 bd b5 bc bf b9 2e bd a6 2a b0 3b c5 e4 77 3d
       -0.022185061 -0.04265761 0.005376178 0.060520906
000380 fa ad 2a bd 17 bc f7 3a d5 98 d5 3c d7 0b 0f 3d
       -0.041669823 0.001890066 0.026073853 0.0349234
000390 79 c6 56 3c 6d 63 a7 bd 31 c8 70 bc 01 7d 7a bb
       0.013108843 -0.08173261 -0.014696167 -0.003822148
0003a0 48 32 8e 3b 5e 7b 39 3b 59 b5 82 bd 76 cd e2 bc
       0.00433949 0.0028302292 -0.063822456 -0.027685862
0003b0 1b a9 2a 3d 89 cb 13 be e0 24 83 3d 78 da 2f bd
       0.041665178 -0.14433111 0.06403518 -0.042932957
0003c0 26 45 be bc ff 21 62 3c 9b c7 53 3d d2 a9 57 bc
       -0.023226332 0.013802051 0.05170403 -0.013163047
0003d0 dd e0 27 bc b5 d5 2e bc e1 fc d1 3c 3b 34 71 3c
       -0.010246483 -0.010671069 0.025633277 0.014721925
0003e0 bb 84 d4 bc 3c f5 e9 3d f8 39 c7 bc 57 6b ac 3c
       -0.025942197 0.11423728 -0.024319634 0.021047277
0003f0 b9 9e 03 3c fb 79 70 bd 56 5b dd bd 43 6a e1 bc
       0.008033448 -0.05871008 -0.108084366 -0.02751649
