result/saved_models/regression/trained_params_mean_setcover-independentset-combinatorialauction_asymmetric_firstsol_k_prime_epoch29.pth (torch, 261063 bytes, 28 tensors)

cons_embedding.0.weight f4 [64, 1]
00000000: 51d2 b53d 8516 0bbd f476 2bbd 5249 18bd
00000010: 4f8e 71bd 9982 87bd 1cc8 c3bd 51fd 32bd
00000020: b2a4 3d3d a36e b83d 79f9 51bd aeca 6d3d
00000030: 22ea 553d 53c9 75bd abb7 fabc 64cf 23bd
00000040: c74e 4b3d b224 893d 7cdd 3b3d 6142 35bd
00000050: 6f76 eabc 2896 a73d d0fe 55bd 2b3c ba3d
00000060: 1362 373d aa02 a9bc d151 2f3e a739 5b3d
00000070: 05fb 283d ca40 303d 85b9 4fbd 9280 413d
00000080: e541 41bd 76eb 6ebc cae3 2cbd 9773 a03d
00000090: f8b9 fbbd 527e b9bd 58b7 b0bd 5b0a 4cbd
000000a0: af13 b63d 96e8 493d 397b 4abc 6b4d 5d3d
000000b0: 1cfe d0bd fbb0 493d 5903 18bd da61 cfbc
000000c0: 6077 f6bc 04c5 2cbd 2f23 a33d 8619 9bbd
000000d0: d3c7 aa3d ac0b acbd cc48 cbbc a640 4fbd
000000e0: 90a6 823d fa03 273d 412b a6bd cb6d e3bd
000000f0: 5c00 4abd 6d93 02bd 5dc3 243d 5ddb a7bd
0.08878005 -0.033957023 -0.04186149 -0.0371793 -0.058973607 -0.066167064 -0.09559652 -0.043698613
0.046299644 0.09005477 -0.051263306 0.05805462 0.05222524 -0.06000645 -0.030605158 -0.039992705
0.049635675 0.06696452 0.04586552 -0.044252757 -0.028620927 0.08182937 -0.05224496 0.090935074
0.044771265 -0.020631153 0.17121054 0.05352178 0.041255016 0.043030538 -0.050714035 0.047241755
-0.047181983 -0.014582505 -0.042209424 0.07834547 -0.1229133 -0.09057297 -0.0862872 -0.049814563
0.08890473 0.049294077 -0.01235848 0.05402891 -0.102047175 0.049241047 -0.037112568 -0.025315214
-0.03008622 -0.042180076 0.07965695 -0.075732276 0.08338895 -0.08400664 -0.024814986 -0.050598763
0.063794255 0.040775277 -0.08113719 -0.11104926 -0.04931675 -0.031878877 0.040225375 -0.08196137

cons_embedding.2.weight f4 [64, 64]
00000000: ed0a 4b3d 6987 423d 4ba0 e03c 8e39 d4bc
00000010: ec24 693b 3aca 2bbc 52d7 243d c3ad 24bd
00000020: 74bf d53c aff5 783d 03df 153d 554d 303d
00000030: 672b 403d ed37 ed3c 62f7 9abb 6974 6e3c
00000040: ffcd 403d 2ad7 3f3d 0751 483d 6f67 473d
00000050: d4b0 843c 3eb3 8e3d c44c 54bb c326 263d
00000060: 0cf0 003d ce26 523c 5030 723d f5eb b63c
00000070: a5a1 2b3d 772a 763d 96a1 a5bc 3514 003d
00000080: a894 13bd 19eb 373c 6dd2 613c 8c92 993c
00000090: 1f6c 4bbd 46f5 f4bc 16dc 32bc 4f37 933c
000000a0: 648e 223d f8bc 633d 49f8 b8bc ee49 093d
000000b0: ddba 02bd f76a 8a3d 86c5 313d 9530 1abd
000000c0: 0316 c73b cbaf edbc ec94 913d d032 163d
000000d0: 2ece fc3c 882c 3ebd f3c2 e23b 5ee6 743c
000000e0: 364a 9c3c 7d51 ed3c ab76 613c 8691 4d3c
000000f0: e18d f1bc 5498 8ebc dc62 c83d 528d 8a3b
00000100: 84c7 3d3d dd3a cabc 29bf ccba 1513 78bd
00000110: dcb2 17bd eae4 793c f10d ab3c afad ae3b
00000120: ebbc 163d 50aa 8c3c 3192 02bd 2c33 38bc
00000130: f866 d03c a839 29bc 3026 b23c 73de 123d
00000140: 21e7 cd3c 98de 783d 7f77 233d b06c 943c
00000150: 96ce 8d3c bf6f bb3d 55b0 39bc 8fd8 673d
00000160: 2a42 103d 3285 3abd 550f 103d d940 6f3d
00000170: 456c 8a3c 0315 2f3d aa4a 12bd 167a ec3c
00000180: 7a88 07bb a531 d4b9 01f0 233c 2317 9d3d
00000190: f3d4 483b 1a8a 843c f36a 54bd 55f2 193d
000001a0: 61c6 1b3d a0a9 d93c 2b97 3b3c 2686 8e3d
000001b0: f0d4 e9bb 0e45 933d 76be ccbb 6b17 4a3c
000001c0: f8a1 143c 49a8 c03c 86cd 6c3d aab6 ec3c
000001d0: 47a8 143d 5d24 9dbc eb5e a3bc 7384 b5bb
000001e0: c23a 863d 8749 383c 556a 6ebc b7ae 8fbc
000001f0: 1d59 5bbd 7f62 af3c b939 223d d851 d7bc
00000200: b175 343d ada9 723d ab4a 4f3d 66a4 1dbc
00000210: 245d 423d e4e7 363d 0787 153d dcd4 f73c
00000220: 3903 35bb dd4c 60bd 0b2b 033d 1520 963b
00000230: 0342 3b3c 60b3 213d bf1a 103d 3e6d cd3c
00000240: 4763 2cb9 893a a0bc 69d3 e73b c30c 663d
00000250: 244c 873c 685f cb3c 2126 3b3d 9169 cbbc
00000260: 8738 6c3c 95f9 b0bb 5e3f 9a3c c8be 7f3c
00000270: 8c12 273d 021d b2ba 0664 b33d fd11 1abb
00000280: d0e3 173d d152 e53b a841 db3c 8c3c dbbb
00000290: dfd6 853d 7ffd 933d 3709 703c ea1d 1f3d
000002a0: 696d 4abc 47ba 483b 19f2 3c3c f68e 74bb
000002b0: b522 573d a146 8fbc dc63 0f3c a053 05bd
000002c0: 46cf 473d 3a8a 163d 5cbb 143c 1e5b 3f3d
000002d0: 56f5 58bc 7f96 d23c a2cc 04bc 8b64 f6ba
000002e0: da3b 2bbd 279b e1bb 35e8 d43c a905 f53c
000002f0: 9356 cd3c 1676 e03b 44f9 e2bc f80c b53d
00000300: 3bbf d6bc 6b46 983c ae74 563c 2b42 3c3b
00000310: f50a 203b e482 793a ab40 06bd 0960 e73b
00000320: 78e3 12bd 5f06 90bc 890e a9bc 4fb4 24bc
00000330: b5f2 8a3c 71e4 c93b 8c73 eaba c1c3 e0bc
00000340: de6a 94bc c743 4ebb 5e84 9c3c 029b 4cbc
00000350: ddd0 babc 1739 92bc 8ac0 07bd a537 9abc
00000360: 4d25 01bc 5608 bcbc 1bc6 943c 7395 16bc
00000370: bb19 8ebc 39a3 d5bc d3f9 0d3c c15f 303c
00000380: 4f7e e23c 9b4b e3bc 6dc8 6ebd 16ea 1fbd
00000390: f7e6 bdbc c90f 14bd 3948 6d3c 5394 f63c
000003a0: 15a2 66ba bb97 603d dda4 d93c 3ff9 2ebb
000003b0: f302 a63c e812 193d cc86 883c fb64 80bc
000003c0: d695 2b3d e07b 1bbc 3bc2 593d 43e8 e23c
000003d0: fbd9 8c3b 5b5a a93b 29aa cb3a 2699 673b
000003e0: 1f86 16bb 2f32 123b 8724 d7ba 6e72 a8ba
000003f0: 5d68 e0bc a793 ec3b 0342 7dbc 60cd f83b
0.049570967 0.04749242 0.027420184 -0.02590635 0.0035574986 -0.010485226 0.040244408 -0.040204775
0.026092269 0.060781177 0.036589634 0.0430425 0.04691639 0.028957332 -0.0047291974 0.0145541215
0.047071453 0.046836056 0.0489054 0.048682626 0.0161976 0.069677815 -0.0032394389 0.04056431
0.031478927 0.012826635 0.059128106 0.02232931 0.041902203 0.06009909 -0.020218652 0.03126927
-0.03603044 0.011225485 0.01378308 0.018746637 -0.04966366 -0.029902112 -0.01091673 0.01797071
0.039686576 0.055600137 -0.02257933 0.03351777 -0.031916488 0.06758683 0.043401264 -0.037643988
0.006075622 -0.029014489 0.07108483 0.036669552 0.030860033 -0.046429187 0.0069202124 0.014947502
0.019078355 0.02896952 0.013761203 0.0125469025 -0.029486598 -0.01740662 0.09784481 0.0042282725
0.04633285 -0.024686271 -0.0015620935 -0.060565073 -0.037035808 0.015252331 0.020880671 0.0053307633
0.03680126 0.017171055 -0.0318777 -0.011242669 0.025439724 -0.010328688 0.021746725 0.035856675
0.025134625 0.060759157 0.039908882 0.018118232 0.017310422 0.09152173 -0.011333545 0.05660301
0.03521935 -0.04553718 0.03517087 0.058411453 0.01689733 0.042744648 -0.035715736 0.028866809
-0.0020680712 -0.0004047278 0.010005952 0.076704286 0.0030644506 0.016179133 -0.051859807 0.03758462
0.038030986 0.026570141 0.0114496155 0.069591805 -0.00713598 0.071909055 -0.0062482907 0.012334685
0.0090718195 0.023517745 0.05781319 0.028895695 0.036293294 -0.019182378 -0.019942721 -0.005539471
0.06554176 0.011247999 -0.014551719 -0.017539365 -0.053551782 0.021409271 0.03960583 -0.026284143
0.04405755 0.059243847 0.05060832 -0.009621715 0.047452107 0.044654742 0.036505725 0.030252866
-0.002762033 -0.054760803 0.03202347 0.004581461 0.011429313 0.039477706 0.035181757 0.025076505
-0.00016440182 -0.019559162 0.0070747626 0.056164514 0.016515799 0.024825767 0.04569066 -0.024830611
0.014417774 -0.0054008462 0.018829044 0.015609451 0.040789172 -0.0013588967 0.08759312 -0.0023509257
0.037082493 0.006998398 0.026764706 -0.0066905674 0.06535124 0.07226085 0.0146506345 0.038846888
-0.012355187 0.0030628608 0.01153233 -0.0037316657 0.052523334 -0.017489733 0.008751836 -0.032550454
0.048781656 0.036752917 0.009077873 0.046717755 -0.013242086 0.025706528 -0.008105429 -0.0018798275
-0.041805126 -0.0068849507 0.025989631 0.029909926 0.025065696 0.0068500144 -0.02770675 0.08840364
-0.026214233 0.018588265 0.013089342 0.0028725963 0.0024420593 0.00095181004 -0.032776516 0.007061009
-0.035861462 -0.017581163 -0.020636814 -0.010052755 0.016961435 0.0061612655 -0.0017887219 -0.027437093
-0.018117364 -0.0031473504 0.019106086 -0.012488129 -0.022804672 -0.017849488 -0.033142604 -0.018825362
-0.007882428 -0.022953194 0.01816087 -0.009190905 -0.017346254 -0.026078807 0.00866552 0.010765017
0.02764812 -0.027746012 -0.05829661 -0.0390416 -0.023181422 -0.036147866 0.014482551 0.030100023
-0.0008797956 0.0548322 0.02656787 -0.0026698855 0.020265078 0.037371546 0.016665839 -0.015673151
0.04189094 -0.009489983 0.05316375 0.027698642 0.0042984462 0.005168242 0.0015538383 0.0035339086
-0.0022968126 0.0022307744 -0.0016414084 -0.0012851486 -0.027393514 0.00721975 -0.015457633 0.007592842

var_embedding.0.weight f4 [64, 1]
00000000: 6eee a6bd 85a4 b5bc 9528 d4bc ddeb 7fbc
00000010: 621b 353e 2a3a 453e b17b 95bb 4c82 16bd
00000020: 3e70 453e 348f 213e 8b08 48bd a25d 163e
00000030: 595a 6bbc f3e3 3b3e f10e b2bc 880d 593e
00000040: 45ec 133e fb7b 35bd 030f acbb 3796 0fbd
00000050: a425 e0ba b0ee 04bd 47d0 aabc 6d05 143e
00000060: 4848 47ba 0edb 213e 9187 453e 2629 393e
00000070: 4a27 b2bc 17a3 273e 2b4a 2c3e e63e 153e
00000080: 922a b9bd d185 eeba 835e 243e 41d6 9dbb
00000090: f5c8 89bc d00c b6bb cc12 163e e1d9 223e
000000a0: 4d29 1b3e 604c 1a3e 1e20 453e a145 2f3e
000000b0: e13b 423e 82fa 183e 5bca 8abb 803f 2cbd
000000c0: d7af e8bc d250 1a3e 2ac3 3b3e 38e9 04bd
000000d0: 3e10 b3bc fedc 3cbd 21be 333e e2e2 27bd
000000e0: 9bd0 3c3e 3df3 323e 3ce9 4d3e f95f 2b3e
000000f0: dd2b 5ebc 3a62 50bb fd8e 0fbd f6b0 b8bc
-0.081509456 -0.022173176 -0.025898257 -0.015620199 0.17686227 0.19260469 -0.0045618643 -0.036745355
0.19281098 0.15777284 -0.048836272 0.14684156 -0.014364802 0.18348674 -0.02173564 0.21196568
0.14445598 -0.04430769 -0.005250813 -0.035055365 -0.0017101062 -0.032454193 -0.020851268 0.14455195
-0.00076020183 0.15806219 0.19289996 0.18082103 -0.02174725 0.16370808 0.16825168 0.14574775
-0.09041323 -0.0018197839 0.16051678 -0.004816801 -0.016819457 -0.0055557266 0.14655608 0.15903427
0.15152474 0.15068197 0.19250533 0.17116405 0.18968154 0.14939311 -0.0042355484 -0.042052746
-0.02840416 0.15069893 0.18336168 -0.032448977 -0.02185833 -0.046109192 0.17552997 -0.040987857
0.18438952 0.174756 0.20108503 0.1673583 -0.0135602625 -0.003179683 -0.035048474 -0.022545319

var_embedding.2.weight f4 [64, 64]
00000000: 9a83 c53c 5d7c 94bc 0fcf ab3c 3f9c 693c
00000010: 46f4 0d3e 53e4 2f3e 93ea 4d3c 5c79 1abd
00000020: a3b8 2b3e ac57 273e 0084 533b d97f f93d
00000030: b392 a13c 42db d23d 1aa5 f0bc 91a9 fc3d
00000040: 28a8 133e 6437 a7bb e276 ee3c eab4 dbbc
00000050: 7874 e0bc 6493 c8bc 0b24 7b3c b31e d43d
00000060: 247e b93c 84fa 3d3e dcae 053e d17d 053e
00000070: 9468 b33b 2e4b 183e 804b 153e 18b3 363e
00000080: bd4c b93c 4235 cdbc 717b 193e a561 3f3d
00000090: 033c 233d d853 f23a 3dd2 103e 4f1c db3d
000000a0: 252a 103e 226d f03d 8b71 1f3e e228 243e
000000b0: 7f1d 3f3e 46f6 b93d ffa2 4dbc 62a8 b53b
000000c0: 3fde c6bb a08f 273e 4608 eb3d c7da afbc
000000d0: bbdd 483c 8b1f 42bc 7e83 063e d719 d93c
000000e0: d643 da3d c7ca fb3d 1fc5 2d3e ae83 353e
000000f0: c097 cbbb 5716 09bd 2ff1 a8bc 1d6a ce3a
00000100: 5f00 fd3c c07e a5bc df9d b9bc 9057 e9bc
00000110: 73d9 4d3c 5b3b 90bc 9f64 573d f3b5 95bb
00000120: 235e 8abc f5ba 6cbb 5cd7 45bc db1d a3bb
00000130: a992 be3c e7b8 833c ab3d b23c 90cd c3bc
00000140: 93b8 9fbc 58bf 3f3d 2799 9ebc c513 8c3c
00000150: 1024 ce3c 5d5c 4a3d fedb 3fbc 400b 34bc
00000160: 7f49 a4bc d0fa ffbc 7f0f 913c 7b5d 08bd
00000170: a379 b43b 1c29 a5bc 0e6a 3a3c 1b47 24bc
00000180: 235b 47bc db9e 6d3c bee8 3fbb 9323 083d
00000190: cf2f 27bd 4b0c 81bd 724a febb 4781 303c
000001a0: 0b2c 0a3b 4007 bb3c af73 83bd 2870 583c
000001b0: d3ba 443c c23f 92bc 63a5 9d3c dd94 8ebc
000001c0: 26f2 44bd 60a0 f8bc 22ab 61bc 304b 67bc
000001d0: a443 443b 3b7b 41bd 3329 0e3c 8f99 a9bc
000001e0: e67b 273d 5716 5cbc c002 f43b 3b56 ce3c
000001f0: f3f4 e2bc 3265 3fbd 61f0 49bc b094 41bd
00000200: 0b2e 5f3d 8fa2 13bd 822b 1f3d b84a e43c
00000210: 2f2c 3c3e 394d 183e d394 5d3b ad7a 793c
00000220: 182e 263e 4246 243e 3b35 9fbc 7f3d 1e3e
00000230: a860 323c a246 463e c58f 933c 0a0e 173e
00000240: 4a11 093e 82db 6abb bbb7 e83c 2fa0 3cbc
00000250: aa4c 18bb 6795 9bbb e3f6 91bc 4bbb 1c3e
00000260: de40 82bc f2a7 fb3d fa44 a53d 5c93 223e
00000270: 21fe 903c cae6 273e 16e8 193e 3e7e 2a3e
00000280: 5388 993c 33e7 e23c 8bb1 1e3e 0fab 74bb
00000290: b151 91bc b055 1d3d e458 2a3e 4415 063e
000002a0: 21c8 e33d 2f6b b83d 951b 173e 5a42 e83d
000002b0: 9cb2 123e 213e ef3d ca1f ddba c762 67ba
000002c0: 88da 7fbd 97cd 343e 6915 203e 4da0 10bc
000002d0: 650c dabc 53fe 09bd 5f2e fd3d 99fd 13b9
000002e0: 9272 ee3d ce48 e53d a3c4 123e cf8d 8b3d
000002f0: e3fd 4e3c 5d2b e83c 7ee7 2dbd c50d 0a3d
00000300: 62e2 e93c 93ae 233d bfc9 3e3c 1368 82bc
00000310: 600f f03d a280 193e 9c53 09bd f64c 143d
00000320: 6f8d d33d 3d3a 263e 8346 e2bc f01b e83d
00000330: 47b4 d3bb f310 0c3e 27f3 943c 8330 183e
00000340: 1dcf 173e 333a 13bc 6fc0 d3bc a67e 9e3c
00000350: 83f4 243d 8c91 a63b c2e5 f03b 0147 e63d
00000360: aa67 2a3b 9bb2 1b3e 1d72 103e fbbb c53d
00000370: 08dc 2d3c a340 0d3e f63a d83d 3a2e 9f3d
00000380: 37d9 013c 8d2f c93b 9457 063e 978c ce3b
00000390: 0a8b 053d 53d8 03bc 6916 033e 0c70 003e
000003a0: c17d 273e 9edd 103e 7b0d ba3d 826d 0e3e
000003b0: f196 0b3e 49d8 ed3d 4b4f f43b a8cd e53c
000003c0: ab60 573b 2474 073e 70e1 303e 07fb 51ba
000003d0: 5781 093d 7720 be3b 976b ea3d 42bf 4f3c
000003e0: b571 fb3d ebe7 0f3e eb61 cd3d 08de de3d
000003f0: 30dc 523c ffda 363c 4b14 e33b bac8 fd3b
0.024110604 -0.018125707 0.020972757 0.014258443 0.13862714 0.17176943 0.012568134 -0.037713394
0.16769652 0.16342038 0.0032274723 0.12182588 0.019723272 0.10295726 -0.029375602 0.1233703
0.14419615 -0.0051030386 0.029109422 -0.026819665 -0.027399287 -0.024484344 0.0153284175 0.10357418
0.022643156 0.18552595 0.13054985 0.13036276 0.005475113 0.14872429 0.14579582 0.17841756
0.0226196 -0.02504981 0.14988495 0.04672398 0.039852154 0.0018488122 0.141427 0.10698759
0.14078577 0.117395654 0.15570657 0.1603122 0.18663596 0.09080176 -0.012551068 0.0055437544
-0.0060689743 0.16363382 0.114761874 -0.021466626 0.012259896 -0.011848341 0.13136098 0.02650158
0.1065747 0.12294536 0.16969727 0.17726013 -0.0062131584 -0.03346857 -0.020622818 0.0015748177
0.030883966 -0.02020204 -0.022658287 -0.028484136 0.012564051 -0.017606428 0.052586194 -0.004568809
-0.016890591 -0.0036122177 -0.012075271 -0.0049779243 0.023263292 0.01607938 0.021757921 -0.02390173
-0.019497192 0.04681334 -0.019360138 0.01709927 0.02516368 0.04940449 -0.011710165 -0.01098901
-0.020054577 -0.031247526 0.017707584 -0.033292275 0.0055076643 -0.020161204 0.0113778245 -0.0100267185
-0.012167725 0.014503206 -0.0029283012 0.03323705 -0.04081708 -0.06301173 -0.0077603394 0.01077301
0.002108338 0.022830606 -0.06418549 0.013210334 0.012007433 -0.017852668 0.019243902 -0.017404968
-0.048082493 -0.03034991 -0.013773711 -0.014117047 0.0029947544 -0.047236662 0.008676815 -0.020703105
0.040889643 -0.013433061 0.007446617 0.025187602 -0.027704692 -0.046727367 -0.012325377 -0.04726094
0.05448727 -0.0360437 0.03885985 0.02786766 0.1837623 0.14873208 0.003381063 0.015227002
0.16228521 0.16042426 -0.019434562 0.15453146 0.010887302 0.19362882 0.01801289 0.14751449
0.13385502 -0.0035836403 0.028407922 -0.0115128 -0.0023239055 -0.0047480348 -0.01781792 0.15305822
-0.015900072 0.122878924 0.08069797 0.15876526 0.017699303 0.16396633 0.1502994 0.1664972
0.018741762 0.027698135 0.15497415 -0.0037333404 -0.017739149 0.038411796 0.16635472 0.1309405
0.11122156 0.09004819 0.14756615 0.113407806 0.14325947 0.11681772 -0.0016870436 -0.00088266697
-0.062464267 0.17656551 0.15633167 -0.008827281 -0.026617238 -0.033689808 0.1236236 -0.00014113485
0.11642946 0.11195527 0.14332823 0.06814157 0.0126337735 0.02834099 -0.042457096 0.033704538
0.02855033 0.03996141 0.01164478 -0.015918767 0.117216825 0.14990476 -0.033527 0.03620621
0.10329711 0.16233154 -0.027621513 0.11333454 -0.0064606997 0.1367834 0.01818235 0.14862256
0.14825101 -0.008986044 -0.025848595 0.0193475 0.040272247 0.0050832685 0.007351608 0.11244012
0.002600173 0.15204851 0.14106031 0.09654995 0.010611542 0.13794188 0.10558121 0.07772489
0.007925323 0.0061397017 0.13119346 0.0063033807 0.0326033 -0.008047181 0.12801518 0.12542742
0.16356565 0.1414704 0.090846024 0.13908961 0.13631798 0.11613519 0.0074557415 0.028052166
0.0032864015 0.13227898 0.17273498 -0.0008010123 0.033570614 0.00580221 0.114463024 0.012679877
0.12277547 0.14053313 0.10028442 0.10882193 0.01286988 0.011160611 0.0069299093 0.0077448757

conv_v_to_c.feature_module_left.0.weight f4 [64, 64]
00000000: 8c94 eb3b fb09 ae3c 0ef9 6dbc 7a67 803d
00000010: 5206 b0bb bb8f c43d c15e 6f3d dd3b 2c3d
00000020: 2842 533d 6f45 453c 0694 aa3c c2f6 cc3b
00000030: a1f0 51ba 2f84 4ebc 1b65 62ba df37 953d
00000040: 0434 913c b336 243d ff5c 9abc a1f4 3a3c
00000050: b446 e53c 51b5 60bb 032a ddbc a132 993d
00000060: c089 da3c 4171 87b9 82bf 353c c3b8 f43c
00000070: e8fe 343d 402b d23c 0fdb 463d ee8e f23c
00000080: 0417 873c eb78 0c3d bda4 66bc 93d1 1fbb
00000090: 4cae 473d c5ae 4c3d 562e 2fbd dba6 223c
000000a0: f173 813c df62 32bc 03b3 073d 4733 523d
000000b0: 1218 213d e6cd b1bc a8df a2bc df0c 34ba
000000c0: 8849 a43b 855d ef3c e319 963c 5f5c 7fbc
000000d0: c3b5 acbd f1b2 f73c 443f 4cbc 5ffa e0bc
000000e0: 4e08 833c 56e7 853c c357 cebb 70d4 57bd
000000f0: c06a 153c 9cab 283d 57aa 12bd 8205 f73b
00000100: d9a0 e43c 3a01 af3c c1cb cf3c dbc0 373d
00000110: d59d 78bb c0d8 883c 1221 58bc a4b2 c43c
00000120: ed1c 8b3c 6332 93b9 d38f e03c 132c e5bb
00000130: 9b13 98bb 62b7 ec3b 7040 cd3c 7556 f33c
00000140: daa7 04bb 80b6 363c 13e8 e1bc c20f d8bc
00000150: 49b7 eb3c ff47 a33c 505f a33b b8db 8ebb
00000160: 81cd de3a dbc1 933c 9b13 613d 4326 b3bc
00000170: 0591 993d bba1 1a3d 7f76 333c 824a 4a3d
00000180: bbdd 663b 9bb4 45bc 277f e43c 7ba0 e13c
00000190: 5132 a23d 1f1f 593b 7733 d63c c42f 8abc
000001a0: 20e4 d33c 8dfe 953d af2f bdbc e2d4 833d
000001b0: afdb 93bc 0cb7 9c3c 47d3 30bd 2ca3 363c
000001c0: 5e2e 823c 0af4 0f3d b4c1 953c a296 493d
000001d0: 7701 df3c 25ff 003d fb0e 5ebd ba71 343c
000001e0: eaaf a8bc c32a c43c d523 09bd ec9f 8ebc
000001f0: 0935 103d fa39 dbba e2f5 fa3b 79ca 343d
00000200: 7e52 243d 35c5 6ebd ecf1 113d e14b c23b
00000210: af8b d73b 076b 853d e156 813d 6201 90bc
00000220: 2857 513d 2b67 ab3b 61c4 a9bc 6295 4fba
00000230: b5bb 863c 1bfa 4a3b d8ce 4a3a 4585 2eba
00000240: 6288 c4ba 39e4 14bc 8a0b 89bc a952 0bbd
00000250: a791 863d 3be2 9fbc 3518 e43c cb2a 0d38
00000260: 90e1 5839 3f5f 63bc 401e d93c d5b4 63ba
00000270: d4a2 a8b9 7786 77bc dc66 523d f40e 8a3d
00000280: 9ef4 0ebd 9bc9 48bd aada c83c a165 81bd
00000290: 93bc 5c3d 2201 1dbc ed50 bb3c 406d d23c
000002a0: abac 09bd 50f2 d7bb 17e1 67bc 6bc6 893d
000002b0: 310f 0dbd ebe1 d63c 4e41 283d 9a46 86bc
000002c0: a75b 28bd 9be2 b13c c0f9 1a3d b731 b1bc
000002d0: 2f9b 25ba f158 863c 30f4 35bc c01c 343d
000002e0: 2188 993b 7b53 cc3b 6828 67bc 527b 85bc
000002f0: b305 513d 9a92 623d ae57 9fbc 36e4 443d
00000300: bf93 413d 2895 fe3c 6f2e 4c3d 512d 923d
00000310: 8f04 c2bc 0056 803d d720 203d 9db7 833c
00000320: 5f8a ac3d 14d6 0c3d 8526 1a3d d79e 7bbb
00000330: 9a41 413d 905b 86bc cfc2 813b eaac e5bb
00000340: ffcb 13ba 0cd6 e43c 35b5 e83b 7799 053c
00000350: b316 a43d 1176 053c 898f efbc f0a4 f1bc
00000360: b685 8b3d 905b e8bc ce07 843d cbef b33c
00000370: 51d1 ad3d aa6b 043d 0e4e 313d 44f7 2c3d
00000380: db0d 033d f257 4fbd 5823 f1bc 2474 053a
00000390: 6cb6 973d 6c6b e43d 974e 12bd 6505 71bc
000003a0: 3db3 173b d303 843d 1a54 e8bc 3d0d 133d
000003b0: ffb6 07bd 72c2 243d 179a 043d 7757 543b
000003c0: b769 a7bc 367f ef3c 8ba2 923d 32f6 773d
000003d0: fd3e 4bbc f022 0d3d a51d bd3c f341 d03c
000003e0: 2e1a 873d 6eb4 84bb 5437 84ba 2174 123c
000003f0: 88bc 593d 9e8c 563d ffe1 d1bb ae7b 5d3d
0.007189339 0.021244993 -0.014524711 0.062697366 -0.005371847 0.09597727 0.058439974 0.042049278
0.051576763 0.01204048 0.020822536 0.0062550018 -0.0008008574 -0.012604757 -0.0008636282 0.07286047
0.017724998 0.040091228 -0.018843172 0.011410863 0.027987815 -0.003428776 -0.026997572 0.0748036
0.026677012 -0.00025833587 0.011093022 0.029873258 0.04418841 0.025655389 0.048548754 0.02960917
0.016490467 0.034295004 -0.014077363 -0.002438639 0.048750207 0.04997136 -0.0427688 0.009927477
0.015802355 -0.0108878305 0.033129703 0.051318433 0.039329596 -0.021704625 -0.019882038 -0.0006868373
0.0050136484 0.029219398 0.01832289 -0.015585988 -0.08433106 0.030236693 -0.012466256 -0.027463136
0.01599517 0.016345661 -0.006297083 -0.05269283 0.009119689 0.041179284 -0.03580698 0.0075384984
0.02790873 0.02136289 0.025365712 0.044861656 -0.0037935872 0.016704917 -0.013191478 0.024010964
0.016981566 -0.00028075566 0.02741233 -0.0069937794 -0.004641009 0.0072240094 0.02505514 0.029704312
-0.002024165 0.01115191 -0.027576482 -0.026374701 0.02877392 0.019931791 0.0049857274 -0.0043596886
0.0016998501 0.018036773 0.054950338 -0.02186883 0.074983634 0.037751894 0.010953545 0.049387462
0.0035227377 -0.0120669855 0.027892662 0.027542343 0.07919753 0.0033130122 0.026147587 -0.01686848
0.025865614 0.07323942 -0.023094026 0.064370885 -0.01804909 0.019130252 -0.04317024 0.011147302
0.01589125 0.035144843 0.018280841 0.04921592 0.027222378 0.031493325 -0.054213505 0.011013443
-0.020591695 0.023946172 -0.033481438 -0.017410241 0.03520683 -0.0016725652 0.007658706 0.044138405
0.040117733 -0.05829354 0.035631105 0.0059294556 0.006577931 0.065145545 0.06315399 -0.017578784
0.05110851 0.0052308044 -0.020723524 -0.0007918683 0.016446928 0.0030971828 0.00077365106 -0.0006657432
-0.0014994259 -0.009087616 -0.016729135 -0.034014378 0.0657075 -0.019517055 0.027843574 3.3656874e-05
0.00020683394 -0.013877689 0.026503682 -0.0008686309 -0.00032164773 -0.0151077425 0.051367626 0.06741133
-0.034901254 -0.04902039 0.02451833 -0.06318212 0.053890776 -0.00958279 0.022865737 0.02568686
-0.033611935 -0.006590165 -0.014152787 0.06727298 -0.034438316 0.026230773 0.041077904 -0.016391087
-0.04110303 0.0217145 0.037835836 -0.021630151 -0.00063173746 0.016399832 -0.011105582 0.04397273
0.0046854173 0.0062355376 -0.014108755 -0.016294155 0.051030826 0.05531559 -0.019450989 0.0480692
0.047260042 0.031076983 0.04984897 0.0713755 -0.023683814 0.06266403 0.03909382 0.016078765
0.0842483 0.03438385 0.03763439 -0.0038394236 0.047181703 -0.016401082 0.0039599906 -0.0070091384
-0.0005638003 0.027934097 0.0071016797 0.008154265 0.08012142 0.008145825 -0.029243248 -0.029497594
0.06812613 -0.028363973 0.06446801 0.021964928 0.084871896 0.03232924 0.04328733 0.042228
0.031995635 -0.05062098 -0.029435799 0.00050908537 0.07407841 0.111533016 -0.03571948 -0.014710759
0.0023147606 0.06446042 -0.028360415 0.035901297 -0.033133503 0.0402245 0.032373514 0.0032400766
-0.020436151 0.029235464 0.07159909 0.060537525 -0.012405154 0.034457147 0.023085425 0.025422072
0.0659679 -0.004049829 -0.001008729 0.00893882 0.053158313 0.052380197 -0.0064051147 0.05407303

conv_v_to_c.feature_module_left.0.bias f4 [64]
00000000: 350c 113c 86a0 49bc ae6e 843d 8faf 7f3c
00000010: d76d 95bd a2ab a33d eb85 b6bd 3e41 d33c
00000020: 9c80 98bd c65c 84bd d858 09bd 402d 03be
00000030: 6acc 933d 6abd 97bc 61c5 d4bd 0831 93bd
00000040: 1a98 c4bd f902 88bd 2144 d1bd a8be 06bc
00000050: 63f5 a3bd 260b 2dbd 94d7 6c3d 945a cebc
00000060: 7719 ef3d bf20 dbbd a9a5 913d 43d7 fbbd
00000070: 58b1 2d3d beef 07bd f302 e4bc 6c03 c83a
00000080: 7cc7 71bd d867 06bd c925 72bd 7d2e a13d
00000090: 00a5 c73a e91e d7bc d076 c83c 9ac4 6e3d
000000a0: bc37 51bc f69e b0bd b478 2f3d 9dcc 063c
000000b0: 4c8c abbd 6b32 dd3c 7938 5f3d 1758 4b3d
000000c0: 2346 47bd b46b 9c3d a405 8d3d 3685 793d
000000d0: c094 fe3d 337a d5bd c97e 9e3d 8543 3e3c
000000e0: ba2e 0f3c f27b adbc b387 2fbe 9b74 bf3d
000000f0: 7c8b 923d 0564 ebbd fb84 533d 8704 39bd
0.008853008 -0.012306338 0.06466423 0.015605821 -0.07296341 0.07991721 -0.089122616 0.025787946
-0.07446405 -0.06463008 -0.033531994 -0.1281023 0.07216723 -0.018522937 -0.103892095 -0.07187086
-0.095993236 -0.06641192 -0.10218073 -0.008224167 -0.08005788 -0.04224696 0.05782278 -0.025189675
0.11674779 -0.10699605 0.07111675 -0.12296917 0.042405456 -0.03318762 -0.027833438 0.0015259809
-0.059028134 -0.032813877 -0.059118066 0.07870195 0.0015231669 -0.026259856 0.024470717 0.058292963
-0.012769636 -0.086240694 0.04283972 0.008227495 -0.08376369 0.02700158 0.054497216 0.049644556
-0.048650872 0.0763773 0.068858415 0.060918055 0.124307156 -0.10423698 0.07739026 0.011612778
0.008739168 -0.021177266 -0.17141609 0.093484126 0.07155511 -0.114936866 0.051640492 -0.045170333

conv_v_to_c.feature_module_edge.0.weight f4 [64, 1]
00000000: 699b ac3d 1193 163d 9009 0b3d 87b8 063a
00000010: 8ac2 97bc be4a 3ebd 11bb 8f3c 7f92 efbb
00000020: 80e1 d1bc 12c1 89bb ff79 963d ce21 5bbd
00000030: dec4 cd3d c749 953d 0726 e1bc d690 313d
00000040: a84c bc3c 4402 0fbd 42a4 943b 5eeb 823d
00000050: 432a 713c ce6d bf3c 8a10 483d 91ca 2cbd
00000060: 3b67 ce3c 6614 edbc dc6d 9bbb aeab 80bb
00000070: 8e19 96bc 3c2c 18bd a4d5 7e3d 44d2 c3bb
00000080: b64d 63bd 2329 71bd b87d f3bb 8955 abbb
00000090: 42a1 26bd d681 2fbd 525d afbc cb6d c53d
000000a0: aed0 df3a 1f7f caba a23d 85bd 558e 04bd
000000b0: e372 2dbd 9364 6bbd e94d f3bb 1174 27bd
000000c0: 5f07 8cbd 6c29 3f3d 46b0 96bc 1996 773d
000000d0: e5cc f0bc 784c 97bd 44a7 523c 61cd b6bc
000000e0: 090a 7fbd 156c f23c 9aa1 fe3c 3ae2 c93d
000000f0: 2bab 30bd f1b3 dabc 7797 5dbd bcf9 943c
0.0842808 0.036761347 0.033944666 0.0005139191 -0.01852538 -0.046458 0.017545255 -0.007311165
-0.025620222 -0.004203924 0.07347488 -0.053499036 0.10047315 0.072894625 -0.027483953 0.043351017
0.022985771 -0.03491427 0.0045361826 0.06392549 0.014719549 0.023367789 0.048843898 -0.04218537
0.025195708 -0.02894039 -0.004743321 -0.003926716 -0.018322732 -0.03715156 0.062215462 -0.0059759934
-0.055494033 -0.05887712 -0.0074307583 -0.0052287024 -0.04068113 -0.04284843 -0.021406803 0.09640082
0.0017075741 -0.0015449262 -0.06505896 -0.0323623 -0.042345893 -0.057468962 -0.007425059 -0.040882174
-0.068373434 0.046670362 -0.0183946 0.06044588 -0.029394576 -0.07387632 0.012857262 -0.02231473
-0.06226543 0.029592553 0.031082917 0.098576024 -0.04313199 -0.02669713 -0.054099526 0.018185489

conv_v_to_c.feature_module_edge.0.bias f4 [64]
00000000: d7fc 9fbe e78d 3ebe 5d27 92be c0e8 45bf
00000010: 413c aebe af0e 4f3f ffa5 1fbf 1a09 f9be
00000020: f1fc 3abf b3f2 47bf dd8c 1abf d352 8c3e
00000030: f912 273f f23c 413e c4ce 8f3e 5d69 29bf
00000040: 64cb e73e 3b38 75bf 3a57 663f ba50 ec3e
00000050: 5b2f 663e 7eca 2e3e fb55 c7be 3d2e 3cbf
00000060: bfbc 4ebf 7089 59bf 18ad 0ebf 8f77 0e3f
00000070: 57e5 2e3f 9c0d 983e c28c 573f a051 0abf
00000080: 54f0 103e 368c a43e eca9 23bf 9218 8dbe
00000090: ca8b 2dbe 1d6f 873d 2f2c 44bf ccff 913e
000000a0: 2ef3 4bbf 4273 26bf 519c 3a3f ce38 54bf
000000b0: 23e4 28bf 72aa 87bd a6ab 0bbf 8ee8 973e
000000c0: 9f14 27bf 7417 153f 838f 9cbe 1fec b43e
000000d0: 34d7 95be 843f 38bf d145 8ebe c079 853d
000000e0: 21ea 293f 2a6a f53d f87a d13e a94e e43e
000000f0: d2f1 18bf f2a8 4c3e a00a 5a3c 2c2b 183f
-0.3124759 -0.18608819 -0.28545657 -0.77308273 -0.34030345 0.8088178 -0.62362665 -0.48639756
-0.7304221 -0.78104705 -0.6037119 0.2740694 0.65263325 0.18870905 0.28087437 -0.66176397
0.45272362 -0.95788926 0.8997685 0.4615534 0.22479002 0.17069432 -0.38932785 -0.73508054
-0.80756754 -0.8497534 -0.5573287 0.5565118 0.68318695 0.29697883 0.84199154 -0.540308
0.14154178 0.32138222 -0.63931155 -0.27557808 -0.16947857 0.0661299 -0.7662992 0.2851547
-0.7966794 -0.6501962 0.7289477 -0.8289918 -0.6597311 -0.06624307 -0.5455879 0.29669613
-0.6526584 0.5823891 -0.3057824 0.35336396 -0.2926575 -0.7197192 -0.2778764 0.065173626
0.6637288 0.1198314 0.4091413 0.44591263 -0.5974399 0.19986323 0.013308197 0.59440875

conv_v_to_c.feature_module_right.0.weight f4 [64, 64]
00000000: ff14 573c bf46 c3bc dead 21bc f501 2a3d
00000010: b141 abbc d7df 123d 3b7d a3ba 5532 20bd
00000020: 1870 08bd cb4f 26bc c9b4 1abc 0b4f bfbc
00000030: 2928 0b3c e301 8bba 8a96 d03c 3639 ae3c
00000040: bc74 36bb 032a 02bd 52b7 e4bc 43e5 b9bc
00000050: ea07 02bc 7822 6fbd cf6b d63c d846 d0bb
00000060: 6a8a 0a3d ab9f ebbc 41f8 1f3d 17ad 0dbd
00000070: 4d31 e13c f9e7 003c 7317 513c dd12 993a
00000080: 6990 18bb b101 0cbd b502 72bc ba6a 843b
00000090: 03cf 833c 9ee4 1a3d a527 3dbd 53f4 0a3c
000000a0: 969c 9e3c 1e3d 07bd 0db6 73bc b80d e03a
000000b0: 947e aabc a9e9 3dbc 3f1d 86bc 93d4 b0bc
000000c0: c341 1abc 1671 c2bc 6544 f6bc 1870 5abc
000000d0: 852a 853c 1083 803c 3761 07bd df8c cebc
000000e0: bae7 4fbc b093 3bbc 4ace 693c 9011 47bb
000000f0: bb1c 493d b7c2 20bd a557 40bd 5d53 01bd
00000100: ca99 9f3b 4bd5 9abb 78d0 7bba 1442 b13c
00000110: 9f09 893c f6eb 8dbc cd85 d03c ab10 663c
00000120: 557e 4d3b d0b9 64ba da0b b63c c6bf 083b
00000130: 9f4c 413c 0378 f33c 09eb 82bc b055 0bbd
00000140: 4f58 06bc 5f36 80bd c765 363b 313f 24bc
00000150: 777e 823b 05c0 403c 0363 8e3c faea cd3c
00000160: a275 6f3c af42 42bd 609d 563c f2bb 593c
00000170: 15e0 29bd 3e50 8b3c 3e72 013d e9b7 073d
00000180: 3206 75bc da6d f8ba 4b0b 23bd cfb2 8c3c
00000190: 64e5 0a3c 537f 8fbc 0a67 1d3c e14c 87bc
000001a0: 5800 e0bb d8e5 d6bb af53 1c3c 33a3 9f3c
000001b0: 5435 29bd c8f8 a0bc 7f4c 96ba d3a5 1cbd
000001c0: e38a 9b3c d318 bdbb 3193 c23c 5fac c63b
000001d0: a048 9fbc 9c9c cabb 8bf3 e83b ceb7 39bd
000001e0: c34b f9bc f755 e439 e3bc 1f3d 0ff5 4a3c
000001f0: 1d0e dabb 65b7 0b3c df82 2d3d 4f02 f7ba
00000200: 28e6 273d 2f19 12bb 9769 723b 8b7e 943a
00000210: c5b1 e9bc ff8c 283b 234c d7bc 6d0b eebc
00000220: bf7c 9d3d ce7c 893b 73c4 30bb 537a 21bc
00000230: 3721 51bb 7dcb 4c3c 6369 163b 24b8 4a3c
00000240: 4041 6f3d 7c6d 26bd fa7b 78bd 2f24 f0bb
00000250: f92d 18bc 55c1 ec3b c0da fb3c e5c1 0ebd
00000260: dadc eabb 3d0a 37bd 9d88 05bd 3b3e ecbb
00000270: 5857 c03c dd8e e7ba 83bc cebc 93e0 243d
00000280: dd85 d1bc 93b4 043d 889f 6b3b 91b1 3f3d
00000290: 8e3e b0bc 779f 5f3c f86a e73b 4add 94bc
000002a0: aab7 f23c 9843 c1b9 0a73 8f3a 4f10 c93c
000002b0: 0019 c53c d33f d5bc e755 0f3d 035e 553d
000002c0: de15 883b 73a5 3cbc 17f0 68bb d3eb d73c
000002d0: 02a3 c5bc 9837 cc3b 9e5f c83c 7585 25bc
000002e0: 5b51 e8ba 649d 03bd d3f5 cfbc 7309 be3c
000002f0: c896 35bc 20ba e23b 0b7e be3b 3534 193d
00000300: e145 9cbc c3fd 783c 65b2 253d 3515 c9bc
00000310: 1b1b 353c 4acc 443d 1d74 71bc 2de3 70bc
00000320: d409 0e3d 5ac4 b6bc d349 9f3b 1be9 1ebb
00000330: 7285 213d efc0 0fbd 707a 7e3c 7ccf 373b
00000340: 680e 593c 72a3 8d3b 83ae ed3b 8765 7a3c
00000350: b59a 73bd 137c e03b 92db 523c 3720 9cbc
00000360: 8303 5a3b 4192 3fbc 1b01 1fbd 8b99 2cbd
00000370: bdd3 8738 9361 2bbd edf5 3abd 4df7 38bd
00000380: 7715 d9bc 143e c0bc 5bd6 d3bb b877 423b
00000390: 0181 2a3d 47d9 8b39 4a42 c03c df46 f6bc
000003a0: 3871 783d 81c3 433d 00e8 febc fa81 a9bc
000003b0: 87cc 4e3d 4568 6cbd eac5 963b 60b6 23bb
000003c0: 0b26 40bd 5d09 963b ab41 0b3d 1093 443c
000003d0: 7be4 a83c 47a8 3abb d174 cabc 17d0 0e3c
000003e0: 504a e93c 4968 2ebc e048 c83c 053b b23c
000003f0: 8f0e a2bc 4fc0 773d 522e fa3b 1b7c 54bc
0.013127564 -0.023837445 -0.009868113 0.041505773 -0.020905348 0.035858 -0.0012473235 -0.0391105
-0.033310026 -0.01015086 -0.009442517 -0.02335312 0.008493462 -0.0010605421 0.025462408 0.021267515
-0.0027840575 -0.031778347 -0.027919445 -0.022692328 -0.007936457 -0.05838248 0.026174454 -0.0063561015
0.03382341 -0.028762659 0.039055113 -0.0345889 0.027489329 0.007867807 0.012761938 0.0011678595
-0.0023279435 -0.0341813 -0.014771153 0.004041043 0.016089922 0.037815683 -0.046180386 0.008481103
0.019361775 -0.03301727 -0.014874947 0.0017093932 -0.02081231 -0.011591353 -0.016371367 -0.021585738
-0.009415093 -0.023735564 -0.03006191 -0.013332389 0.016255626 0.015687495 -0.033051696 -0.025213657
-0.012689525 -0.011448786 0.014270375 -0.0030375458 0.049099665 -0.039248195 -0.046958584 -0.031573642
0.004870628 -0.0047251335 -0.00096059544 0.021637954 0.01672822 -0.017324429 0.025454426 0.01404206
0.0031355817 -0.0008725198 0.022222448 0.002086626 0.011798053 0.029720312 -0.015981214 -0.034017265
-0.008199765 -0.062603705 0.002783166 -0.010024832 0.003982361 0.011764531 0.017381197 0.02513646
0.014615448 -0.047426876 0.013099045 0.013289439 -0.041473467 0.017006036 0.03160309 0.033134375
-0.01495509 -0.0018953637 -0.03980569 0.017175106 0.008477543 -0.017516768 0.009607086 -0.01651615
-0.0068359785 -0.006558161 0.009541436 0.019487 -0.041310623 -0.019649878 -0.0011466889 -0.03824408
0.018987125 -0.0057707815 0.023751827 0.0060630287 -0.01944381 -0.00618322 0.0071091107 -0.045341305
-0.030431634 0.00043551598 0.038998496 0.012387528 -0.0066545145 0.008527611 0.042361137 -0.0018845293
0.04099098 -0.0022292843 0.0036989206 0.0011329217 -0.02852715 0.0025718806 -0.026281422 -0.029058183
0.07689809 0.004195786 -0.0026972562 -0.0098558245 -0.0031910667 0.012499687 0.0022951 0.012373004
0.058411837 -0.040631756 -0.06066511 -0.007328532 -0.0092883045 0.0072251954 0.030743957 -0.03485288
-0.007167441 -0.0446875 -0.032600988 -0.007209567 0.023479149 -0.0017666478 -0.025236374 0.040253233
-0.025576526 0.03239877 0.0035953242 0.0468002 -0.021514203 0.013648859 0.007062312 -0.018171925
0.029628593 -0.0003686219 0.0010944318 0.02454391 0.024059772 -0.02603141 0.034994032 0.05209161
0.0041529974 -0.011514056 -0.0035543495 0.026357567 -0.02412558 0.006232213 0.024459656 -0.010102619
-0.0017724441 -0.03213252 -0.025385773 0.023197865 -0.011083312 0.0069191605 0.0058133653 0.037403304
-0.01907629 0.01519722 0.040453333 -0.024546245 0.011053826 0.048046388 -0.014737156 -0.0147026
0.03467734 -0.022310425 0.0048610955 -0.0024247828 0.039433904 -0.035096105 0.015532121 0.0028047254
0.013248064 0.0043224627 0.0072534694 0.015282995 -0.059473712 0.0068507283 0.012869732 -0.01905833
0.0033266253 -0.0116925845 -0.038819414 -0.042138617 6.476741e-05 -0.0418411 -0.04564469 -0.04515772
-0.026499493 -0.023467101 -0.006464762 0.0029673409 0.041626934 0.0002667403 0.02346911 -0.03006309
0.06065485 0.04779387 -0.031116486 -0.02069186 0.05048802 -0.057716627 0.00460123 -0.002498053
-0.04691128 0.004578753 0.033998173 0.011997953 0.02061676 -0.0028481649 -0.024713906 0.008716605
0.028477818 -0.010644981 0.024448812 0.021756658 -0.019782333 0.060486134 0.0076349163 -0.012969042

conv_v_to_c.feature_module_right.0.bias f4 [64]
00000000: 84e2 873d 18ea 48bd 5040 b03c 3cd5 c93d
00000010: 0e34 fb3d 0420 10bd c8ef bebc f02e dc3d
00000020: 4059 00bc 9a20 e1bd 606c 3ebd 0c42 2abd
00000030: 5892 81bc 1c0e 053d 7e60 ffbd f439 f73d
00000040: 3086 01bc a0cc 903b 16ae e83d 88b3 a8bc
00000050: 9aa9 84bd 604c b03b d860 2d3d c451 283d
00000060: fcdf a3bd 0053 e3bc a02c 393d 52fb cf3d
00000070: ca0a a7bd 24fd 293d 3c0b 57bd ce9e bf3d
00000080: 0a02 b1bd e0c9 ba3b 0801 7abd 602f a83d
00000090: 7896 35bd 1eed d93d 428a d33d 449f 113d
000000a0: 203a 1d3c 4634 c43d 9083 40bc d838 583d
000000b0: 3c3c 563d 90b8 91bd 30ad 0ebd 92bc b2bd
000000c0: 26ed a8bd 1860 ba3d 20d9 633d 5e8a f8bd
000000d0: c041 6f3d e01e 343c 7a8b 91bd d837 503d
000000e0: 265d cdbd de88 d83d 586e b63c f883 803c
000000f0: daa0 8ebd 6ab7 dbbd 4074 cdbb 1013 c9bd
0.06635001 -0.049051374 0.021515042 0.09855124 0.12265788 -0.035186782 -0.023307696 0.1075114
-0.007833779 -0.109925464 -0.046490073 -0.041566893 -0.015816852 0.03248416 -0.12469576 0.120716006
-0.007905528 0.0044189245 0.11361329 -0.02059342 -0.064776614 0.0053801984 0.042328686 0.041093603
-0.08001706 -0.027749538 0.045208573 0.101553574 -0.08156355 0.04150118 -0.05250095 0.093564615
-0.08642967 0.005700335 -0.06103614 0.08212161 -0.04433295 0.1064093 0.10329105 0.03555228
0.009596378 0.09580283 -0.011750117 0.052788585 0.052303538 -0.07115281 -0.034833133 -0.08727373
-0.082483575 0.0910036 0.05562699 -0.121357664 0.058412313 0.010993689 -0.07106681 0.050834507
-0.10027532 0.1057298 0.022269413 0.015687928 -0.06964274 -0.10728343 -0.0062699616 -0.09818089

conv_v_to_c.feature_module_final.0.weight f4 [64]
00000000: 0000 803f 0000 803f 0000 803f 0000 803f
00000010: 0000 803f 38ea 7d3f 0000 803f 0000 803f
00000020: 0000 803f 0000 803f 0000 803f d04c 803f
00000030: 34d6 803f 1a66 873f 25d0 803f 0000 803f
00000040: 3a00 7c3f 0000 803f abba 7a3f 62e5 823f
00000050: 05d8 843f 10eb 863f 0000 803f 0000 803f
00000060: 0000 803f 0000 803f 0000 803f 4e43 7c3f
00000070: 7cc6 7d3f e599 803f e0d7 7c3f 0000 803f
00000080: d7f9 823f 31a3 803f 0000 803f 0000 803f
00000090: 0000 803f 8941 843f 0000 803f 4e6a 803f
000000a0: 0000 803f 0000 803f 5628 7d3f 0000 803f
000000b0: 0000 803f 8b8c 8d3f 0000 803f ecf4 703f
000000c0: 0000 803f fce9 803f 0000 803f 79f4 813f
000000d0: 0000 803f 0000 803f 0000 803f 73b9 803f
000000e0: 7eee 7c3f db7b 8f3f cb89 7d3f 9b8f 813f
000000f0: 0000 803f 21e9 813f 9c28 843f 547c 7b3f
1.0 1.0 1.0 1.0 1.0 0.99185514 1.0 1.0
1.0 1.0 1.0 1.0023441 1.006537 1.0578034 1.0063521 1.0
0.98437846 1.0 0.9794108 1.0226252 1.0378424 1.0540485 1.0 1.0
1.0 1.0 1.0 0.985402 0.9913099 1.0046965 0.987669 1.0
1.0232495 1.0049802 1.0 1.0 1.0 1.03325 1.0 1.0032442
1.0 1.0 0.9888967 1.0 1.0 1.1058515 1.0 0.9412372
1.0 1.0071406 1.0 1.0152732 1.0 1.0 1.0 1.0056595
0.9880141 1.1209673 0.9903838 1.012195 1.0 1.014927 1.0324893 0.98236585

conv_v_to_c.feature_module_final.0.bias f4 [64]
00000000: 0000 0000 0000 0000 0000 0000 0000 0000
00000010: 0000 0000 4d6b 1ebc 0000 0000 0000 0000
00000020: 0000 0000 0000 0000 0000 0000 0fef 89bc
00000030: 4b65 293a b00a 1c3d ff74 38bc 0000 0000
00000040: 8a29 a3bc 0000 0000 5383 bdbc 04e4 333c
00000050: 36be f33c 0d5d 2e3d 0000 0000 0000 0000
00000060: 0000 0000 0000 0000 0000 0000 4cb8 9fbc
00000070: bfd0 61bc 69f2 27bc f7cc 85bc 0000 0000
00000080: fbd5 4cbc fede 32bc 0000 0000 0000 0000
00000090: 0000 0000 88ef 23bc 0000 0000 26a8 01bb
000000a0: 0000 0000 0000 0000 1c1b 94bc 0000 0000
000000b0: 0000 0000 8b45 31bc 0000 0000 fa0c 7ebd
000000c0: 0000 0000 d5b5 fbba 0000 0000 ed95 a83b
000000d0: 0000 0000 0000 0000 0000 0000 4cf6 6abc
000000e0: b2a1 9bbc 4733 953d 9c8e 5ebc 1fee 3e3a
000000f0: 0000 0000 ef57 2fbc 46ae f3bb a7af 9fbc
0.0 0.0 0.0 0.0 0.0 -0.009669137 0.0 0.0
0.0 0.0 0.0 -0.016837625 0.0006461932 0.03809613 -0.011258363 0.0
-0.019917268 0.0 -0.02313391 0.010979656 0.029753786 0.04256921 0.0 0.0
0.0 0.0 0.0 -0.01949706 -0.013782679 -0.010250666 -0.016333086 0.0
-0.012502189 -0.010917423 0.0 0.0 0.0 -0.010005839 0.0 -0.0019784062
0.0 0.0 -0.018079333 0.0 0.0 -0.010819803 0.0 -0.062024094
0.0 -0.001920397 0.0 0.0051448257 0.0 0.0 0.0 -0.014340948
-0.018998 0.07285171 -0.013583805 0.00072834076 0.0 -0.010702117 -0.0074365465 -0.019492937

conv_v_to_c.feature_module_final.2.weight f4 [64, 64]
00000000: 2baa 3e3c 7b03 0b3d 08ba bb3c c386 ec3c
00000010: 7bb8 5fbd 08a2 25bd 68b9 bebc edfb 59bc
00000020: 5b0b 243d 6003 cf3b 5108 8abb 1aea 0bbd
00000030: 2e04 c93c 10ed 843d 0b04 123c ab18 ab3c
00000040: ad32 133d 7d7d b73c a5b4 1bbc 2cdc eabb
00000050: 577f dc3c a05f 3f3d 5fcc e73c 6fcb cfbc
00000060: 3762 bb3c c233 9d3c 66d6 b2bc abb7 383c
00000070: 66f4 02bd 89fe 4abd d189 57bc e057 d73c
00000080: b844 dabd 3b7e 3dbc 0e6f b23b 2077 803c
00000090: d232 b4bc 820c 25bd a791 dc39 7693 e53c
000000a0: e005 15bb 68d1 50bc d5e0 27bd c873 dcbb
000000b0: fac9 6b3a 9bb6 f8bd 7f8b 41bc 77fe 46bb
000000c0: 8f45 753c 73da 163d d36e 51bc 4318 893c
000000d0: f028 f13c 83cf 83bb 818d 08ba 3fd8 cfbc
000000e0: edc2 3abd a7d2 193e 1a8a 7ebc fd26 9f3d
000000f0: 8cf6 ab3c e5ed 3ebd 1813 89bd 5301 18bc
00000100: 24e6 183d 08de 733c bf55 a1ba c36f 373d
00000110: 2863 433c 829b 043b 2264 de3b eb49 8f3c
00000120: f098 dabc 229f e9bc 7471 90bc fd8f 2938
00000130: 070a edbc 76e2 143d 0997 08bc fa5c 033c
00000140: 08ed 063d 5d74 933d 9ae2 f2bb cb0a 0f3d
00000150: 1351 4b3d 8894 d03c 26a0 4a3d 1783 2abc
00000160: c04d ecbc ed3f 3dbd ffa5 80bd a494 c1bc
00000170: c14f 9e3c 0ef2 813c 4b58 d53c 560a 1cbd
00000180: 349e 493a 7f0a 5238 2270 dcbc 9f44 e63c
00000190: 7aad 523d f639 29bd c523 7ebb bdf8 9a3c
000001a0: 096e 1c3c 314a 1abd 0361 97bc 5d5c ccbc
000001b0: b9f5 c93c c9eb bdbb 4adf 09ba 0435 adbc
000001c0: d228 7bbc a1f6 8eba 1ff7 33bd 563d 403c
000001d0: 272c 123c b3e8 29bc 3aa7 4f3c 1dd7 a4bc
000001e0: 0c36 b3ba ae33 a53d 658c 0ebc 03e2 06bc
000001f0: fb06 273c 12bb 3ebd 15b8 43bd 5ca6 ea3b
00000200: 8589 15bc df22 0dbd d618 a43c 034f 8c3c
00000210: 8e7c 363a 3514 1a3c d648 143d 460c 15bd
00000220: 5380 9b3c 5a35 02bd ab21 f73c 88bd 933c
00000230: 8ce4 163d b611 553d 911c 51bd d28d 813c
00000240: 7014 c3bc 9c0d 843c 2503 903c e5fa 0f3d
00000250: 9e8f 623c 8bad d13c e442 2fbc 073d a53c
00000260: 7eff 0f3d 8005 023c 85e7 2e3b acc4 ddbc
00000270: 89b4 cebc eb21 89bb 23e3 013c 28d5 b53c
00000280: 254b 1dbd c964 30bd e203 773c 79aa 863c
00000290: 93d6 c03c c4a6 87bc e35c 14bd 070c 82ba
000002a0: 483b 243c 6a99 f4bc 5979 1b3c 58ef ec3a
000002b0: 81f5 1f3d cc4a 35bd 12b1 ebba f196 f93b
000002c0: fd9f 4fbd e5a3 7fbc 5f8d babb 5ae6 3a3d
000002d0: f94e 14bc 7206 db3c 54aa 45bd d2df b33b
000002e0: 6240 583c 22a9 833d 1739 1d3d a565 213d
000002f0: cf33 eebc f595 503c 6764 40bd 6804 083d
00000300: d9a9 033b 6e20 2fbb 0f6b 7d3c 4537 3f3c
00000310: ef11 b63b 2f78 cd3c 7d2e 02bd 325a 953c
00000320: 127d dcbc c375 b83b 3799 b9bc 78cf e5bc
00000330: 3694 273d 7fd5 da3d 3ef9 dcbc 493d 4c3c
00000340: a3d7 3abd d50c f8bc e4e2 4c3a 7bbd 4d3c
00000350: cfbc 51bc 558e 3e3c dd94 173c b15b 45bc
00000360: 0f02 a43b efea a33c 9d4c dabc ef2a eabc
00000370: e01e 11bc 2f1e cdbc cdd7 7b3c ca7b be3c
00000380: cca1 88bc 4e82 893c d598 d53c 633b ba3b
00000390: cc0f 333c 4418 89bd 60a2 65bc f524 573b
000003a0: 1209 393a 5e7b 393b 2081 4dbd ebef ebbc
000003b0: dfdc 293d 07b0 a5bd 2857 d03c 16e6 e5bc
000003c0: 9b6b e5bc 1fe5 d03c deab 973c bd80 9abb
000003d0: dde0 27bc b514 edbb dd1f 9fbb d4d5 063d
000003e0: d19d 40bc 6b52 f63d 76f8 5cbc fa61 003d
000003f0: fb76 f03b 15b9 15bd 1de6 9ebd e73d 87bc
0.011637251 0.033938866 0.022915855 0.028872853 -0.054619294 -0.04043773 -0.023281768 -0.013304693
0.040049892 0.006317541 -0.004212417 -0.034158804 0.024538126 0.064905286 0.008912097 0.020885786
0.035937 0.022398705 -0.009503518 -0.00716736 0.02691619 0.046722054 0.028295694 -0.02536556
0.02287398 0.01918972 -0.021830749 0.011274259 -0.031971358 -0.04955915 -0.013155417 0.02628702
-0.10657638 -0.01156574 0.0054453677 0.015681803 -0.02199689 -0.04029513 0.0004207019 0.028024416
-0.0022739097 -0.012745239 -0.0409859 -0.0067276694 0.00089946354 -0.12144204 -0.011813044 -0.0030364075
0.014970197 0.036829423 -0.01278277 0.016735202 0.029438466 -0.00402254 -0.0005209074 -0.025371669
-0.045596052 0.15021764 -0.015535856 0.07771108 0.020991586 -0.046613593 -0.06693095 -0.0092776595
0.037328854 0.014884479 -0.001230888 0.04478432 0.011925496 0.0020234291 0.006786839 0.017491302
-0.026684254 -0.028518263 -0.017632224 4.042684e-05 -0.028935445 0.036348782 -0.008336791 0.008017773
0.032940894 0.07199929 -0.007412267 0.034922402 0.049637865 0.02546145 0.049469136 -0.010407231
-0.028845668 -0.046203543 -0.06281661 -0.023630448 0.019325139 0.015862491 0.026043078 -0.038095795
0.00076911156 5.0077677e-05 -0.026908938 0.028108893 0.05143497 -0.04131504 -0.0038778645 0.018917436
0.009547719 -0.03766841 -0.018478876 -0.024946386 0.024653303 -0.00579593 -0.0005259408 -0.021143444
-0.015329557 -0.0010907241 -0.043936845 0.011733374 0.00892166 -0.010370421 0.012674147 -0.020122105
-0.0013672723 0.08066498 -0.008700465 -0.008232596 0.010194535 -0.046565123 -0.047782976 0.007160945
-0.0091270255 -0.034457084 0.020031374 0.01712752 0.0006961309 0.009404232 0.036202274 -0.036388658
0.018982088 -0.03178916 0.030167421 0.018034711 0.036839053 0.052018844 -0.051052634 0.015814696
-0.023813456 0.01611977 0.017579624 0.03515138 0.013828186 0.025595447 -0.0106971 0.020170702
0.035155766 0.007935882 0.002668829 -0.02707132 -0.02523257 -0.0041849515 0.007927689 0.022196367
-0.03840174 -0.043064866 0.015076609 0.01643871 0.023539817 -0.016559012 -0.036221396 -0.0009921797
0.010023899 -0.02985831 0.009489381 0.0018076701 0.03905249 -0.044260785 -0.0017981848 0.0076168706
-0.050689686 -0.01560304 -0.0056931223 0.045629837 -0.009052032 0.026736472 -0.04825814 0.005489328
0.013198944 0.06428744 0.038384523 0.039403576 -0.029077439 0.012731065 -0.04697075 0.033207327
0.002009025 -0.002672221 0.015467419 0.011670892 0.005556337 0.025081722 -0.031782616 0.018231485
-0.026915107 0.0056292727 -0.022656066 -0.02805303 0.04091283 0.106852524 -0.026974317 0.012465783
-0.045615803 -0.030279556 0.0007815792 0.012557383 -0.012801363 0.011630614 0.0092518 -0.012045787
0.005005128 0.020009486 -0.02664786 -0.028584925 -0.008857459 -0.025038807 0.015371275 0.023252387
-0.016678713 0.016785767 0.026073853 0.005683349 0.010929059 -0.066940814 -0.014015764 0.0032828425
0.00070585415 0.0028302292 -0.05017197 -0.028800925 0.041470405 -0.08090215 0.025432184 -0.028063815
-0.028005412 0.025499878 0.01851457 -0.004715054 -0.010246483 -0.0072351345 -0.0048560933 0.032918766
-0.011756376 0.12027439 -0.013486972 0.031343438 0.0073384023 -0.03655346 -0.077587344 -0.01650901
