result/saved_models/regression/trained_params_mean_setcover-independentset-combinatorialauction_asymmetric_firstsol_k_prime_epoch23.pth (torch, 261063 bytes, 28 tensors)

cons_embedding.0.weight f4 [64, 1]
0	0x3dc96f36	0.09835665
1	0xbcfc8b47	-0.030828131
2	0xbd1e827b	-0.038698655
3	0xbd0a9008	-0.033828765
4	0xbd625790	-0.055259287
5	0xbd8119da	-0.06303759
6	0xbdbe3493	-0.092873715
7	0xbd26a318	-0.040682882
8	0x3d6540c7	0.05596998
9	0x3dca9fca	0.098937586
10	0xbd45904e	-0.048233323
11	0x3d88dc35	0.06682626
12	0x3d7c5dd1	0.061612908
13	0xbd69bca3	-0.057064664
14	0xbcdf9866	-0.027294349
15	0xbd17b0a2	-0.037033685
16	0x3d726d31	0.059186164
17	0x3d9d54ea	0.07682212
18	0x3d6069dd	0.05478846
19	0xbd28499a	-0.041085817
20	0xbccdc860	-0.02511996
21	0x3db9e967	0.09077721
22	0xbd4a0612	-0.049322195
23	0x3dce7960	0.10081744
24	0x3d5e0285	0.05420162
25	0xbc977ec3	-0.018493062
26	0x3e39130c	0.18073672
27	0x3d80e05d	0.06292794
28	0x3d4d0736	0.050055705
29	0x3d53e411	0.051731173
30	0xbd40fe45	-0.04711749
31	0x3d659105	0.056046505
32	0xbd31f2a2	-0.043444283
33	0xbc3b9246	-0.0114484485
34	0xbd1df2f1	-0.038561765
35	0x3db4ff1a	0.08837719
36	0xbdf592bc	-0.11990878
37	0xbdb1d41e	-0.08683036
38	0xbdaa82d0	-0.08325732
39	0xbd3f995b	-0.04677711
40	0x3dca0f07	0.098661475
41	0x3d70b6c2	0.05876804
42	0xbc1c5fc9	-0.009544321
43	0x3d82931b	0.063757144
44	0xbdc985e7	-0.09839993
45	0x3d6efe10	0.05834776
46	0xbd0c9bc5	-0.03432824
47	0xbcb8cf0e	-0.022559669
48	0xbcdfeddc	-0.0273351
49	0xbd1f95ab	-0.038961094
50	0x3db6b189	0.08920581
51	0xbd94471b	-0.07240125
52	0x3dbe05fa	0.09278484
53	0xbda57b40	-0.08080149
54	0xbcb6f16d	-0.022331918
55	0xbd41c1a7	-0.047303822
56	0x3d953209	0.07284934
57	0x3d4d9185	0.050187606
58	0xbd9fa6ff	-0.07795524
59	0xbddca08f	-0.107728116
60	0xbd3e62c0	-0.046480894
61	0xbceac3d9	-0.02865784
62	0x3d4c96e4	0.049948588
63	0xbda0cac6	-0.07851176

cons_embedding.2.weight f4 [64, 64]
0	0x3d6a5930	0.057213962
1	0x3d428769	0.04749242
2	0x3ce0a04b	0.027420184
3	0xbcd4398e	-0.02590635
4	0x3b6924ec	0.0035574986
5	0xbc2bca3a	-0.010485226
6	0x3d24d752	0.040244408
7	0xbd24adc3	-0.040204775
8	0x3d0a3829	0.033744965
9	0x3d8c215f	0.068423025
10	0x3d15df03	0.036589634
11	0x3d4f812f	0.05066031
12	0x3d5f4c0e	0.05451589
13	0x3ced37ed	0.028957332
14	0xbb9af762	-0.0047291974
15	0x3c6e7469	0.0145541215
16	0x3d60090a	0.05469612
17	0x3d5f26de	0.054480426
18	0x3d676e0f	0.056501444
19	0x3d47676f	0.048682626
20	0x3c84b0d4	0.0161976
21	0x3d9e5a91	0.07732118
22	0xbb544cc4	-0.0032394389
23	0x3d457cee	0.048214845
24	0x3d2024fb	0.039097767
25	0x3c5226ce	0.012826635
26	0x3d88cf54	0.0668017
27	0x3cf54f46	0.029945027
28	0x3d4ab629	0.049490128
29	0x3d8a997d	0.06767557
30	0xbca5a196	-0.020218652
31	0x3d1f3192	0.038865633
32	0xbd1394a8	-0.03603044
33	0x3c37eb19	0.011225485
34	0x3c61d26d	0.01378308
35	0x3cd8329b	0.026391318
36	0xbd4b6c1f	-0.04966366
37	0xbcf4f546	-0.029902112
38	0xbc32dc16	-0.01091673
39	0x3c93374f	0.01797071
40	0x3d41e21c	0.047334775
41	0x3d817952	0.06321968
42	0xbcb8f849	-0.02257933
43	0x3d28767e	0.041128628
44	0xbd02badd	-0.031916488
45	0x3d9a01db	0.07519885
46	0x3d31c586	0.043401264
47	0xbd1a3095	-0.037643988
48	0x3bc71603	0.006075622
49	0xbcedafcb	-0.029014489
50	0x3da13dd6	0.078731224
51	0x3d1632d0	0.036669552
52	0x3d1dbc2b	0.03850953
53	0xbd3e2c88	-0.046429187
54	0x3be2c2f3	0.0069202124
55	0x3c74e65e	0.014947502
56	0x3cdabc7d	0.026701206
57	0x3d15cb19	0.036570642
58	0x3c6176ab	0.013761203
59	0x3c4d9186	0.0125469025
60	0xbcf18de1	-0.029486598
61	0xbc8e9854	-0.01740662
62	0x3dd806af	0.1054815
63	0x3b8a8d52	0.0042282725
64	0x3d639fc6	0.055572294
65	0xbcca3add	-0.024686271
66	0xbaccbf29	-0.0015620935
67	0xbd781315	-0.060565073
68	0xbd17b2dc	-0.037035808
69	0x3c79e4ea	0.015252331
70	0x3cab0df1	0.020880671
71	0x3baeadaf	0.0053307633
72	0x3d3c8e7b	0.046034317
73	0x3cd85cb3	0.02641139
74	0xbd029231	-0.0318777
75	0xbb0559db	-0.0020347747
76	0x3d0dd0e4	0.03462304
77	0xbc2939a8	-0.010328688
78	0x3cb22630	0.021746725
79	0x3d12de73	0.035856675
80	0x3d0caac5	0.034342546
81	0x3d8f589c	0.06999323
82	0x3d491052	0.04908783
83	0x3c946cb0	0.018118232
84	0x3c8dce96	0.017310422
85	0x3dce5c8a	0.10076244
86	0xbc39b055	-0.011333545
87	0x3d86dc39	0.06584973
88	0x3d35f0d2	0.044419117
89	0xbd3a8532	-0.04553718
90	0x3d361156	0.044450127
91	0x3d8a78b9	0.06761307
92	0x3cd58785	0.026065597
93	0x3d54973a	0.051902033
94	0xbd124aaa	-0.035715736
95	0x3d1bd795	0.038047392
96	0xbb07887a	-0.0020680712
97	0xb9d431a5	-0.0004047278
98	0x3c23f001	0.010005952
99	0x3db001f5	0.08594123
100	0x3b48d4f3	0.0030644506
101	0x3c848a1a	0.016179133
102	0xbd546af3	-0.051859807
103	0x3d19f255	0.03758462
104	0x3d41a3b6	0.047275268
105	0x3d1286b5	0.035772998
106	0x3c3b972b	0.0114496155
107	0x3da15ac6	0.07878642
108	0xbbe9d4f0	-0.00713598
109	0x3da61af0	0.08110607
110	0xbbccbe76	-0.0062482907
111	0x3c4a176b	0.012334685
112	0x3c14a1f8	0.0090718195
113	0x3cc0a849	0.023517745
114	0x3d8953d8	0.06705445
115	0x3cecb6aa	0.028895695
116	0x3d3a872e	0.045539074
117	0xbc9d245d	-0.019182378
118	0xbca35eeb	-0.019942721
119	0xbbb58473	-0.005539471
120	0x3d9919ae	0.07475601
121	0x3ca754a1	0.020426096
122	0xbc6e6a55	-0.014551719
123	0xbc8faeb7	-0.017539365
124	0xbd5b591d	-0.053551782
125	0x3caf627f	0.021409271
126	0x3d47f54e	0.048817925
127	0xbcd751d8	-0.026284143
128	0x3d3475b1	0.04405755
129	0x3d5c201a	0.053741552
130	0x3d38706d	0.045029093
131	0xbc791a91	-0.015204088
132	0x3d2b4729	0.04181591
133	0x3d1fdf5a	0.039031364
134	0x3cfcc50d	0.03085568
135	0x3cca3f14	0.024688281
136	0xbb350339	-0.002762033
137	0xbd604cdd	-0.054760803
138	0x3cd883e0	0.02643007
139	0x3b962015	0.004581461
140	0x3c3b4203	0.011429313
141	0x3d0aac0c	0.033855483
142	0x3cf30b37	0.029668434
143	0x3ca0360e	0.019557025
144	0xb92c6347	-0.00016440182
145	0xbca03a89	-0.019559162
146	0x3be7d369	0.0070747626
147	0x3d4f3978	0.050591916
148	0x3c346f80	0.011012912
149	0x3ccb5f68	0.024825767
150	0x3d24397d	0.040093888
151	0xbccb6991	-0.024830611
152	0x3c6c3887	0.014417774
153	0xbc2fe427	-0.010735548
154	0x3c9a3f5e	0.018829044
155	0x3c7fbec8	0.015609451
156	0x3d27128c	0.040789172
157	0xbab21d02	-0.0013588967
158	0x3da7df8c	0.08196935
159	0xbb1a11fd	-0.0023509257
160	0x3d00f427	0.03148284
161	0x3aecb51f	0.0018059349
162	0x3cad793c	0.021175973
163	0xbbdb3c8c	-0.0066905674
164	0x3d7478a5	0.059685368
165	0x3d8862e0	0.06659484
166	0x3c138790	0.009004489
167	0x3d083757	0.0332559
168	0xbc4a6d69	-0.012355187
169	0x3b48ba47	0.0030628608
170	0x3bd641ac	0.0065385904
171	0xbb748ef6	-0.0037316657
172	0x3d3fe9d9	0.046853874
173	0xbc8f46a1	-0.017489733
174	0x3b52a20b	0.0032140042
175	0xbd1ba9a8	-0.038003594
176	0x3d315786	0.04329636
177	0x3cff47c1	0.031162145
178	0x3c14bb5c	0.009077873
179	0x3d283c19	0.04107294
180	0xbc58f556	-0.013242086
181	0x3ca444d5	0.020052353
182	0xbc5d9be7	-0.01352594
183	0xbbf57d63	-0.007491754
184	0xbd2b3bda	-0.041805126
185	0xbbe19b27	-0.0068849507
186	0x3ca6aa0c	0.020344757
187	0x3cc69830	0.02424249
188	0x3c9fb849	0.019497054
189	0x3aaab6b6	0.0013024423
190	0xbce2f944	-0.02770675
191	0x3da978a9	0.08274967
192	0xbcd6bf3b	-0.026214233
193	0x3c98466b	0.018588265
194	0x3c5674ae	0.013089342
195	0x3b3c422b	0.0028725963
196	0x3b200af5	0.0024420593
197	0x3a7982e4	0.00095181004
198	0xbd0640ab	-0.032776516
199	0x3be76009	0.007061009
200	0xbd12e378	-0.035861462
201	0xbc90065f	-0.017581163
202	0xbca90e89	-0.020636814
203	0xbc24b44f	-0.010052755
204	0x3c8af2b5	0.016961435
205	0x3bc9e471	0.0061612655
206	0xbaea738c	-0.0017887219
207	0xbce0c3c1	-0.027437093
208	0xbc946ade	-0.018117364
209	0xbb4e43c7	-0.0031473504
210	0x3c9c845e	0.019106086
211	0xbc4c9b02	-0.012488129
212	0xbcbad0dd	-0.022804672
213	0xbc923917	-0.017849488
214	0xbd07c08a	-0.033142604
215	0xbc9a37a5	-0.018825362
216	0xbc01254d	-0.007882428
217	0xbcbc0856	-0.022953194
218	0x3c94c61b	0.01816087
219	0xbc169573	-0.009190905
220	0xbc8e19bb	-0.017346254
221	0xbcd5a339	-0.026078807
222	0x3c0df9d3	0.00866552
223	0x3c305fc1	0.010765017
224	0x3ce27e4f	0.02764812
225	0xbce34b9b	-0.027746012
226	0xbd6ec86d	-0.05829661
227	0xbd1fea16	-0.0390416
228	0xbcbde6f7	-0.023181422
229	0xbd140fc9	-0.036147866
230	0x3c6d4839	0.014482551
231	0x3cf69453	0.030100023
232	0xba66a215	-0.0008797956
233	0x3d6097bb	0.0548322
234	0x3cd9a4dd	0.02656787
235	0xbb2ef93f	-0.0026698855
236	0x3ca602f3	0.020265078
237	0x3d1912e8	0.037371546
238	0x3c8886cc	0.016665839
239	0xbc8064fb	-0.015673151
240	0x3d2b95d6	0.04189094
241	0xbc1b7be0	-0.009489983
242	0x3d59c23b	0.05316375
243	0x3ce2e843	0.027698642
244	0x3b8cd9fb	0.0042984462
245	0x3ba95a5b	0.005168242
246	0x3acbaa29	0.0015538383
247	0x3b679926	0.0035339086
248	0xbb16861f	-0.0022968126
249	0x3b12322f	0.0022307744
250	0xbad72487	-0.0016414084
251	0xbaa8726e	-0.0012851486
252	0xbce0685d	-0.027393514
253	0x3bec93a7	0.00721975
254	0xbc7d4203	-0.015457633
255	0x3bf8cd60	0.007592842

var_embedding.0.weight f4 [64, 1]
0	0xbda6ee6e	-0.081509456
1	0xbcb5a485	-0.022173176
2	0xbcd42895	-0.025898257
3	0xbc7febdd	-0.015620199
4	0x3e231940	0.15927601
5	0x3e33427c	0.1750583
6	0xbb957bb1	-0.0045618643
7	0xbd16824c	-0.036745355
8	0x3e33728d	0.17524166
9	0x3e0f8c8c	0.14018458
10	0xbd48088b	-0.048836272
11	0x3e045c9c	0.12925953
12	0xbc6b5a59	-0.014364802
13	0x3e29ec7d	0.1659412
14	0xbcb20ef1	-0.02173564
15	0x3e470d67	0.19438706
16	0x3e01f038	0.12689292
17	0xbd357bfb	-0.04430769
18	0xbbac0f03	-0.005250813
19	0xbd0f9637	-0.035055365
20	0xbae025a4	-0.0017101062
21	0xbd04eeb0	-0.032454193
22	0xbcaad047	-0.020851268
23	0x3e020d66	0.12700424
24	0xba474848	-0.00076020183
25	0x3e0fd9b0	0.14047885
26	0x3e338bf4	0.17533857
27	0x3e273c34	0.1633156
28	0xbcb2274a	-0.02174725
29	0x3e15a32e	0.1461303
30	0x3e1a459c	0.15065616
31	0x3e034580	0.12819481
32	0xbdb92a92	-0.09041323
33	0xbaee85d1	-0.0018197839
34	0x3e126277	0.14295374
35	0xbb9dd641	-0.004816801
36	0xbc89c8f5	-0.016819457
37	0xbbb60cd0	-0.0055557266
38	0x3e04219c	0.12903446
39	0x3e10df39	0.14147653
40	0x3e092cb5	0.1339596
41	0x3e085a96	0.13315806
42	0x3e332cce	0.1749756
43	0x3e1d49d9	0.15360202
44	0x3e304235	0.17212756
45	0x3e07013c	0.13184065
46	0xbb8aca5b	-0.0042355484
47	0xbd2c3f80	-0.042052746
48	0xbce8afd7	-0.02840416
49	0x3e084fc9	0.13311686
50	0x3e29ca3b	0.16581051
51	0xbd04e938	-0.032448977
52	0xbcb3103e	-0.02185833
53	0xbd3cdcfe	-0.046109192
54	0x3e21ca3f	0.15799807
55	0xbd27e2e2	-0.040987857
56	0x3e2ad3cb	0.16682355
57	0x3e20fd92	0.1572173
58	0x3e3be5d0	0.18349385
59	0x3e196625	0.14980371
60	0xbc5e2bdd	-0.0135602625
61	0xbb50623a	-0.003179683
62	0xbd0f8efd	-0.035048474
63	0xbcb8b0f6	-0.022545319

var_embedding.2.weight f4 [64, 64]
0	0x3cc5839a	0.024110604
1	0xbc947c5d	-0.018125707
2	0x3cabcf0f	0.020972757
3	0x3c699c3f	0.014258443
4	0x3df89d48	0.12139374
5	0x3e1e4328	0.15455306
6	0x3c4dea93	0.012568134
7	0xbd1a795c	-0.037713394
8	0x3e1a175f	0.15047978
9	0x3e15abbd	0.14616294
10	0x3b538400	0.0032274723
11	0x3dd61f3a	0.10455175
12	0x3ca192b3	0.019723272
13	0x3daf9444	0.08573201
14	0xbcf0a51a	-0.029375602
15	0x3dd96f44	0.10616925
16	0x3e01f716	0.12691912
17	0xbba73764	-0.0051030386
18	0x3cee76e2	0.029109422
19	0xbcdbb4ea	-0.026819665
20	0xbce07478	-0.027399287
21	0xbcc89364	-0.024484344
22	0x3c7b240b	0.0153284175
23	0x3db0bce1	0.08629776
24	0x3cb97e24	0.022643156
25	0x3e2c4ecf	0.16826938
26	0x3de81b30	0.113333106
27	0x3de7b355	0.11313502
28	0x3bb36894	0.005475113
29	0x3e06a15e	0.13147494
30	0x3e03a349	0.12855257
31	0x3e250288	0.16114247
32	0x3cb94cbd	0.0226196
33	0xbccd3542	-0.02504981
34	0x3e07d0a1	0.1326318
35	0x3d3f61a5	0.04672398
36	0x3d233c03	0.039852154
37	0x3af253d8	0.0018488122
38	0x3dfe44ce	0.12415467
39	0x3db7c615	0.08973328
40	0x3dfcf807	0.12351995
41	0x3dcd10c2	0.10012962
42	0x3e0dd06a	0.13849035
43	0x3e128189	0.14307226
44	0x3e2d7b4c	0.16941565
45	0x3d96987e	0.07353304
46	0xbc4da2ff	-0.012551068
47	0x3bb5a862	0.0055437544
48	0xbbc6de3f	-0.0060689743
49	0x3e15e11c	0.14636654
50	0x3dc7c0d6	0.097535774
51	0xbcafdac7	-0.021466626
52	0x3c48ddbb	0.012259896
53	0xbc421f8b	-0.011848341
54	0x3de9bba0	0.1141274
55	0x3cd919d7	0.02650158
56	0x3db6fcf2	0.08934964
57	0x3dd87edf	0.10571074
58	0x3e1c258f	0.15248702
59	0x3e23db47	0.16001616
60	0xbbcb97c0	-0.0062131584
61	0xbd091657	-0.03346857
62	0xbca8f12f	-0.020622818
63	0x3ace6a1d	0.0015748177
64	0x3cfd005f	0.030883966
65	0xbca57ec0	-0.02020204
66	0xbcb99ddf	-0.022658287
67	0xbce95790	-0.028484136
68	0x3c4dd973	0.012564051
69	0xbc903b5b	-0.017606428
70	0x3d57649f	0.052586194
71	0xbb95b5f3	-0.004568809
72	0xbc8a5e23	-0.016890591
73	0xbb6cbaf5	-0.0036122177
74	0xbc45d75c	-0.012075271
75	0xbba31ddb	-0.0049779243
76	0x3cbe92a9	0.023263292
77	0x3c83b8e7	0.01607938
78	0x3cb23dab	0.021757921
79	0xbcc3cd90	-0.02390173
80	0xbc9fb893	-0.019497192
81	0x3d3fbf58	0.04681334
82	0xbc9e9927	-0.019360138
83	0x3c8c13c5	0.01709927
84	0x3cce2410	0.02516368
85	0x3d4a5c5d	0.04940449
86	0xbc3fdbfe	-0.011710165
87	0xbc340b40	-0.01098901
88	0xbca4497f	-0.020054577
89	0xbcfffad0	-0.031247526
90	0x3c910f7f	0.017707584
91	0xbd085d7b	-0.033292275
92	0x3bb479a3	0.0055076643
93	0xbca5291c	-0.020161204
94	0x3c3a6a0e	0.0113778245
95	0xbc24471b	-0.0100267185
96	0xbc475b23	-0.012167725
97	0x3c6d9edb	0.014503206
98	0xbb3fe8be	-0.0029283012
99	0x3d082393	0.03323705
100	0xbd272fcf	-0.04081708
101	0xbd810c4b	-0.06301173
102	0xbbfe4a72	-0.0077603394
103	0x3c308147	0.01077301
104	0x3b0a2c0b	0.002108338
105	0x3cbb0740	0.022830606
106	0xbd8373af	-0.06418549
107	0x3c587028	0.013210334
108	0x3c44bad3	0.012007433
109	0xbc923fc2	-0.017852668
110	0x3c9da563	0.019243902
111	0xbc8e94dd	-0.017404968
112	0xbd44f226	-0.048082493
113	0xbcf8a060	-0.03034991
114	0xbc61ab22	-0.013773711
115	0xbc674b30	-0.014117047
116	0x3b4443a4	0.0029947544
117	0xbd417b3b	-0.047236662
118	0x3c0e2933	0.008676815
119	0xbca9998f	-0.020703105
120	0x3d277be6	0.040889643
121	0xbc5c1657	-0.013433061
122	0x3bf402c0	0.007446617
123	0x3cce563b	0.025187602
124	0xbce2f4f3	-0.027704692
125	0xbd3f6532	-0.046727367
126	0xbc49f061	-0.012325377
127	0xbd4194b0	-0.04726094
128	0x3d5f2e0b	0.05448727
129	0xbd13a28f	-0.0360437
130	0x3d1f2b82	0.03885985
131	0x3ce44ab8	0.02786766
132	0x3e2a17bb	0.16610615
133	0x3e063d66	0.13109359
134	0x3b5d94d3	0.003381063
135	0x3c797aad	0.015227002
136	0x3e141e31	0.14464642
137	0x3e122b95	0.14274438
138	0xbc9f353b	-0.019434562
139	0x3e0c1e1d	0.13683362
140	0x3c3260a8	0.010887302
141	0x3e34348e	0.17598173
142	0x3c938fc5	0.01801289
143	0x3e05027e	0.12989232
144	0x3dede207	0.11615377
145	0xbb6adb82	-0.0035836403
146	0x3ce8b7bb	0.028407922
147	0xbc3ca02f	-0.0115128
148	0xbb184caa	-0.0023239055
149	0xbb9b9567	-0.0047480348
150	0xbc91f6e3	-0.01781792
151	0x3e0a9b4e	0.13535807
152	0xbc8240de	-0.015900072
153	0x3dd772dc	0.105199546
154	0x3d812570	0.06305969
155	0x3e10807b	0.14111511
156	0x3c90fe21	0.017699303
157	0x3e15ce44	0.14629465
158	0x3e07d0f0	0.13263297
159	0x3e185ebb	0.14879887
160	0x3c998853	0.018741762
161	0x3ce2e733	0.027698135
162	0x3e0c97d1	0.13729788
163	0xbb74ab0f	-0.0037333404
164	0xbc9151b1	-0.017739149
165	0x3d1d55b0	0.038411796
166	0x3e1839e1	0.14865829
167	0x3de7f647	0.113262706
168	0x3dbf8df7	0.093532495
169	0x3d9430c9	0.072358675
170	0x3e050bbd	0.12992759
171	0x3dc4168e	0.095746145
172	0x3e00a1e8	0.12561762
173	0x3dcb0247	0.09912544
174	0xbadd1fca	-0.0016870436
175	0xba6762c7	-0.00088266697
176	0xbd7fda88	-0.062464267
177	0x3e22b001	0.15887453
178	0x3e0e0324	0.13868386
179	0xbc10a04d	-0.008827281
180	0xbcda0c65	-0.026617238
181	0xbd09fe53	-0.033689808
182	0x3dd9057e	0.10596751
183	0xb913fd99	-0.00014113485
184	0x3dca4e67	0.09878235
185	0x3dc11f4b	0.09429797
186	0x3e00b6a9	0.1256968
187	0x3d4ebee3	0.050475013
188	0x3c4efde3	0.0126337735
189	0x3ce82b5d	0.02834099
190	0xbd2de77e	-0.042457096
191	0x3d0a0dc5	0.033704538
192	0x3ce9e262	0.02855033
193	0x3d23ae93	0.03996141
194	0x3c3ec9bf	0.01164478
195	0xbc826813	-0.015918767
196	0x3dccf1dd	0.10007069
197	0x3e07f628	0.13277495
198	0xbd09539c	-0.033527
199	0x3d144cf6	0.03620621
200	0x3db0783c	0.08616683
201	0x3e14a542	0.14516166
202	0xbce24683	-0.027621513
203	0x3dc4e9b2	0.09614886
204	0xbbd3b447	-0.0064606997
205	0x3df5085c	0.11964485
206	0x3c94f327	0.01818235
207	0x3e06a9d8	0.13150728
208	0x3e063529	0.13106216
209	0xbc133a33	-0.008986044
210	0xbcd3c06f	-0.025848595
211	0x3c9e7ea6	0.0193475
212	0x3d24f483	0.040272247
213	0x3ba6918c	0.0050832685
214	0x3bf0e5c2	0.007351608
215	0x3dc3139f	0.09525227
216	0x3b2a67aa	0.002600173
217	0x3e0a1de6	0.13487968
218	0x3dfdcf3f	0.12393045
219	0x3da2a15d	0.07940934
220	0x3c2ddc08	0.010611542
221	0x3df75bdb	0.12078067
222	0x3db51815	0.08842484
223	0x3d77f6dc	0.060538158
224	0x3c01d937	0.007925323
225	0x3bc92f8d	0.0061397017
226	0x3de98786	0.11402802
227	0x3bce8c97	0.0063033807
228	0x3d058b0a	0.0326033
229	0xbc03d853	-0.008047181
230	0x3de2fb84	0.11083129
231	0x3dddb7a1	0.1082604
232	0x3e15e6c7	0.14638816
233	0x3dfe8d29	0.12429268
234	0x3d96f87e	0.07371615
235	0x3df9ba71	0.12193764
236	0x3df41762	0.119185224
237	0x3dcaa88c	0.09895429
238	0x3bf44f4b	0.0074557415
239	0x3ce5cda8	0.028052166
240	0x3b5760ab	0.0032864015
241	0x3debb937	0.11509936
242	0x3e1f548d	0.15559597
243	0xba51fb07	-0.0008010123
244	0x3d098157	0.033570614
245	0x3bbe2077	0.00580221
246	0x3dc74db7	0.0973162
247	0x3c4fbf42	0.012679877
248	0x3dd85848	0.10563713
249	0x3dfcb18c	0.12338552
250	0x3daa5030	0.08316076
251	0x3dbbbb11	0.091665395
252	0x3c52dc30	0.01286988
253	0x3c36daff	0.011160611
254	0x3be3144b	0.0069299093
255	0x3bfdc8ba	0.0077448757

conv_v_to_c.feature_module_left.0.weight f4 [64, 64]
0	0x39470636	0.00018980433
1	0x3cae09fb	0.021244993
2	0xbcb06c6c	-0.021536075
3	0x3d640d69	0.05567685
4	0xbbb00652	-0.005371847
5	0x3db63ea2	0.08898665
6	0x3d52b7cd	0.051444817
7	0x3d0f9906	0.035058044
8	0x3d36b8d4	0.04460986
9	0x3c45456f	0.01204048
10	0x3c62adc0	0.013835371
11	0x3bccf6c2	0.0062550018
12	0xbc002f99	-0.007823848
13	0xbc4e842f	-0.012604757
14	0xba62651b	-0.0008636282
15	0x3d9537df	0.07286047
16	0x3c913404	0.017724998
17	0x3d2436b3	0.040091228
18	0xbc9a5cff	-0.018843172
19	0x3c3af4a1	0.011410863
20	0x3cabea2c	0.020985685
21	0xbb60b551	-0.003428776
22	0xbcdd2a03	-0.026997572
23	0x3d9932a1	0.0748036
24	0x3ca1122d	0.019661987
25	0xb9877141	-0.00025833587
26	0x3b85bb2b	0.00408115
27	0x3cf4b8c3	0.029873258
28	0x3d184ce5	0.037182707
29	0x3cd22b40	0.025655389
30	0x3d2a28d5	0.041542847
31	0x3cb93795	0.022609511
32	0x3c871704	0.016490467
33	0x3d0c78eb	0.034295004
34	0xbc66a4bd	-0.014077363
35	0xbb1fd193	-0.002438639
36	0x3d2af887	0.04174092
37	0x3d3005bd	0.042974222
38	0xbd2f2e56	-0.0427688
39	0x3c22a6db	0.009927477
40	0x3c8173f1	0.015802355
41	0xbc925855	-0.017864386
42	0x3d07b303	0.033129703
43	0x3d353d2f	0.044247802
44	0x3d211812	0.039329596
45	0xbcb1cde6	-0.021704625
46	0xbca2dfa8	-0.019882038
47	0xba340cdf	-0.0006868373
48	0x3ba44988	0.0050136484
49	0x3cb5f416	0.022211116
50	0x3c3a0a8b	0.011355053
51	0xbc7f5c5f	-0.015585988
52	0xbdacb5c3	-0.08433106
53	0x3cbe662a	0.023242075
54	0xbc4c3f44	-0.012466256
55	0xbce0fa5f	-0.027463136
56	0x3c1368e6	0.008997178
57	0x3c85e756	0.016345661
58	0xbbce57c3	-0.006297083
59	0xbd57d470	-0.05269283
60	0x3b0b7795	0.0021280993
61	0x3d0bf75a	0.03417144
62	0xbd12aa57	-0.03580698
63	0x3a11f933	0.00055684446
64	0x3ca89fa4	0.020583935
65	0x3caf013a	0.02136289
66	0x3c93b39c	0.01802998
67	0x3d19aeb3	0.03752012
68	0xbb789dd5	-0.0037935872
69	0x3c19cccc	0.009387206
70	0xbca80948	-0.020512238
71	0x3c88c11f	0.01669365
72	0x3c1eb854	0.009687502
73	0xb9933263	-0.00028075566
74	0x3ca4a4cc	0.020098113
75	0xbbe52c13	-0.0069937794
76	0xbc4464bb	-0.011986907
77	0x3becb762	0.0072240094
78	0x3ccd4070	0.02505514
79	0x3cf35675	0.029704312
80	0xbb04a7da	-0.002024165
81	0x3c36b680	0.01115191
82	0xbce1e813	-0.027576482
83	0xbcd80fc2	-0.026374701
84	0x3cafb0f0	0.021446675
85	0x3ca347ff	0.019931791
86	0x3ba35f50	0.0049857274
87	0xbb8edbb8	-0.0043596886
88	0xbbb8d317	-0.0056403982
89	0x3c93c1db	0.018036773
90	0x3d4307f8	0.04761502
91	0xbcb32643	-0.02186883
92	0x3d8a8d57	0.0676524
93	0x3d1aa1bb	0.037751894
94	0x3b6d7093	0.003623043
95	0x3d2c48b6	0.04206153
96	0x3b66ddbb	0.0035227377
97	0xbc45b49b	-0.0120669855
98	0x3ce47f27	0.027892662
99	0x3ce1a07b	0.027542343
100	0x3d932d04	0.071863204
101	0xbb836f19	-0.0040110466
102	0x3cd63377	0.026147587
103	0xbc8a2fc4	-0.01686848
104	0x3cd3e420	0.025865614
105	0x3d8709c6	0.06593661
106	0xbcbd2faf	-0.023094026
107	0x3d695fc9	0.056976113
108	0xbc93dbaf	-0.01804909
109	0x3c9cb70c	0.019130252
110	0xbd30d347	-0.04317024
111	0x3c36a32c	0.011147302
112	0x3c822e5e	0.01589125
113	0x3ce3d3f7	0.027811034
114	0x3c33f647	0.01098401
115	0x3d4996a2	0.04921592
116	0x3cdf0177	0.027222378
117	0x3cc60301	0.024171354
118	0xbd5e0efb	-0.054213505
119	0x3c3471ba	0.011013443
120	0xbce4aa83	-0.027913338
121	0x3cc42ac3	0.023946172
122	0xbd0923d5	-0.033481438
123	0xbc8e9fec	-0.017410241
124	0x3ce47587	0.027888073
125	0xbc138cd7	-0.009005747
126	0x3bfaf5e2	0.007658706
127	0x3d16dd33	0.036832046
128	0x3d0881a2	0.033326752
129	0xbd6ec535	-0.05829354
130	0x3cec2dad	0.028830374
131	0xba656e06	-0.00087520515
132	0x3bd78baf	0.006577931
133	0x3d6f0bec	0.05836098
134	0x3d66e13b	0.05636714
135	0xbcc79417	-0.024362607
136	0x3d35a45d	0.044346202
137	0x3bab672b	0.0052308044
138	0xbce151c4	-0.02750481
139	0xba4f9562	-0.0007918683
140	0x3c1de62a	0.009637395
141	0x3b4afa1b	0.0030971828
142	0x3a4aced8	0.00077365106
143	0xba2e8545	-0.0006657432
144	0xbac48862	-0.0014994259
145	0xbc14e439	-0.009087616
146	0xbc890b8a	-0.016729135
147	0xbd0b52a9	-0.034014378
148	0x3d7150d0	0.05891496
149	0xbc9fe23b	-0.019517055
150	0x3ce41835	0.027843574
151	0x380d2acb	3.3656874e-05
152	0xbbd83934	-0.006598616
153	0xbc635f3f	-0.013877689
154	0x3ca168ff	0.019703386
155	0xba63b4d5	-0.0008686309
156	0xbbe93d10	-0.007117875
157	0xbc778677	-0.0151077425
158	0x3d3690c9	0.04457167
159	0x3d784be5	0.060619254
160	0xbd0ef49e	-0.034901254
161	0xbd48c99b	-0.04902039
162	0x3cc8daaa	0.02451833
163	0xbd8165a1	-0.06318212
164	0x3d40e2fa	0.04709146
165	0xbc8620e8	-0.016373113
166	0x3cbb50ed	0.022865737
167	0x3cd26d40	0.02568686
168	0xbd09acab	-0.033611935
169	0xbc5ae581	-0.013360382
170	0xbc67e117	-0.014152787
171	0x3d77788e	0.060417704
172	0xbd0d0f31	-0.034438316
173	0x3cd6e1eb	0.026230773
174	0x3d28414e	0.041077904
175	0xbc86469a	-0.016391087
176	0xbd285ba7	-0.04110303
177	0x3c745f97	0.0149153685
178	0x3cfe8797	0.031070514
179	0xbcb131b7	-0.021630151
180	0xba259b2f	-0.00063173746
181	0x3c1d78ef	0.009611352
182	0xbc35f430	-0.011105582
183	0x3d341cc0	0.04397273
184	0xbb09c61b	-0.002102262
185	0x3bcc537b	0.0062355376
186	0xbc672868	-0.014108755
187	0xbc857b52	-0.016294155
188	0x3d353abc	0.044245467
189	0x3d46b9b8	0.04851696
190	0xbc9f57ae	-0.019450989
191	0x3d292736	0.04129716
192	0x3d504620	0.050848126
193	0x3cfe9528	0.031076983
194	0x3d5ae434	0.053440288
195	0x3d9989dd	0.074969985
196	0xbcc2048f	-0.023683814
197	0x3d87b0cf	0.066255204
198	0x3d2ed864	0.042686835
199	0x3ca120b8	0.019668922
200	0x3db3e0d2	0.087831154
201	0x3d0cd614	0.03438385
202	0x3d28db28	0.04122463
203	0xbb7b9ed7	-0.0038394236
204	0x3d4ffb06	0.050776504
205	0xbc865b90	-0.016401082
206	0x3b81c2cf	0.0039599906
207	0xbbe5acea	-0.0070091384
208	0xba13cbff	-0.0005638003
209	0x3ce4d60c	0.027934097
210	0x3be8b535	0.0071016797
211	0x3c059977	0.008154265
212	0x3dab73de	0.08371709
213	0x3c057611	0.008145825
214	0xbcef8f89	-0.029243248
215	0xbcf1a4f0	-0.029497594
216	0x3d92e078	0.0717172
217	0xbce85b90	-0.028363973
218	0x3d8b61f2	0.06805791
219	0x3cb3efcb	0.021964928
220	0x3db52ed9	0.08846826
221	0x3d046baa	0.03232924
222	0x3d4003ec	0.04687874
223	0x3d3bad6c	0.045819685
224	0x3d030ddb	0.031995635
225	0xbd4f57f2	-0.05062098
226	0xbcf12358	-0.029435799
227	0x3a057424	0.00050908537
228	0x3d9f12dd	0.0776727
229	0x3debc754	0.11512628
230	0xbd124e97	-0.03571948
231	0xbc710565	-0.014710759
232	0x3b17b33d	0.0023147606
233	0x3d8b5dfb	0.06805035
234	0xbce8541a	-0.028360415
235	0x3d21d008	0.039505035
236	0xbd07b6ff	-0.033133503
237	0x3d24c272	0.0402245
238	0x3d049a17	0.032373514
239	0x3b545777	0.0032400766
240	0xbca769b7	-0.020436151
241	0x3d06795f	0.032830592
242	0x3d99fb2d	0.07518611
243	0x3d77f632	0.060537525
244	0xbc4b3efd	-0.012405154
245	0x3d1bd91f	0.03804886
246	0x3cbd1da5	0.023085425
247	0x3cd041f3	0.025422072
248	0x3d8e7124	0.069551736
249	0xbb84b46e	-0.004049829
250	0xba843754	-0.001008729
251	0x3c127421	0.00893882
252	0x3d68764b	0.056753438
253	0x3d654575	0.055974443
254	0xbbd1e1ff	-0.0064051147
255	0x3d6c31c6	0.057664655

conv_v_to_c.feature_module_left.0.bias f4 [64]
0	0x3a92a9a3	0.0011189472
1	0xbc953adf	-0.018216548
2	0x3d6e727e	0.058214657
3	0x3c84731d	0.016168172
4	0xbd9f8a9b	-0.07790109
5	0x3d9b8f8b	0.07595738
6	0xbdb61967	-0.08891564
7	0x3cb7fd01	0.022459509
8	0xbd96b92c	-0.073595375
9	0xbd828100	-0.06372261
10	0xbd0e6ddc	-0.03477274
11	0xbe0284a2	-0.12745908
12	0x3d91c83f	0.07118272
13	0xbc992922	-0.018696371
14	0xbdd39851	-0.103317864
15	0xbd92e8a8	-0.07173282
16	0xbdc40c15	-0.09572617
17	0xbd853416	-0.06504075
18	0xbdd1d299	-0.102452464
19	0xbc0be938	-0.00853949
20	0xbda43dd2	-0.08019604
21	0xbd2da842	-0.04239679
22	0x3d3b2e18	0.045698255
23	0xbcc7e157	-0.024399443
24	0x3def14f2	0.11673917
25	0xbdd89377	-0.10575002
26	0x3d8c61b3	0.06854572
27	0xbdfb9cf3	-0.12285795
28	0x3d2dc406	0.04242327
29	0xbd060b16	-0.032725416
30	0xbcf88d3a	-0.03034078
31	0x39483f38	0.00019097037
32	0xbd6f64ac	-0.058445618
33	0xbd045d0b	-0.032315295
34	0xbd70de7e	-0.058805935
35	0x3d93744f	0.071999185
36	0xbbae8383	-0.005325736
37	0xbcd36ab7	-0.025807722
38	0x3ccd8141	0.025086047
39	0x3d6c873d	0.05774616
40	0xbc44b31a	-0.012005592
41	0xbdafa58a	-0.08576496
42	0x3d3024f3	0.043003988
43	0x3c1643d4	0.009171445
44	0xbdaa0e58	-0.08303517
45	0x3cdf456b	0.02725478
46	0x3d5599be	0.052148573
47	0x3d4c1b1c	0.04983054
48	0xbd44736e	-0.047961645
49	0x3d9b1cbe	0.075738415
50	0x3d74b04e	0.05973845
51	0x3d781db6	0.06057521
52	0x3df1309a	0.11776848
53	0xbdd33985	-0.10313705
54	0x3d916dbb	0.071010076
55	0x3c4992fa	0.012303108
56	0x3c124963	0.00892863
57	0xbcaf2570	-0.021380156
58	0xbe2f83c9	-0.17140116
59	0x3dbe53dc	0.09293339
60	0x3d90ba85	0.07066826
61	0xbdea3dfd	-0.114376046
62	0x3d55524b	0.052080434
63	0xbd3f9eec	-0.04678242

conv_v_to_c.feature_module_edge.0.weight f4 [64, 1]
0	0x3d9905b4	0.07471791
1	0x3cf241e9	0.029572444
2	0x3cd5d7e3	0.02610392
3	0x3a932602	0.0011226537
4	0xbccc48ef	-0.024937121
5	0xbd4b38c1	-0.04961467
6	0x3c915ecb	0.017745396
7	0xbc3e6de5	-0.011622881
8	0xbcc9fe81	-0.02465749
9	0xbb505d9c	-0.0031794077
10	0x3d93101b	0.07180806
11	0xbd5a669f	-0.053320523
12	0x3dcc34dd	0.0997102
13	0x3d962a16	0.07332246
14	0xbce12f69	-0.027488427
15	0x3d31f539	0.043446753
16	0x3cbafc73	0.022825455
17	0xbd087c50	-0.03332168
18	0x3b7c50bf	0.0038500277
19	0x3d835893	0.064133786
20	0x3c79efac	0.015254896
21	0x3cc339c9	0.023831265
22	0x3d0b411a	0.033997633
23	0xbd293158	-0.041306823
24	0x3ccddedb	0.02513068
25	0xbce1558c	-0.027506612
26	0xbc044144	-0.008072201
27	0xbb8e4197	-0.004341315
28	0xbc9a2edf	-0.018821178
29	0xbd186704	-0.03720762
30	0x3d73927a	0.059465863
31	0xbbfde9c3	-0.007748814
32	0xbd629268	-0.055315405
33	0xbd70167f	-0.058615204
34	0xbbea4ec4	-0.007150503
35	0xbc5d336b	-0.0135010285
36	0xbd4934b5	-0.04912253
37	0xbd2ff8a2	-0.042961724
38	0xbcaa151c	-0.020762019
39	0x3dc5672f	0.09638821
40	0x3b282eeb	0.002566273
41	0xba894527	-0.001047288
42	0xbd853f33	-0.06506195
43	0xbd0035bd	-0.03130125
44	0xbd2a29ac	-0.041543648
45	0xbd6bf145	-0.05760314
46	0xbc2bcfb4	-0.010486532
47	0xbd2b2986	-0.041787647
48	0xbd8a6f8a	-0.06759556
49	0x3d3f0a9a	0.04664097
50	0xbcf36856	-0.029712837
51	0x3d7899bb	0.060693484
52	0xbd197952	-0.037469216
53	0xbd94aadd	-0.07259152
54	0x3ba7465f	0.0051048244
55	0xbcb6c6ed	-0.022311652
56	0xbd7eeb25	-0.06223597
57	0x3cf54700	0.029941082
58	0x3d00cad8	0.031443447
59	0x3dc9aa68	0.098469555
60	0xbd359709	-0.04433349
61	0xbcda6081	-0.026657345
62	0xbd5dca91	-0.05414826
63	0x3c8c017b	0.01709055

conv_v_to_c.feature_module_edge.0.bias f4 [64]
0	0xbea3f291	-0.32021
1	0xbe449b5a	-0.19199887
2	0xbe95749d	-0.2919053
3	0xbf45c3d3	-0.7725193
4	0xbeb0c374	-0.3452412
5	0x3f4e0b38	0.8048587
6	0xbf1f9866	-0.62341917
7	0xbefabd5c	-0.48972595
8	0xbf3ac3e4	-0.72955155
9	0xbf47b731	-0.780139
10	0xbf1ade47	-0.6049542
11	0x3e8ca735	0.2747132
12	0x3f26d249	0.6516462
13	0x3e410f68	0.18853533
14	0x3e9019fe	0.2814483
15	0xbf296060	-0.6616268
16	0x3ee7ee53	0.45299014
17	0xbf74de6c	-0.9565189
18	0x3f66455a	0.8994957
19	0x3eec2758	0.46123767
20	0x3e660b27	0.22465192
21	0x3e2ea313	0.17054395
22	0xbecd8b40	-0.40145302
23	0xbf3bfa6d	-0.73428994
24	0xbf4ebd6c	-0.80757785
25	0xbf5937cd	-0.8485077
26	0xbf0f559e	-0.55990016
27	0x3f0e7ec9	0.5566221
28	0x3f2ee686	0.683205
29	0x3e984a34	0.29744112
30	0x3f56e857	0.8394827
31	0xbf0aa918	-0.54164267
32	0x3e1188ef	0.14212392
33	0x3ea4cd80	0.32188034
34	0xbf23955e	-0.6389979
35	0xbe908745	-0.28228202
36	0xbe348f3a	-0.17632762
37	0x3d885c26	0.06658201
38	0xbf4403cb	-0.7656829
39	0x3e91b813	0.2846075
40	0xbf4bc103	-0.7959139
41	0xbf265434	-0.64972234
42	0x3f3aa710	0.7291117
43	0xbf53fb07	-0.8280491
44	0xbf28b459	-0.6590019
45	0xbd87258c	-0.065989584
46	0xbf0c458d	-0.54793626
47	0x3e9800de	0.29688162
48	0xbf26e76f	-0.6519689
49	0x3f14ed9e	0.58175075
50	0xbea13b08	-0.3149035
51	0x3eb4bf2c	0.35302103
52	0xbe99304a	-0.29919654
53	0xbf37f752	-0.71861756
54	0xbe918a1b	-0.2842568
55	0x3d86e3bf	0.06586408
56	0x3f29f681	0.6639176
57	0x3df4ffb6	0.119628355
58	0x3ed17cc7	0.4091551
59	0x3ee4066f	0.44536158
60	0xbf192bf5	-0.598327
61	0x3e4d3bde	0.20042369
62	0x3c61402d	0.013748211
63	0x3f17c188	0.5927968

conv_v_to_c.feature_module_right.0.weight f4 [64, 64]
0	0x3c5714ff	0.013127564
1	0xbcc346bf	-0.023837445
2	0xbc21adde	-0.009868113
3	0x3d2a01f5	0.041505773
4	0xbcab41b1	-0.020905348
5	0x3d12dfd7	0.035858
6	0xbaa37d3b	-0.0012473235
7	0xbd203255	-0.0391105
8	0xbd087018	-0.033310026
9	0xbc264fcb	-0.01015086
10	0xbc1ab4c9	-0.009442517
11	0xbcbf4f0b	-0.02335312
12	0x3c0b2829	0.008493462
13	0xba8b01e3	-0.0010605421
14	0x3cd0968a	0.025462408
15	0x3cae3936	0.021267515
16	0xbb3674bc	-0.0027840575
17	0xbd022a03	-0.031778347
18	0xbce4b752	-0.027919445
19	0xbcb9e543	-0.022692328
20	0xbc0207ea	-0.007936457
21	0xbd6f2278	-0.05838248
22	0x3cd66bcf	0.026174454
23	0xbbd046d8	-0.0063561015
24	0x3d0a8a6a	0.03382341
25	0xbceb9fab	-0.028762659
26	0x3d1ff841	0.039055113
27	0xbd0dad17	-0.0345889
28	0x3ce1314d	0.027489329
29	0x3c00e7f9	0.007867807
30	0x3c511773	0.012761938
31	0x3a9912dd	0.0011678595
32	0xbb189069	-0.0023279435
33	0xbd0c01b1	-0.0341813
34	0xbc7202b5	-0.014771153
35	0x3b846aba	0.004041043
36	0x3c83cf03	0.016089922
37	0x3d1ae49e	0.037815683
38	0xbd3d27a5	-0.046180386
39	0x3c0af453	0.008481103
40	0x3c9e9c96	0.019361775
41	0xbd073d1e	-0.03301727
42	0xbc73b60d	-0.014874947
43	0x3ae00db8	0.0017093932
44	0xbcaa7e94	-0.02081231
45	0xbc3de9a9	-0.011591353
46	0xbc861d3f	-0.016371367
47	0xbcb0d493	-0.021585738
48	0xbc1a41c3	-0.009415093
49	0xbcc27116	-0.023735564
50	0xbcf64465	-0.03006191
51	0xbc5a7018	-0.013332389
52	0x3c852a85	0.016255626
53	0x3c808310	0.015687495
54	0xbd076137	-0.033051696
55	0xbcce8cdf	-0.025213657
56	0xbc4fe7ba	-0.012689525
57	0xbc3b93b0	-0.011448786
58	0x3c69ce4a	0.014270375
59	0xbb471190	-0.0030375458
60	0x3d491cbb	0.049099665
61	0xbd20c2b7	-0.039248195
62	0xbd4057a5	-0.046958584
63	0xbd01535d	-0.031573642
64	0x3b9f99ca	0.004870628
65	0xbb9ad54b	-0.0047251335
66	0xba7bd078	-0.00096059544
67	0x3cb14214	0.021637954
68	0x3c89099f	0.01672822
69	0xbc8debf6	-0.017324429
70	0x3cd085cd	0.025454426
71	0x3c6610ab	0.01404206
72	0x3b4d7e55	0.0031355817
73	0xba64b9d0	-0.0008725198
74	0x3cb60bda	0.022222448
75	0x3b08bfc6	0.002086626
76	0x3c414c9f	0.011798053
77	0x3cf37803	0.029720312
78	0xbc82eb09	-0.015981214
79	0xbd0b55b0	-0.034017265
80	0xbc06584f	-0.008199765
81	0xbd80365f	-0.062603705
82	0x3b3665c7	0.002783166
83	0xbc243f31	-0.010024832
84	0x3b827e77	0.003982361
85	0x3c40c005	0.011764531
86	0x3c8e6303	0.017381197
87	0x3ccdeafa	0.02513646
88	0x3c6f75a2	0.014615448
89	0xbd4242af	-0.047426876
90	0x3c569d60	0.013099045
91	0x3c59bbf2	0.013289439
92	0xbd29e015	-0.041473467
93	0x3c8b503e	0.017006036
94	0x3d01723e	0.03160309
95	0x3d07b7e9	0.033134375
96	0xbc750632	-0.01495509
97	0xbaf86dda	-0.0018953637
98	0xbd230b4b	-0.03980569
99	0x3c8cb2cf	0.017175106
100	0x3c0ae564	0.008477543
101	0xbc8f7f53	-0.017516768
102	0x3c1d670a	0.009607086
103	0xbc874ce1	-0.01651615
104	0xbbe00058	-0.0068359785
105	0xbbd6e5d8	-0.006558161
106	0x3c1c53af	0.009541436
107	0x3c9fa333	0.019487
108	0xbd293554	-0.041310623
109	0xbca0f8c8	-0.019649878
110	0xba964c7f	-0.0011466889
111	0xbd1ca5d3	-0.03824408
112	0x3c9b8ae3	0.018987125
113	0xbbbd18d3	-0.0057707815
114	0x3cc29331	0.023751827
115	0x3bc6ac5f	0.0060630287
116	0xbc9f48a0	-0.01944381
117	0xbbca9c9c	-0.00618322
118	0x3be8f38b	0.0071091107
119	0xbd39b7ce	-0.045341305
120	0xbcf94bc3	-0.030431634
121	0x39e455f7	0.00043551598
122	0x3d1fbce3	0.038998496
123	0x3c4af50f	0.012387528
124	0xbbda0e1d	-0.0066545145
125	0x3c0bb765	0.008527611
126	0x3d2d82df	0.042361137
127	0xbaf7024f	-0.0018845293
128	0x3d27e628	0.04099098
129	0xbb12192f	-0.0022292843
130	0x3b726997	0.0036989206
131	0x3a947e8b	0.0011329217
132	0xbce9b1c5	-0.02852715
133	0x3b288cff	0.0025718806
134	0xbcd74c23	-0.026281422
135	0xbcee0b6d	-0.029058183
136	0x3d9d7cbf	0.07689809
137	0x3b897cce	0.004195786
138	0xbb30c473	-0.0026972562
139	0xbc217a53	-0.0098558245
140	0xbb512137	-0.0031910667
141	0x3c4ccb7d	0.012499687
142	0x3b166963	0.0022951
143	0x3c4ab824	0.012373004
144	0x3d6f4140	0.058411837
145	0xbd266d7c	-0.040631756
146	0xbd787bfa	-0.06066511
147	0xbbf0242f	-0.007328532
148	0xbc182df9	-0.0092883045
149	0x3becc155	0.0072251954
150	0x3cfbdac0	0.030743957
151	0xbd0ec1e5	-0.03485288
152	0xbbeadcda	-0.007167441
153	0xbd370a3d	-0.0446875
154	0xbd05889d	-0.032600988
155	0xbbec3e3b	-0.007209567
156	0x3cc05758	0.023479149
157	0xbae78edd	-0.0017666478
158	0xbccebc83	-0.025236374
159	0x3d24e093	0.040253233
160	0xbcd185dd	-0.025576526
161	0x3d04b493	0.03239877
162	0x3b6b9f88	0.0035953242
163	0x3d3fb191	0.0468002
164	0xbcb03e8e	-0.021514203
165	0x3c5f9f77	0.013648859
166	0x3be76af8	0.007062312
167	0xbc94dd4a	-0.018171925
168	0x3cf2b7aa	0.029628593
169	0xb9c14398	-0.0003686219
170	0x3a8f730a	0.0010944318
171	0x3cc9104f	0.02454391
172	0x3cc51900	0.024059772
173	0xbcd53fd3	-0.02603141
174	0x3d0f55e7	0.034994032
175	0x3d555e03	0.05209161
176	0x3b8815de	0.0041529974
177	0xbc3ca573	-0.011514056
178	0xbb68f017	-0.0035543495
179	0x3cd7ebd3	0.026357567
180	0xbcc5a302	-0.02412558
181	0x3bcc3798	0.006232213
182	0x3cc85f9e	0.024459656
183	0xbc258575	-0.010102619
184	0xbae8515b	-0.0017724441
185	0xbd039d64	-0.03213252
186	0xbccff5d3	-0.025385773
187	0x3cbe0973	0.023197865
188	0xbc3596c8	-0.011083312
189	0x3be2ba20	0.0069191605
190	0x3bbe7e0b	0.0058133653
191	0x3d193435	0.037403304
192	0xbc9c45e1	-0.01907629
193	0x3c78fdc3	0.01519722
194	0x3d25b265	0.040453333
195	0xbcc91535	-0.024546245
196	0x3c351b1b	0.011053826
197	0x3d44cc4a	0.048046388
198	0xbc71741d	-0.014737156
199	0xbc70e32d	-0.0147026
200	0x3d0e09d4	0.03467734
201	0xbcb6c45a	-0.022310425
202	0x3b9f49d3	0.0048610955
203	0xbb1ee91b	-0.0024247828
204	0x3d218572	0.039433904
205	0xbd0fc0ef	-0.035096105
206	0x3c7e7a70	0.015532121
207	0x3b37cf7c	0.0028047254
208	0x3c590e68	0.013248064
209	0x3b8da372	0.0043224627
210	0x3bedae83	0.0072534694
211	0x3c7a6587	0.015282995
212	0xbd739ab5	-0.059473712
213	0x3be07c13	0.0068507283
214	0x3c52db92	0.012869732
215	0xbc9c2037	-0.01905833
216	0x3b5a0383	0.0033266253
217	0xbc3f9241	-0.0116925845
218	0xbd1f011b	-0.038819414
219	0xbd2c998b	-0.042138617
220	0x3887d3bd	6.476741e-05
221	0xbd2b6193	-0.0418411
222	0xbd3af5ed	-0.04564469
223	0xbd38f74d	-0.04515772
224	0xbcd91577	-0.026499493
225	0xbcc03e14	-0.023467101
226	0xbbd3d65b	-0.006464762
227	0x3b4277b8	0.0029673409
228	0x3d2a8101	0.041626934
229	0x398bd947	0.0002667403
230	0x3cc0424a	0.02346911
231	0xbcf646df	-0.03006309
232	0x3d787138	0.06065485
233	0x3d43c381	0.04779387
234	0xbcfee800	-0.031116486
235	0xbca981fa	-0.02069186
236	0x3d4ecc87	0.05048802
237	0xbd6c6845	-0.057716627
238	0x3b96c5ea	0.00460123
239	0xbb23b660	-0.002498053
240	0xbd40260b	-0.04691128
241	0x3b96095d	0.004578753
242	0x3d0b41ab	0.033998173
243	0x3c449310	0.011997953
244	0x3ca8e47b	0.02061676
245	0xbb3aa847	-0.0028481649
246	0xbcca74d1	-0.024713906
247	0x3c0ed017	0.008716605
248	0x3ce94a50	0.028477818
249	0xbc2e6849	-0.010644981
250	0x3cc848e0	0.024448812
251	0x3cb23b05	0.021756658
252	0xbca20e8f	-0.019782333
253	0x3d77c04f	0.060486134
254	0x3bfa2e52	0.0076349163
255	0xbc547c1b	-0.012969042

conv_v_to_c.feature_module_right.0.bias f4 [64]
0	0x3d87e284	0.06635001
1	0xbd48ea18	-0.049051374
2	0x3cb04050	0.021515042
3	0x3dc9d53c	0.09855124
4	0x3dfb340e	0.12265788
5	0xbd102004	-0.035186782
6	0xbcbeefc8	-0.023307696
7	0x3ddc2ef0	0.1075114
8	0xbc005940	-0.007833779
9	0xbde1209a	-0.109925464
10	0xbd3e6c60	-0.046490073
11	0xbd2a420c	-0.041566893
12	0xbc819258	-0.015816852
13	0x3d050e1c	0.03248416
14	0xbdff607e	-0.12469576
15	0x3df739f4	0.120716006
16	0xbc018630	-0.007905528
17	0x3b90cca0	0.0044189245
18	0x3de8ae16	0.11361329
19	0xbca8b388	-0.02059342
20	0xbd84a99a	-0.064776614
21	0x3bb04c60	0.0053801984
22	0x3d2d60d8	0.042328686
23	0x3d2851c4	0.041093603
24	0xbda3dffc	-0.08001706
25	0xbce35300	-0.027749538
26	0x3d392ca0	0.045208573
27	0x3dcffb52	0.101553574
28	0xbda70aca	-0.08156355
29	0x3d29fd24	0.04150118
30	0xbd570b3c	-0.05250095
31	0x3dbf9ece	0.093564615
32	0xbdb1020a	-0.08642967
33	0x3bbac9e0	0.005700335
34	0xbd7a0108	-0.06103614
35	0x3da82f60	0.08212161
36	0xbd359678	-0.04433295
37	0x3dd9ed1e	0.1064093
38	0x3dd38a42	0.10329105
39	0x3d119f44	0.03555228
40	0x3c1d3a20	0.009596378
41	0x3dc43446	0.09580283
42	0xbc408390	-0.011750117
43	0x3d5838d8	0.052788585
44	0x3d563c3c	0.052303538
45	0xbd91b890	-0.07115281
46	0xbd0ead30	-0.034833133
47	0xbdb2bc92	-0.08727373
48	0xbda8ed26	-0.082483575
49	0x3dba6018	0.0910036
50	0x3d63d920	0.05562699
51	0xbdf88a5e	-0.121357664
52	0x3d6f41c0	0.058412313
53	0x3c341ee0	0.010993689
54	0xbd918b7a	-0.07106681
55	0x3d5037d8	0.050834507
56	0xbdcd5d26	-0.10027532
57	0x3dd888de	0.1057298
58	0x3cb66e58	0.022269413
59	0x3c8083f8	0.015687928
60	0xbd8ea0da	-0.06964274
61	0xbddbb76a	-0.10728343
62	0xbbcd7440	-0.0062699616
63	0xbdc91310	-0.09818089

conv_v_to_c.feature_module_final.0.weight f4 [64]
0	0x3f800000	1.0
1	0x3f800000	1.0
2	0x3f800000	1.0
3	0x3f800000	1.0
4	0x3f800000	1.0
5	0x3f7e4e6d	0.9933842
6	0x3f800000	1.0
7	0x3f800000	1.0
8	0x3f800000	1.0
9	0x3f800000	1.0
10	0x3f800000	1.0
11	0x3f8068f1	1.0032026
12	0x3f80f067	1.0073365
13	0x3f877056	1.0581157
14	0x3f80d8aa	1.0066121
15	0x3f800000	1.0
16	0x3f7cb9c8	0.9872098
17	0x3f800000	1.0
18	0x3f7b92a6	0.9827064
19	0x3f82f623	1.0231365
20	0x3f84e5c5	1.038262
21	0x3f86f4d0	1.0543461
22	0x3f800000	1.0
23	0x3f800000	1.0
24	0x3f800000	1.0
25	0x3f800000	1.0
26	0x3f800000	1.0
27	0x3f7d1a19	0.98867947
28	0x3f7e4b4d	0.9933365
29	0x3f80b75b	1.0055956
30	0x3f7d3eb5	0.9892381
31	0x3f800000	1.0
32	0x3f82c2e1	1.0215722
33	0x3f80b58e	1.0055406
34	0x3f800000	1.0
35	0x3f800000	1.0
36	0x3f800000	1.0
37	0x3f83d044	1.0297933
38	0x3f800000	1.0
39	0x3f8092cf	1.0044802
40	0x3f800000	1.0
41	0x3f800000	1.0
42	0x3f7d9523	0.9905569
43	0x3f800000	1.0
44	0x3f800000	1.0
45	0x3f8a3a62	1.0799067
46	0x3f800000	1.0
47	0x3f771006	0.96508825
48	0x3f800000	1.0
49	0x3f80ffab	1.0078024
50	0x3f800000	1.0
51	0x3f820723	1.0158428
52	0x3f800000	1.0
53	0x3f800000	1.0
54	0x3f800000	1.0
55	0x3f80da68	1.0066652
56	0x3f7d88f2	0.99037087
57	0x3f8f8081	1.1211091
58	0x3f7de7e8	0.99181986
59	0x3f819c9e	1.0125921
60	0x3f800000	1.0
61	0x3f81e1e7	1.0147065
62	0x3f83cd8e	1.0297105
63	0x3f7be382	0.98394024

conv_v_to_c.feature_module_final.0.bias f4 [64]
0	0x00000000	0.0
1	0x00000000	0.0
2	0x00000000	0.0
3	0x00000000	0.0
4	0x00000000	0.0
5	0xbc05ca80	-0.008165956
6	0x00000000	0.0
7	0x00000000	0.0
8	0x00000000	0.0
9	0x00000000	0.0
10	0x00000000	0.0
11	0xbc81078c	-0.015750669
12	0x3aaf1b15	0.0013359512
13	0x3d1c429e	0.03814947
14	0xbc2c0805	-0.010499959
15	0x00000000	0.0
16	0xbc8ffb75	-0.017575959
17	0x00000000	0.0
18	0xbca37922	-0.019955222
19	0x3c39e28d	0.011345518
20	0x3cf57c3a	0.029966462
21	0x3d2ea3b5	0.042636592
22	0x00000000	0.0
23	0x00000000	0.0
24	0x00000000	0.0
25	0x00000000	0.0
26	0x00000000	0.0
27	0xbc858ae7	-0.016301585
28	0xbc46c118	-0.012130998
29	0xbc193109	-0.00935007
30	0xbc736fb9	-0.01485818
31	0x00000000	0.0
32	0xbc44287c	-0.011972543
33	0xbc24fb7b	-0.010069723
34	0x00000000	0.0
35	0x00000000	0.0
36	0x00000000	0.0
37	0xbc1f4860	-0.009721845
38	0x00000000	0.0
39	0xba773fe7	-0.00094318244
40	0x00000000	0.0
41	0x00000000	0.0
42	0xbc8838da	-0.016628671
43	0x00000000	0.0
44	0x00000000	0.0
45	0xbc31294d	-0.0108130695
46	0x00000000	0.0
47	0xbd1bb327	-0.03801265
48	0x00000000	0.0
49	0xbab282f4	-0.0013619349
50	0x00000000	0.0
51	0x3bb63f26	0.005561727
52	0x00000000	0.0
53	0x00000000	0.0
54	0x00000000	0.0
55	0xbc58983b	-0.013219888
56	0xbc8aeafd	-0.016957754
57	0x3d94f707	0.07273679
58	0xbc49bb23	-0.012312683
59	0x3a8042bb	0.0009785512
60	0x00000000	0.0
61	0xbc240705	-0.010011439
62	0xbbe95da6	-0.0071217595
63	0xbc938a9a	-0.018010426

conv_v_to_c.feature_module_final.2.weight f4 [64, 64]
0	0x3c3eaa2b	0.011637251
1	0x3d0b037b	0.033938866
2	0x3cbbba08	0.022915855
3	0x3cec86c3	0.028872853
4	0xbd5fb87b	-0.054619294
5	0xbd25ff6c	-0.040526792
6	0xbcbeb968	-0.023281768
7	0xbc59fbed	-0.013304693
8	0x3d240b5b	0.040049892
9	0x3bcf0360	0.006317541
10	0xbb8a0851	-0.004212417
11	0xbd094bfb	-0.033519726
12	0x3cc8afd3	0.024497902
13	0x3d850996	0.06495969
14	0x3c26dfd5	0.010185202
15	0x3cab18ab	0.020885786
16	0x3d124e95	0.035719473
17	0x3cb77d7d	0.022398705
18	0xbc1f67ba	-0.00972932
19	0xbbeb7dee	-0.007186643
20	0x3cdce9e4	0.026966996
21	0x3d3f9ccf	0.046780404
22	0x3ce7cc5f	0.028295694
23	0xbccfcb6f	-0.02536556
24	0x3cbb6237	0.02287398
25	0x3c9d33c2	0.01918972
26	0xbcb2d666	-0.021830749
27	0x3c341b72	0.010992872
28	0xbd0365c6	-0.03207948
29	0xbd491682	-0.04909373
30	0xbc5867dd	-0.013208357
31	0x3cd757e0	0.02628702
32	0xbdd3be87	-0.103390746
33	0xbc31f83b	-0.010862405
34	0x3bb26f0e	0.0054453677
35	0x3c807720	0.015681803
36	0xbcb432d2	-0.02199689
37	0xbd0c3a8d	-0.034235526
38	0x39dc91a7	0.0004207019
39	0x3ce5b161	0.028038682
40	0xbb1505e0	-0.0022739097
41	0xbc50d168	-0.012745239
42	0xbd2766e2	-0.0408696
43	0xbbdc73c8	-0.0067276694
44	0x3a6bc9fa	0.00089946354
45	0xbdb9fcb8	-0.090814054
46	0xbc418b7f	-0.011813044
47	0xbb5b3076	-0.0033445633
48	0x3c75458f	0.014970197
49	0x3d16a8cd	0.036782075
50	0xbc516ed3	-0.01278277
51	0x3c88fd33	0.016722297
52	0x3cf128f0	0.029438466
53	0xbb83cf83	-0.00402254
54	0xba088d81	-0.0005209074
55	0xbcc9d6c9	-0.02463855
56	0xbd3add83	-0.045621406
57	0x3e19e42e	0.1502845
58	0xbc7e10a7	-0.0155069
59	0x3d9f1be5	0.07768992
60	0x3cabf68c	0.020991586
61	0xbd37e8be	-0.044899695
62	0xbd7f5fe0	-0.062347293
63	0xbc18b65a	-0.00932082
64	0x3d18e624	0.037328854
65	0x3c73de08	0.014884479
66	0xbaa155bf	-0.001230888
67	0x3d376fc3	0.04478432
68	0x3c436328	0.011925496
69	0x3b382e3d	0.0028103732
70	0x3bde6422	0.006786839
71	0x3c8f49eb	0.017491302
72	0xbcda98f0	-0.026684254
73	0xbce99f22	-0.028518263
74	0xbc907174	-0.017632224
75	0x39bccdca	0.0003601148
76	0xbce4612a	-0.027878363
77	0x3d1a14b5	0.037617404
78	0xbbfabf3a	-0.0076521905
79	0x3c035cfa	0.008017773
80	0x3d0a361e	0.033743016
81	0x3d93745d	0.07199929
82	0xbbda6fb0	-0.006666146
83	0x3d136bec	0.035991594
84	0x3d4fb6bf	0.05071139
85	0x3cd9c2d6	0.026582163
86	0x3d4aa026	0.049469136
87	0xbc2a8317	-0.010407231
88	0xbcec4dc0	-0.028845668
89	0xbd3d3fed	-0.046203543
90	0xbd80a5ff	-0.06281661
91	0xbcbc0094	-0.022949494
92	0x3ca428be	0.020038959
93	0x3c863acc	0.016385458
94	0x3cdd683d	0.027027244
95	0xbd1c0a56	-0.038095795
96	0x3acd8ee4	0.0015682844
97	0x3a21e231	0.0006175368
98	0xbcdc7022	-0.026908938
99	0x3ce6449f	0.028108893
100	0x3d52ad7a	0.05143497
101	0xbd231600	-0.039815903
102	0xbb7e23c5	-0.0038778645
103	0x3ca4ca28	0.020115927
104	0x3c1c6e09	0.009547719
105	0xbd1a4a31	-0.03766841
106	0xbc91f2c7	-0.01781596
107	0xbccc5c5d	-0.024946386
108	0x3cc9f5b9	0.024653303
109	0xbaf5457c	-0.0018712725
110	0xba09df4a	-0.0005259408
111	0xbca913e4	-0.020639367
112	0xbc7b28d2	-0.015329557
113	0xb8e5a1fd	-0.000109497436
114	0xbd33f71f	-0.043936845
115	0x3c51e2eb	0.012810449
116	0x3c122c27	0.00892166
117	0xbc29e8b3	-0.010370421
118	0x3c4fa73a	0.012674147
119	0xbca1d7ed	-0.019756282
120	0xba4575d5	-0.0007532512
121	0x3da79678	0.081829965
122	0xbbf94e93	-0.0076082437
123	0xbbe969fa	-0.007123229
124	0x3c2706fb	0.010194535
125	0xbd3c477b	-0.045966607
126	0xbd3f9922	-0.0467769
127	0x3c04c493	0.008103508
128	0xbc158985	-0.0091270255
129	0xbd0d22df	-0.034457084
130	0x3ca418d6	0.020031374
131	0x3c8c4f03	0.01712752
132	0x3a367c8e	0.0006961309
133	0x3c1ebc74	0.009688485
134	0x3d1448d6	0.036202274
135	0xbd150c46	-0.036388658
136	0x3c9b8053	0.018982088
137	0xbd02355a	-0.03178916
138	0x3cf721ab	0.030167421
139	0x3c96b864	0.018398471
140	0x3d184abc	0.037180647
141	0x3d56deca	0.052458562
142	0xbd4eaecc	-0.050459668
143	0x3c818dd2	0.015814696
144	0xbcc213cf	-0.023691086
145	0x3c840d9c	0.01611977
146	0x3c913d2b	0.017729362
147	0x3d117859	0.035515163
148	0x3c69b6e9	0.014264801
149	0x3cd54fcc	0.026039027
150	0xbc2f42e4	-0.0106971
151	0x3ca53d07	0.020170702
152	0x3d0fff7e	0.035155766
153	0x3c020580	0.007935882
154	0x3b2ee785	0.002668829
155	0xbcdcfe4f	-0.026976733
156	0xbccd1fe2	-0.025039617
157	0xbb7e3c10	-0.0038793124
158	0x3c074a7c	0.008257505
159	0x3cb5d528	0.022196367
160	0xbd17fdb7	-0.037107196
161	0xbd2e8404	-0.04260637
162	0x3c7703e2	0.015076609
163	0x3c86aa79	0.01643871
164	0x3cc0d693	0.023539817
165	0xbc6b3c00	-0.014357567
166	0xbd145ce3	-0.036221396
167	0xba1cb96e	-0.0005978559
168	0x3c243b48	0.010023899
169	0xbcf4996a	-0.02985831
170	0x3c20327e	0.009777663
171	0x3aecef58	0.0018076701
172	0x3d1ff581	0.03905249
173	0xbd14d0a8	-0.036331803
174	0xbaebb112	-0.0017981848
175	0x3bfb8525	0.007675784
176	0xbd4f9ffd	-0.050689686
177	0xbc7a2f4d	-0.015270066
178	0xbbba8d5f	-0.0056931223
179	0x3d3c69c6	0.04599931
180	0xbc144ef9	-0.009052032
181	0x3cdb0672	0.026736472
182	0xbd45aa54	-0.04825814
183	0x3bbc84f6	0.005753155
184	0x3c5bf119	0.013424181
185	0x3d849694	0.06474033
186	0x3d1eec3b	0.038799506
187	0x3d22e0ec	0.039765283
188	0xbcee33cf	-0.029077439
189	0x3c5b69e6	0.013391947
190	0xbd3977bd	-0.045280207
191	0x3d0964fd	0.033543576
192	0x3b03a9d9	0.002009025
193	0xbb2f206e	-0.002672221
194	0x3c7d6b0f	0.015467419
195	0x3c3f3745	0.011670892
196	0x3bb611ef	0.005556337
197	0x3cd0df07	0.025496973
198	0xbd022e7d	-0.031782616
199	0x3c955a32	0.018231485
200	0xbcdc7d12	-0.026915107
201	0x3bb875c3	0.0056292727
202	0xbcb99937	-0.022656066
203	0xbcdb1aa2	-0.026746098
204	0x3d296430	0.041355312
205	0x3ddbe8c8	0.10737759
206	0xbccce6cd	-0.025012398
207	0x3c4c3d49	0.012465783
208	0xbd39bb5d	-0.0453447
209	0xbcf80cd5	-0.030279556
210	0x3a89abe3	0.0010503497
211	0x3c5558db	0.013021673
212	0xbc48e008	-0.012260444
213	0x3c477965	0.012174939
214	0x3c1794dd	0.0092518
215	0xbc455bb1	-0.012045787
216	0x3ba4020f	0.005005128
217	0x3ca3eaef	0.020009486
218	0xbcda4c9d	-0.02664786
219	0xbce86b39	-0.02837144
220	0xbc0a7732	-0.00845127
221	0xbcc458ae	-0.023968067
222	0x3c81802c	0.015808187
223	0x3cbe7bca	0.023252387
224	0xbc4da835	-0.012552311
225	0x3c948c98	0.018133447
226	0x3cd598d5	0.026073853
227	0x3bba3b63	0.005683349
228	0x3c330fcc	0.010929059
229	0xbd749cee	-0.059719972
230	0xbc65a260	-0.014015764
231	0x3b770bf0	0.0037696324
232	0x3a390912	0.00070585415
233	0x3b397b5e	0.0028302292
234	0xbd4ac2cc	-0.04950218
235	0xbcebefeb	-0.028800925
236	0x3d29dcdf	0.041470405
237	0xbd4e886c	-0.05042307
238	0x3cd05728	0.025432184
239	0xbce45254	-0.027871288
240	0xbce56b9b	-0.028005412
241	0x3cd4845b	0.025942018
242	0x3c97abde	0.01851457
243	0xbb8b1854	-0.0042448435
244	0xbc27e0dd	-0.010246483
245	0xbbed14b5	-0.0072351345
246	0xbb9f1fdd	-0.0048560933
247	0x3d0c82e1	0.034304503
248	0xbc38284f	-0.011240079
249	0x3df77248	0.12082344
250	0xbc548931	-0.012972162
251	0x3d02428b	0.03180174
252	0x3bf076fb	0.0073384023
253	0xbd0b9e1e	-0.03408634
254	0xbd935b84	-0.071951896
255	0xbc838d70	-0.016058654
