result/saved_models/rl/reinforce/t_policy/generalized_independentset/t_node10s-t_total300s/checkpoint_rl4lb_trained_-t_policy-simplepolicy-reward_k_reinforce_0.1trainset_generalized_independentset-small_firstsol_0.1trainset_lr0.001.pth (torch, 58437 bytes, 6 tensors)

linear1.0.weight f4 [4, 7]
00000000: 8d51 46bf 70f5 1a3f c6d5 1abe 1534 07bc
00000010: 4802 54be 522d 373f 2331 5e3d eaa7 ffbe
00000020: 7f1d 053e 0d04 83be adb2 ba3d d6f9 043f
00000030: b95f 92bf 31a9 07bf 1fc9 bbbe 58ff 74bf
00000040: 284f 513f 4f40 993f ce61 e53d 1524 03bf
00000050: dee1 cb3e 8ee3 bd3e 3fb4 4e3d 9a9d 9abe
00000060: ac47 313c 49a7 263c 6031 d33d 2767 0b3d
-0.77468187 0.6053076 -0.1512061 -0.008252163 -0.20703995 0.7155353 0.05424608 -0.49932796
0.12999533 -0.25589028 0.09116111 0.5194372 -1.1435462 -0.5299254 -0.3667688 -0.95702124
0.8176141 1.197275 0.112002954 -0.5122693 0.3982076 0.37087673 0.050464865 -0.30198365
0.010820311 0.01017172 0.10312152 0.03403392

linear1.0.bias f4 [4]
00000000: 04eb adbe 6710 8a3e fd89 26be 5c2b ef3d
-0.33968365 0.2696564 -0.16263576 0.11678192

exp_avg f4 [4, 7]
00000000: 6a50 e6bd d272 7f3c f025 e33d 7d79 f53c
00000010: ae8c 77bc b13e 00be 66fd a9bc caf2 053e
00000020: 275a 193e 7828 91be 36a2 0abe 71ff 5ebd
00000030: 60a8 813e 27b9 2cbd 4cc3 bfbc 0d3e 763c
00000040: b4cb abbc 7214 23bd fc3b 333e 68f8 a03c
00000050: 8854 6f3d 5dba a53b 35b5 38be 6d37 463e
00000060: 24b8 143e ab06 d8bd 2531 17be a71a 933b
-0.112458065 0.01559134 0.110912204 0.029965157 -0.015109224 -0.12523915 -0.020750713 0.13080898
0.14975797 -0.28351188 -0.13538441 -0.054442827 0.25323772 -0.042168763 -0.023408554 0.0150294425
-0.020971157 -0.03981442 0.17503351 0.0196497 0.058430225 0.0050576166 -0.18037875 0.19357081
0.14523369 -0.10548147 -0.14764841 0.004489261

exp_avg_sq f4 [4, 7]
00000000: a46c 0240 6c3e 3f3e 5f40 883f cee5 263e
00000010: 7b63 613e 51ee f63f b026 0240 385e 373f
00000020: 6176 013e 9052 d03f 959d b43e f8c1 983e
00000030: 74bd 153f f30e 143f 85f9 0440 8b17 e13c
00000040: 8eca 0e40 589e 153f 918b 5f3e 5192 d83f
00000050: 63bb 0440 4f25 5040 d7f4 3f3e bc48 f03f
00000060: c6ec 8e3e 7dcc a93e 85d8 3340 737f 4340
2.037881 0.18676156 1.0644644 0.16298601 0.22010605 1.9291478 2.0336113 0.7162814
0.12642814 1.6275196 0.35276476 0.29835486 0.5849221 0.5783531 2.0777295 0.027477046
2.231113 0.5844474 0.21830584 1.6919652 2.0739372 3.2522771 0.18745743 1.8772197
0.2791502 0.33163825 2.8100903 3.054654

exp_avg f4 [4]
00000000: 8744 343d 34a6 0dbe 2fa6 8dbd 3168 273e
0.044010665 -0.13832933 -0.06916463 0.1634834

exp_avg_sq f4 [4]
00000000: 036e 6c40 4eb3 3740 0544 a740 a487 c540
3.6942146 2.870319 5.227053 6.1728077
