result/saved_models/rl/reinforce/t_policy/miplib_39binary/t_node10s-t_total200s/checkpoint_rl4lb_trained_-t_policy-simplepolicy-reward_k+t_reinforce_0.1trainset_miplib_39binary-small_firstsol_0.1trainset_lr0.01.pth (torch, 38661 bytes, 6 tensors)

linear1.0.weight f4 [4, 7]
000000 2b 03 18 bf c2 ef 4b 3e ec b4 d9 be 06 3d 95 bd
       -0.59379834 0.19915679 -0.42520845 -0.0728703
000010 47 a5 9a be 0e 56 4a 3f 09 03 7d 3e be 00 8c be
       -0.30204222 0.7903756 0.24708189 -0.27344316
000020 5e 5c 11 bd 95 12 ab 3e 93 14 8a bd a5 6b 0e 3f
       -0.03548848 0.33412614 -0.067422055 0.55633
000030 cd d6 3a bf 8f 5c 9c be 15 d4 58 bf 90 a4 4e bf
       -0.7298401 -0.30539367 -0.8469861 -0.8071985
000040 3a 01 72 3f 0d 4a e2 3f c6 3f 5d 3e 9d 68 37 bf
       0.9453312 1.7678849 0.21606359 -0.71644
000050 df 57 2e be a6 72 35 3e eb 26 03 3f 56 52 7e bf
       -0.17025708 0.17719516 0.5123126 -0.99344385
000060 2c 23 05 bf cb 1a 81 be f4 2b 5f be ac 57 df bd
       -0.52006793 -0.25215754 -0.2179411 -0.10905394

linear1.0.bias f4 [4]
000000 12 bc c9 be ae 43 35 3f 3b e7 a0 3d ea b3 0e bf
       -0.394013 0.70806396 0.07856604 -0.5574328

exp_avg f4 [4, 7]
000000 ca df 92 3e a1 fa d8 bc b7 58 1e 3e 48 20 fb 3d
       0.28686363 -0.026486697 0.1546353 0.122620165
000010 ee bb fe 3b 0c e7 c9 3e 14 f8 0e 3e 49 ba 5c be
       0.007773868 0.39434087 0.13961822 -0.21555437
000020 2f 2f a3 3c 9e 1d 36 3d 1a f4 16 be 54 94 77 bd
       0.01991996 0.04446184 -0.14741555 -0.06044419
000030 f5 63 b9 be 7c e3 a4 bd cf 19 4b 3d a6 5f 82 bb
       -0.36209074 -0.08051202 0.04958516 -0.0039786873
000040 87 75 a8 be 52 d2 1f 3e 2a 3c 13 3e 22 ca ea 3d
       -0.32902166 0.15607575 0.1437842 0.11464335
000050 3b f9 f2 3c 7b 97 f7 bd b6 c6 2c 3c f0 0a 05 3e
       0.029659858 -0.120894395 0.010545423 0.12992454
000060 5a 6e 06 be eb 99 ba bd 3b 6b 16 be fd ca b5 bd
       -0.13128033 -0.09111389 -0.14689343 -0.088766076

exp_avg_sq f4 [4, 7]
000000 f8 e6 6b 3f eb e7 9d 3b 62 bb ca 3e 8f ff 4a 3e
       0.92149305 0.0048189065 0.39596087 0.1982405
000010 96 5f ab 3d 19 f1 6a 3f b0 73 71 3e 82 ca f1 3e
       0.08367841 0.91774136 0.23579288 0.47224814
000020 90 30 8c 3b 6e fa 23 3f 77 cb da 3e 8e 2a 79 3e
       0.00427825 0.64054 0.42733356 0.2433264
000030 f5 d8 fc 3e a0 84 f5 3d af e9 77 3e 96 34 5d 3a
       0.49384275 0.11988187 0.24210237 0.0008438317
000040 e5 75 33 3f bc dd fd 3e 0d 03 85 3e a9 60 98 3e
       0.7010177 0.49583232 0.2597889 0.29761246
000050 dd 60 7c 3d 89 fd 4d 3f 68 2f b8 3b 69 10 44 3e
       0.061615814 0.8046499 0.0056208856 0.19146885
000060 bc b8 07 3e 4a ef 68 3d 75 ea 38 3f cf 59 54 3e
       0.13254064 0.05686883 0.72232753 0.20737384

exp_avg f4 [4]
000000 47 a2 09 3f 8c e0 98 be 46 65 02 be 76 c5 e4 bd
       0.5376324 -0.29858816 -0.12733945 -0.11170475

exp_avg_sq f4 [4]
000000 6a 74 c1 3f 3d 89 c8 3f 32 3a b2 3f c3 f6 8b 3f
       1.5113652 1.5666882 1.392401 1.0934681
