result/saved_models/rl/reinforce/t_policy/miplib_39binary/t_node10s-t_total200s/checkpoint_rl4lb_trained_-t_policy-simplepolicy-reward_t_reinforce_0.1trainset_miplib_39binary-small_firstsol_0.1trainset_lr0.01.pth (torch, 14341 bytes, 6 tensors)

linear1.0.weight f4 [4, 7]
-0.8627745 0.2623126 -0.3418812 -0.4170792 -0.7631117 0.39480755 -0.032820683 -0.39068598
0.3143213 -0.4119143 -0.061608214 0.42890403 -1.3545046 -0.57054615 -0.12416779 -1.2673582
1.3278033 1.8384918 0.4779053 -0.007959107 0.6727189 0.28862038 0.3293889 -0.62557936
-0.5745655 -0.09488759 0.015198064 -0.06091321
00000000: cade 5cbf d64d 863e 0d0b afbe 688b d5be
00000010: 4a5b 43bf 3724 ca3e fb6e 06bd fe07 c8be
00000020: b9ee a03e 6ee6 d2be e558 7cbd 4f99 db3e
00000030: 6860 adbf 500f 12bf af4b febd cb38 a2bf
00000040: 75f5 a93f b353 eb3f 01b0 f43e ea66 02bc
00000050: 4e37 2c3f 0dc6 933e a9a5 a83e f825 20bf
00000060: b916 13bf 6d54 c2bd 4d01 793c 2180 79bd

linear1.0.bias f4 [4]
-0.8574237 0.10882476 0.6924986 -0.34276804
00000000: 1f80 5bbf 84df de3d 9747 313f 4b7f afbe

exp_avg f4 [4, 7]
-0.008537872 0.1467535 0.089445755 0.0010587006 0.09519226 0.16250512 -0.029088175 0.10842934
-0.0037402126 -0.12099025 -0.33368054 -0.24934348 0.13110693 0.05839125 -0.11291534 -0.108529225
-0.16660249 0.38709602 0.16009326 -0.28384995 -0.035545465 0.0130238775 -0.034484055 0.19814703
-0.054474108 -0.0059420425 -0.0097621195 0.006242386
00000000: 6ee2 0bbc 8d46 163e 562f b73d 19c4 8a3a
00000010: 29f4 c23d be67 263e 534a eebc 3410 de3d
00000020: 5b1e 75bb bcc9 f7bd 2dd8 aabe e653 7fbe
00000030: e540 063e aa2b 6f3d 2840 e7bd 9244 debd
00000040: d899 2abe 7331 c63e 7def 233e c854 91be
00000050: 1f98 11bd 1a62 553c 273f 0dbd 0ee7 4a3e
00000060: 3e20 5fbd 77b5 c2bb 4cf1 1fbc ee8c cc3b

exp_avg_sq f4 [4, 7]
0.03406741 0.018874437 0.14037323 0.05490346 0.01741418 0.08912259 0.009154813 0.031728618
0.019217683 0.15800688 0.17219174 0.09184502 0.046192177 0.007977871 0.053283513 0.020360166
0.3129103 0.27360198 0.104691505 0.12080512 0.014243297 0.05587673 0.028785631 0.1510205
0.0951088 0.042337563 0.09293001 0.014768365
00000000: 458a 0b3d 909e 9a3c 00be 0f3e 73e2 603d
00000010: 2fa8 8e3c e885 b63d 12fe 153c def5 013d
00000020: 676e 9d3c 8ecc 213e 0853 303e 3e19 bc3d
00000030: 0234 3d3d 9eb5 023c d03f 5a3d 5dca a63c
00000040: c735 a03e 8f15 8c3e 8068 d63d ad68 f73d
00000050: b85c 693c ffde 643d d8cf eb3c 1ea5 1a3e
00000060: 67c8 c23d 276a 2d3d 1752 be3d 03f7 713c

exp_avg f4 [4]
0.22872008 -0.34998173 -0.0009510899 0.12221272
00000000: 9935 6a3e ce30 b3be 9052 79ba aa4a fa3d

exp_avg_sq f4 [4]
0.22243625 0.39171892 0.6942222 0.35495904
00000000: 54c6 633e 628f c83e 8cb8 313f 31bd b53e
