result/saved_models/rl/reinforce/t_policy/miplib_39binary/t_node10s-t_total300s/checkpoint_rl4lb_trained_-t_policy-simplepolicy-reward_k_reinforce_0.1trainset_miplib_39binary-small_firstsol_0.1trainset_lr0.001.pth (torch, 8645 bytes, 6 tensors)

linear1.0.weight f4 [4, 7]
00000000: 7f52 4fbf c1f4 163f 074e 18be 84f0 923c
00000010: 2c5a 72be 193f 2c3f 5ad2 e13c 9e01 efbe
00000020: a39b b53d 6f2e 59be 99c2 b63d 7ccd fc3e
00000030: 73de 8cbf 7912 e2be e23f bbbe 0756 76bf
00000040: ee28 513f 581f 9c3f 9fe4 413e b4b2 ffbe
00000050: 415a ca3e a12d ca3e 511d c93d c681 adbe
00000060: 7aa2 3dbd f04a e5bb 4a99 ed3d 9027 343d
-0.80985254 0.58967215 -0.14873515 0.017936952 -0.2366721 0.6728378 0.027566124 -0.4668092
0.08867576 -0.2120912 0.08923835 0.49375522 -1.1005386 -0.4415472 -0.36572176 -0.9622502
0.8170308 1.2197065 0.18934868 -0.49941027 0.39521983 0.39487937 0.09820045 -0.33888072
-0.046297528 -0.0069974586 0.11601503 0.043983042

linear1.0.bias f4 [4]
00000000: bf80 b8be 0f32 993e b85f 1bbe 5f3d e13d
-0.36035725 0.29921004 -0.15173233 0.10998034

exp_avg f4 [4, 7]
00000000: 1aff 203f 0a58 b0bc 5542 a53e 9e67 0b3e
00000010: 6615 b63a 4337 333f 9bcd c03e 36de 5fbe
00000020: 3fa7 593c b06b a6bc 67a3 85bd bc38 84bd
00000030: 62d6 f3bd fc7f 76bc 3ff0 4e3f ac0f d23c
00000040: 1241 bdbe 5b27 be3d 6708 363e a58c 0e3f
00000050: 66a1 933e e8fb 9bbf 3c8b 8ebc e495 893d
00000060: 94a9 27be 68b0 eabd 8ea4 91bf 7f5d 26bf
0.62889254 -0.021526355 0.3227717 0.13613746 0.0013891875 0.700062 0.37656865 -0.2186211
0.0132845035 -0.020315021 -0.06525307 -0.06456134 -0.11906125 -0.015045162 0.80835336 0.025642239
-0.36963707 0.0928485 0.17776643 0.55683357 0.28834075 -1.2186251 -0.017400376 0.067180425
-0.16373283 -0.11459428 -1.1378343 -0.64986414

exp_avg_sq f4 [4, 7]
00000000: 01a9 b43e 529e 993b 7968 4c3d a71a 603d
00000010: a75a b93c cd4d 953e 88ea d83d 27f1 fc3d
00000020: 8ec6 4a3b 1fe9 733d 0d33 b33d 80be 3c3d
00000030: bf48 e23d 2777 003d 80f1 9d3e 110c ce3a
00000040: 7ddc cf3d ad76 3e3e 0b5e 623d c2bb 8b3e
00000050: 7b0c bc3d 3267 403f 79c2 903b 5a29 a93d
00000060: df79 883d 065d 063d 106c 303f f408 6b3e
0.3528519 0.0046880627 0.04990432 0.054712918 0.022626234 0.2916092 0.10591608 0.12350684
0.0030941102 0.059548493 0.087499715 0.046080112 0.110490315 0.031363633 0.30848312 0.0015720149
0.10149477 0.18599959 0.055265468 0.27291685 0.09182068 0.75157464 0.004417714 0.0825984
0.0666387 0.032803558 0.6891489 0.22952634

exp_avg f4 [4]
00000000: b57b 883f 76f1 94be 1fa5 0e3f e891 aabf
1.0662752 -0.2909047 0.55720705 -1.3325777

exp_avg_sq f4 [4]
00000000: 98eb d13e b7d2 8e3e 40a2 223f 6430 613f
0.41000056 0.27895138 0.63528824 0.87964463
