result/saved_models/rl/reinforce/t_policy/miplib_39binary/t_node10s-t_total600s/checkpoint_rl4lb_trained_-t_policy-simplepolicy-reward_k_reinforce_0.1trainset_miplib_39binary-small_firstsol_0.1trainset_lr0.001.pth (torch, 3337 bytes, 6 tensors)

linear1.0.weight f4 [4, 7]
000000 4c 3b 4d bf cd 7f 16 3f ea 68 13 be 5c 37 ae 3b
       -0.80168605 0.5878876 -0.1439549 0.005316658
000010 af 40 75 be ba 73 2e 3f 28 92 17 3d 37 fa e8 be
       -0.23950456 0.68145335 0.03700462 -0.455034
000020 04 f6 a5 3d 41 6a 68 be 82 b2 e2 3d 74 be fb 3e
       0.081035644 -0.22696783 0.11069204 0.49168742
000030 d7 30 8b bf 2e 3a da be 33 d1 b4 be 02 92 76 bf
       -1.087428 -0.42622513 -0.35315856 -0.9631654
000040 7b 33 56 3f f2 9b 9a 3f af f8 38 3e fa 1b fa be
       0.836723 1.2078841 0.18063615 -0.4884947
000050 ca 7c d0 3e 28 b6 be 3e 47 b7 e4 3d 10 e4 b6 be
       0.40720206 0.3724835 0.1116777 -0.35720873
000060 78 c0 fd bc b3 96 19 3c 78 cb c4 3d b7 09 bc 3c
       -0.030975565 0.009374308 0.09609121 0.022953851

linear1.0.bias f4 [4]
000000 33 18 b4 be ec b0 a0 3e b3 c7 10 be 35 31 b6 3d
       -0.35174713 0.3138498 -0.14138679 0.08896104

exp_avg f4 [4, 7]
000000 78 46 47 bf e0 4f 87 3d b9 60 36 3e 0e 8c 94 be
       -0.778419 0.06607032 0.17810334 -0.29013103
000010 be aa 5d be 3a b6 12 bf 9e ab c5 be 3c b0 49 bf
       -0.21647164 -0.57309306 -0.38607496 -0.7878454
000020 8e 41 a4 3d 3e 21 31 3e a3 3c fb 3e 5a c9 32 3f
       0.08020316 0.17297837 0.490697 0.6983849
000030 9e e8 14 bf 66 4b e9 be aa 9b 14 bf d7 a1 0e 3e
       -0.58167446 -0.45565337 -0.58050025 0.13928925
000040 cb fe b9 be 85 37 b8 be b6 84 62 be 89 81 8e be
       -0.36327204 -0.35979858 -0.22120938 -0.27833202
000050 86 16 8e be 98 64 09 40 45 35 92 be ca b9 47 3c
       -0.2775156 2.1467648 -0.28556266 0.012190292
000060 d6 0d 23 3e ff 7a 85 be cc 6f b7 3f 64 43 8f 3f
       0.15923247 -0.260704 1.4330993 1.1192441

exp_avg_sq f4 [4, 7]
000000 f8 ee b8 3e 5f 86 78 3c fd 9d b7 3c 39 f0 63 3d
       0.3611982 0.015168755 0.022414202 0.055649016
000010 78 fe 00 3d 6a 29 af 3e 82 ce e8 3d f6 f2 6b 3e
       0.03149268 0.34211284 0.11367513 0.23041901
000020 3b 12 00 3c 79 1d 91 3c a9 28 47 3d ab bf 6c 3d
       0.0078168465 0.017714249 0.04862276 0.057799976
000030 78 93 df 3d a7 3b a4 3d 88 27 78 3f 4a f4 07 3c
       0.10916799 0.0801919 0.9693532 0.008297989
000040 81 07 1c 3d 12 31 2c 3d 45 ae 09 3d 52 dd 51 3f
       0.038093094 0.042038985 0.033613462 0.81978333
000050 16 89 98 3e bd ae 42 3f e8 7a a4 3c fe e1 ca 3c
       0.29792088 0.7604788 0.020078138 0.024765965
000060 b2 e4 0b 3c 2f 7a ca 3c e3 66 1e 3f 25 aa 78 3e
       0.008538412 0.024716465 0.6187574 0.24283655

exp_avg f4 [4]
000000 5a 0a 53 bf 79 16 34 bd 2d 07 95 bf 86 16 02 40
       -0.8243767 -0.043966744 -1.1642815 2.0326247

exp_avg_sq f4 [4]
000000 9a e1 e6 3e d1 ac 49 3e 31 68 8b 3f 31 1b 4f 3f
       0.45093995 0.1969483 1.0891172 0.80900866
