result/saved_models/rl/reinforce/t_policy/miplib_39binary/t_node10s-t_total600s/checkpoint_rl4lb_trained_-t_policy-simplepolicy-reward_k_reinforce_0.1trainset_miplib_39binary-small_firstsol_0.1trainset_lr0.001.pth (torch, 31750 bytes, 6 tensors)

linear1.0.weight f4 [4, 7]
0	0xbf55b869	-0.8348451
1	0x3f21f66d	0.6326664
2	0xbe357d11	-0.1772349
3	0xbca54dbc	-0.020178668
4	0xbe506750	-0.2035191
5	0x3f274b93	0.6534969
6	0x3ae5d5ba	0.0017535009
7	0xbf02edf3	-0.5114433
8	0x3cebd244	0.028786786
9	0xbe864584	-0.2622491
10	0x3da44f81	0.08022977
11	0x3ef6defe	0.48217005
12	0xbf93586b	-1.1511358
13	0xbeffb06a	-0.4993928
14	0xbebcd5d6	-0.36881894
15	0xbf7e7af7	-0.9940638
16	0x3f5eb6f6	0.86997926
17	0x3fa5d5ff	1.2955931
18	0x3e531ea6	0.2061716
19	0xbf02ba47	-0.51065487
20	0x3ec26c74	0.37973368
21	0x3ed3481d	0.41265956
22	0x3e0228f5	0.12710936
23	0xbeafa6e6	-0.3430702
24	0xbe01325f	-0.12616871
25	0xbd50f98e	-0.051019244
26	0x3e102a51	0.14078642
27	0x3d8fdc9d	0.070245005

linear1.0.bias f4 [4]
0	0xbec914c5	-0.39273658
1	0x3e7b7611	0.24556758
2	0xbde7ba7a	-0.113148645
3	0x3de54036	0.11193888

exp_avg f4 [4, 7]
0	0xc00c3a43	-2.191056
1	0xbce1623f	-0.027512668
2	0x3e78dca0	0.24302912
3	0xbe4e14a7	-0.20125066
4	0xbe4dd642	-0.20101264
5	0xbffa0797	-1.9533566
6	0xbf9ca11e	-1.2236669
7	0x3d87f728	0.06638938
8	0xbc14c5b9	-0.009080344
9	0xbe1b01f1	-0.1513746
10	0xbdff1ee2	-0.12457062
11	0x3c9f14b7	0.019419057
12	0x3e0c4e9c	0.13701862
13	0x3e06af86	0.13152894
14	0x3f3554ac	0.70832324
15	0x3d6c6769	0.057715807
16	0xbd0db12b	-0.03459279
17	0x3e180734	0.14846498
18	0xbc6fd527	-0.014638222
19	0x3f25b204	0.64724755
20	0x3ecee9ec	0.40412843
21	0x3fb54ac1	1.4163438
22	0xbcad09b9	-0.0211228
23	0xbd69b994	-0.057061747
24	0x3e359ce5	0.17735632
25	0x3e48f0fe	0.19623181
26	0x3f95a4c1	1.1690904
27	0x3f302165	0.68800956

exp_avg_sq f4 [4, 7]
0	0x40b29b80	5.581482
1	0x3dabab68	0.083823025
2	0x3eca749d	0.39542094
3	0x3e84200f	0.2580571
4	0x3e3b07c0	0.18264675
5	0x40a84b57	5.2591968
6	0x3fdfe982	1.7493136
7	0x40079006	2.1181655
8	0x3d40b0db	0.047043663
9	0x3edc9b76	0.43087357
10	0x3f4a5108	0.79029894
11	0x3ed909a8	0.4239018
12	0x3ffbb798	1.9665403
13	0x3f254e45	0.64572555
14	0x4080a7f9	4.0205045
15	0x3ca322e0	0.01991409
16	0x3f530089	0.8242269
17	0x3f9aabfa	1.2083733
18	0x3f180fc2	0.59399045
19	0x407252ad	3.7862961
20	0x3f9dedd9	1.233821
21	0x41140c27	9.252967
22	0x3d9aa923	0.075517915
23	0x3ef6595f	0.4811506
24	0x3ee0e066	0.43921202
25	0x3e78dd71	0.24303223
26	0x410a8864	8.6582985
27	0x403556d6	2.833425

exp_avg f4 [4]
0	0xc00b5089	-2.1767905
1	0xbe5fe22f	-0.21863626
2	0x3f6141de	0.8799113
3	0x3fc1fc6a	1.5155156

exp_avg_sq f4 [4]
0	0x40c985bc	6.297575
1	0x4053e751	3.3109934
2	0x40bd5ee3	5.917833
3	0x41279581	10.474
