result/saved_models/rl/reinforce/t_policy/miplib_39binary/t_node10s-t_total600s/checkpoint_rl4lb_trained_-t_policy-simplepolicy-reward_t_reinforce_0.1trainset_miplib_39binary-small_firstsol_total_timelimit600s_lr0.1.pth (torch, 5446 bytes, 6 tensors)

linear1.0.weight f4 [4, 7]
00000000: 9dd1 63be fc76 403f e7ed dbbe bea8 d6be
00000010: c3c4 5bbc 5fcf 39bd 12c6 4ebe fc8a 84bd
00000020: 67c4 1abf b226 4ebf ffc6 a2be 43ad 1cbf
00000030: fcbe cebf b090 1fbd a35e 8f3f 82f6 95bd
00000040: 44b5 cc3f 6098 1e40 0b26 613f d2c4 d23f
00000050: baa6 b73f d9ef 65bf ca6f d63f 50ee 8bbe
00000060: 7f97 38bf 7edb fd3e 3589 a1bf 03a2 76bf
-0.2224793 0.75181556 -0.42954943 -0.41925615 -0.013413611 -0.04536378 -0.20192745 -0.06471822
-0.60455936 -0.80527794 -0.31792447 -0.61201876 -1.6152034 -0.038956344 1.1200756 -0.07322408
1.5992818 2.4780502 0.87948674 1.6466315 1.4347756 -0.89819103 1.6752865 -0.27330256
-0.72106165 0.49581522 -1.2619997 -0.9634096

linear1.0.bias f4 [4]
00000000: b61a 55bf d94c 3abe 5197 953f 946d 9dbe
-0.8324388 -0.18193378 1.1686803 -0.30747664

exp_avg f4 [4, 7]
00000000: 6881 0fba bae0 a53d 29f0 e5bc 43f1 563c
00000010: 7cc0 9cbb 0b1e 943c 528f 6dbb c226 f0bd
00000020: 5eba 2fbc b1f5 1b3e 746d d1bd 9033 83bd
00000030: da59 9ebb bdd1 9bbb efdb f33d 3dd7 70bd
00000040: cb27 403c ee53 543d 4986 0a3b 0912 a2bc
00000050: f353 553c 4d8a a5ba 7fee 3bbc 263a 0bbe
00000060: a5ca 183d 64ab 883d d029 d63b 820e 98bb
-0.00054743 0.08099504 -0.028068619 0.013119045 -0.004783688 0.018080732 -0.0036248756 -0.117261425
-0.010725586 0.15230443 -0.10225955 -0.06406319 -0.0048324885 -0.0047552274 0.119071834 -0.058799017
0.011728237 0.051837854 0.002113717 -0.01978399 0.013020503 -0.0012629718 -0.011470436 -0.135964
0.037302632 0.06673315 0.006535746 -0.0046404013

exp_avg_sq f4 [4, 7]
00000000: 0dd9 643c 3ce9 233c 7511 133e 9579 a43d
00000010: 3a7d 493d f0cd 423d c0a5 393b 0a07 053c
00000020: 98b3 933b 013c f13d 3a89 153e 7d22 a23d
00000030: 82af 9b3c ae33 2c3b 74fb 833c ae8c 2f3c
00000040: e582 933e 282b fc3d 40f2 a73d 0b5e 6d3d
00000050: b9dd 1b3b e26e 9d3b 4dac e93b 1ff1 653d
00000060: 116e 403d 56e3 1f3d cfd7 ba3c b562 8b3a
0.013967765 0.010004338 0.14362128 0.080310024 0.04919169 0.04755968 0.0028327554 0.008119354
0.004507493 0.11779023 0.14603129 0.07916734 0.019004587 0.002627592 0.016111113 0.010714693
0.28810802 0.12312919 0.082005024 0.057951014 0.002378328 0.004804478 0.0071311356 0.056138154
0.046979968 0.039035164 0.022807984 0.0010634275

exp_avg f4 [4]
00000000: d723 863d 27a0 9fbd 3d9f fd3d f822 e4bd
0.06549805 -0.077942185 0.12383888 -0.11139482

exp_avg_sq f4 [4]
00000000: 0625 7f3e a627 c43e 55d5 dc3e d368 063e
0.24916467 0.383115 0.4313151 0.13125925
