result/saved_models/rl/reinforce/k_policy/setcovering/t_node10s-t_total600s/seed100/checkpoint_trained_reward3_simplepolicy_rl4lb_reinforce_trainset_setcovering-large_0.1trainset_lr0.01_epochs271.pth (torch, 46089 bytes, 6 tensors)

linear1.0.weight f4 [4, 7]
000000 d1 55 94 bf d5 54 df 3e 1e 66 55 3f 50 22 14 3f
       -1.1588689 0.4361941 0.83358943 0.57864857
000010 a5 b3 05 3e 49 7f 80 bf 51 4e fb 3e db d4 9e bf
       0.1305681 -1.0038844 0.49083188 -1.2408708
000020 88 ab 9d bd 58 e1 9d 3e 4b 9c 31 be 61 36 a4 bd
       -0.076987326 0.30835986 -0.17344777 -0.080181845
000030 d1 46 fe be cb 2b 95 3e c7 2f 90 3f 83 ae 6c be
       -0.49663404 0.29134974 1.126458 -0.23113446
000040 59 c1 62 3d b3 e2 41 bf 02 e4 d1 be 28 73 8f 3f
       0.055360172 -0.7573654 -0.4099427 1.1207018
000050 fa a3 b7 3d 8d 7a a8 3e 70 fe 3f be a1 e3 86 bf
       0.08966823 0.32906 -0.18749404 -1.0538217
000060 ef 27 16 3f 34 c7 09 bf b6 f6 9d 3e 68 c5 82 3e
       0.58654684 -0.53819585 0.30852288 0.25541234

linear1.0.bias f4 [4]
000000 15 1b 80 3d 98 01 1e be c2 93 c8 3e 61 93 02 bf
       0.062551655 -0.15430295 0.3917523 -0.5100613

exp_avg f4 [4, 7]
000000 d6 b6 b1 3d 00 00 00 00 a3 28 dc bd 42 f5 df be
       0.08677451 0.0 -0.10749938 -0.43741804
000010 87 4d 97 be 35 f4 00 3e 3e 06 3b bc dc 0b 97 3e
       -0.29551336 0.12593158 -0.0114150625 0.29501235
000020 00 00 00 00 f3 a4 5c be 92 56 1d 3e 27 18 fe bb
       0.0 -0.21547298 0.15365055 -0.007754344
000030 77 09 37 3e 86 87 e1 bb d0 9c c0 3e 00 00 00 00
       0.17874704 -0.0068826107 0.37619638 0.0
000040 f0 f3 8b 3d 32 f3 19 3e 24 c4 4b 3e 59 69 4c 3e
       0.06833637 0.15034178 0.1989904 0.19962062
000050 cc 02 58 3d 2e 0b 42 bf 00 00 00 00 a6 5f 82 3e
       0.052737042 -0.7579831 0.0 0.254636
000060 b8 a0 08 3e 59 8f d5 3d c3 19 01 bf 4a 10 0d bd
       0.1334256 0.10427732 -0.50429934 -0.034439363

exp_avg_sq f4 [4, 7]
000000 2a e5 32 3f 00 00 00 00 4e 30 81 3e 43 83 94 3e
       0.69880927 0.0 0.25232166 0.29006395
000010 5a e6 d4 3d 8a 02 ef 3e 5f 0c 93 3b d5 75 a5 3f
       0.103954986 0.46681625 0.0044875587 1.2926584
000020 00 00 00 00 09 56 a6 3e 91 f8 b3 3e f0 75 20 3e
       0.0 0.32487515 0.3515058 0.1566999
000030 04 a6 6f 3f c6 33 0d 3c b5 76 e5 40 00 00 00 00
       0.93612695 0.008618301 7.1707406 0.0
000040 7d 76 eb 3e 47 31 86 3e 0c 53 d6 3d c3 6d a0 40
       0.45988837 0.2620947 0.10465059 5.0133986
000050 5b e9 07 3d ca 0e b1 40 00 00 00 00 22 09 c2 3d
       0.03318153 5.5330553 0.0 0.09474398
000060 92 65 91 3e ea a0 bc 3d cf ed 72 40 68 67 bf 3c
       0.28397804 0.092103794 3.7957647 0.023364738

exp_avg f4 [4]
000000 ba 91 ea be 60 c9 6e 3e b3 49 18 3f 58 66 bd be
       -0.45814306 0.23319006 0.59487456 -0.36992145

exp_avg_sq f4 [4]
000000 1e e6 a3 3f b9 ed fa 3f 0e 16 ff 40 5d 4c c0 40
       1.2804601 1.9603797 7.971442 6.0093217
