result/saved_models/rl/reinforce/k_policy/setcovering/t_node10s-t_total600s/seed100/checkpoint_trained_reward3_simplepolicy_rl4lb_reinforce_trainset_setcovering-large_0.1trainset_lr0.01_epochs243.pth (torch, 41545 bytes, 6 tensors)

linear1.0.weight f4 [4, 7]
00000000: 1fd6 93bf d554 df3e c198 483f 77d6 0e3f
00000010: 6df9 de3d e931 81bf 7904 d93e 2bf2 99bf
00000020: 88ab 9dbd 2dfc 813e 51bd 18be fc2d bfbd
00000030: 22a7 e7be cc87 7e3e c324 893f 83ae 6cbe
00000040: 9761 f73d 1843 35bf a00a b3be ae22 883f
00000050: 6b3d 2f3e 3a56 be3e 70fe 3fbe d9db 81bf
00000060: 4978 083f 2ede 0fbf 244e b53e e26a 5b3e
-1.154972 0.4361941 0.78358084 0.55796 0.10887418 -1.0093356 0.42386225 -1.2027029
-0.076987326 0.25387707 -0.14915968 -0.09334943 -0.452447 0.2485649 1.0714344 -0.23113446
0.12079161 -0.708055 -0.34969044 1.0635583 0.17113273 0.3717516 -0.18749404 -1.0145217
0.5330854 -0.56198394 0.3541118 0.21427491

linear1.0.bias f4 [4]
00000000: 66e0 043d 983a 0abe 9f7f ba3e 90ac f3be
0.032440566 -0.13498914 0.36425492 -0.47592592

exp_avg f4 [4, 7]
00000000: 67c6 87be 0000 0000 332a 913d 7b9a adbd
00000010: f16b 50bd f627 14be 50ee 77bc 838e a93e
00000020: 0000 0000 902c b1bd 49b4 ccbd 9e39 9bbd
00000030: 30e9 c53e 4374 fabb 8226 223e 0000 0000
00000040: 1e5d 60bd b4d2 383c 38f0 433d 7aae 9b3c
00000050: 7352 a93d c5b6 65be 0000 0000 e730 903d
00000060: 389a 313e 7c77 a13d 1c90 85be c95a 75bd
-0.26518556 0.0 0.07088127 -0.084767304 -0.05088419 -0.14468369 -0.015132502 0.3311654
0.0 -0.08651078 -0.09995324 -0.07579349 0.3865447 -0.007643254 0.15835002 0.0
-0.054776303 0.011280704 0.047836512 0.019004095 0.08267679 -0.22433002 0.0 0.070405774
0.17343986 0.07884118 -0.2608651 -0.059901033

exp_avg_sq f4 [4, 7]
00000000: ed96 2b3f 0000 0000 bbde 643e 4644 893e
00000010: 9d1f c53d 4135 e13e 5ea0 893b da17 a53f
00000020: 0000 0000 2ccd a03e cfbd b43e 554d 223e
00000030: ee42 6d3f ab43 0a3c a7e1 e040 0000 0000
00000040: c278 da3e 9390 833e 40e2 d03d 4198 9d40
00000050: b250 003d 9555 ac40 0000 0000 1754 ba3d
00000060: 763c 8f3e 2d9b bb3d c16f 6b40 627d b93c
0.6702717 0.0 0.2235059 0.268099 0.096251704 0.43985942 0.0042000255 1.2897904
0.0 0.31406534 0.35301062 0.15849812 0.9268025 0.008438985 7.0275455 0.0
0.42670256 0.2569624 0.10199404 4.9248357 0.031326957 5.385447 0.0 0.0909807
0.27975816 0.09160457 3.678696 0.022642795

exp_avg f4 [4]
00000000: 7ae2 8ebe 9a2c 143e d638 eb3d 1fdf 9f3c
-0.27907163 0.14470139 0.1148545 0.019515572

exp_avg_sq f4 [4]
00000000: da97 943f eff9 f83f 4445 fb40 294f bb40
1.1608841 1.9451274 7.8522053 5.853413
