result/saved_models/rl/reinforce/k_policy/setcovering/t_node10s-t_total600s/seed100/checkpoint_trained_reward3_simplepolicy_rl4lb_reinforce_trainset_setcovering-large_0.1trainset_lr0.01_epochs184.pth (torch, 32073 bytes, 6 tensors)

linear1.0.weight f4 [4, 7]
000000 dc 08 86 bf d5 54 df 3e ac cf f6 3e 57 37 c5 3e
       -1.0471454 0.4361941 0.48205316 0.38518783
000010 57 9a 32 be e6 96 6e bf 99 5f ac 3e aa 9a 8a bf
       -0.17441688 -0.93199 0.33666685 -1.082845
000020 88 ab 9d bd fd cc 9d 3e 0b 9f 20 3d 86 cd db 3d
       -0.076987326 0.30820456 0.039214175 0.1073256
000030 99 ce 93 be 37 f0 99 3e a5 b4 7d 3f 83 ae 6c be
       -0.2886856 0.30066082 0.99103767 -0.23113446
000040 77 d9 8e 3e 1c 80 30 bf c3 c5 c3 be af 73 7a 3f
       0.27900288 -0.6894548 -0.38236818 0.9783277
000050 cc fc 30 3e ba 83 bb 3e 70 fe 3f be d2 67 81 bf
       0.17283934 0.36623937 -0.18749404 -1.0109808
000060 dc d7 e9 3e c9 d6 05 bf d7 ad af 3e 8a 60 5e 3e
       0.456725 -0.5228086 0.34312317 0.21716514

linear1.0.bias f4 [4]
000000 9b c3 ae bd ba cd 7f 3d 6d b4 a7 3e 0a 97 fe be
       -0.085334025 0.062452056 0.3275484 -0.4972461

exp_avg f4 [4, 7]
000000 3c 9e c7 3e 00 00 00 00 e3 a6 92 be d3 e0 a3 be
       0.3898791 0.0 -0.2864295 -0.32007465
000010 80 4b ac be b2 1e ae 3e 12 62 86 bc 5a 1c 1c 3b
       -0.33651352 0.34007794 -0.016404185 0.002382061
000020 00 00 00 00 ec 05 04 bf 8a bc 03 3e f8 f6 a0 3e
       0.0 -0.51571536 0.1286489 0.31438422
000030 ef f5 a3 bd 1c 40 95 bd a2 93 82 be 00 00 00 00
       -0.080058925 -0.072876185 -0.2550326 0.0
000040 77 c9 49 3f ca 79 b9 3e d8 62 5f 3d 5b 47 0b be
       0.78823036 0.3622573 0.054537624 -0.13601439
000050 dd 3f e4 3d a4 85 0c be 00 00 00 00 74 f9 63 3c
       0.111449935 -0.13722855 0.0 0.013914455
000060 75 ee 2e be a1 be 04 bd 36 f6 fd bd f4 9c b5 bc
       -0.17083152 -0.03240836 -0.12400477 -0.022169568

exp_avg_sq f4 [4, 7]
000000 90 53 25 3f 00 00 00 00 8d 9a 1c 3e 4f 45 30 3e
       0.6458063 0.0 0.15293331 0.17213939
000010 5c b3 89 3d 6c 25 c6 3e 74 1c 5b 3b 2c 64 a0 3f
       0.06723663 0.38700426 0.0033433707 1.253057
000020 00 00 00 00 7c 63 85 3e 6f f5 93 3e f5 7c 11 3e
       0.0 0.26052463 0.28898188 0.14207824
000030 a3 90 5f 3f 80 df 04 3c 37 11 cc 40 00 00 00 00
       0.87330073 0.008109927 6.3771014 0.0
000040 ad d3 b1 3e 7b 7e 77 3e 4d f3 c6 3d 67 4e 8d 40
       0.34731808 0.24169342 0.09714375 4.4158206
000050 67 78 df 3c f1 14 99 40 00 00 00 00 d5 07 a6 3d
       0.027279092 4.7838063 0.0 0.081069626
000060 9f 98 76 3e ed 87 a7 3d 20 c4 4e 40 f8 24 94 3c
       0.24081658 0.08180223 3.2307205 0.018084034

exp_avg f4 [4]
000000 f8 d2 5d be 55 f5 c4 be 86 3c 65 3f 3d 9a 96 be
       -0.2166251 -0.38468423 0.89545476 -0.2941455

exp_avg_sq f4 [4]
000000 0c 55 78 3f 59 c2 e9 3f 6f 68 e7 40 21 a1 a5 40
       0.9700477 1.8262435 7.2314982 5.175919
