result/saved_models/rl/reinforce/k_policy/setcovering/t_node10s-t_total600s/seed100/checkpoint_trained_reward3_simplepolicy_rl4lb_reinforce_trainset_setcovering-large_0.1trainset_lr0.01_epochs177.pth (torch, 30921 bytes, 6 tensors)

linear1.0.weight f4 [4, 7]
-1.0171167 0.4361941 0.42465192 0.3346324 -0.22867443 -0.88940245 0.31081432 -1.1078604
-0.076987326 0.28393358 0.023584586 0.11704325 -0.3134918 0.26130024 0.9712564 -0.23113446
0.33586568 -0.60574013 -0.3422812 0.95427644 0.20556267 0.3908775 -0.18749404 -1.0065064
0.43264297 -0.53045374 0.36943823 0.21439287
00000000: e130 82bf d554 df3e fa6b d93e f054 ab3e
00000010: a129 6abe e1af 63bf 0e23 9f3e 5fce 8dbf
00000020: 88ab 9dbd be5f 913e 7634 c13c 5fb4 ef3d
00000030: ff81 a0be 25c9 853e 42a4 783f 83ae 6cbe
00000040: 96f6 ab3e c911 1bbf 7b3f afbe 764b 743f
00000050: 057f 523e 1821 c83e 70fe 3fbe 34d5 80bf
00000060: 6183 dd3e d1cb 07bf 0227 bd3e ce89 5b3e

linear1.0.bias f4 [4]
-0.104397744 0.026413105 0.33648807 -0.47818506
00000000: 7cce d5bd 4c60 d83c 2a48 ac3e acd4 f4be

exp_avg f4 [4, 7]
0.0303297 0.0 -0.34867105 -0.4586324 -0.07431095 0.07453238 -0.03675521 -1.1011252
0.0 0.011462997 -0.11627082 -0.16219531 -0.9405515 -0.038874473 0.54371744 0.0
0.24254632 0.5820151 0.26908576 0.41457084 0.13152036 0.527078 0.0 0.09466181
-0.0071118297 -0.032579534 0.45144832 -0.05589067
00000000: fe75 f83c 0000 0000 0385 b2be ded1 eabe
00000010: 5730 98bd 6fa4 983d a28c 16bd acf1 8cbf
00000020: 0000 0000 4bcf 3b3c 651f eebd 8716 26be
00000030: fcc7 70bf d73a 1fbd 1131 0b3f 0000 0000
00000040: 105e 783e f1fe 143f 9cc5 893e a142 d43e
00000050: 46ad 063e 95ee 063f 0000 0000 0dde c13d
00000060: 5a0a e9bb 1e72 05bd 3c24 e73e 9ded 64bd

exp_avg_sq f4 [4, 7]
0.64937866 0.0 0.13634568 0.16470721 0.06403315 0.3853856 0.003321958 1.2497194
0.0 0.24804913 0.28226027 0.13713445 0.87264806 0.007847678 6.360978 0.0
0.3213213 0.23590103 0.09612167 4.3848777 0.026762709 4.756782 0.0 0.08038846
0.23622015 0.081753425 3.205472 0.017931124
00000000: ae3d 263f 0000 0000 349e 0b3e 02a9 283e
00000010: d023 833d 4351 c53e 35b5 593b cef6 9f3f
00000020: 0000 0000 9700 7e3e 6b84 903e f96c 0c3e
00000030: dd65 5f3f 8c93 003c 228d cb40 0000 0000
00000040: 3a84 a43e 0a90 713e 70db c43d eb50 8c40
00000050: 783d db3c 8f37 9840 0000 0000 b4a2 a43d
00000060: b2e3 713e 576e a73d 7426 4d40 4be4 923c

exp_avg f4 [4]
-0.7769738 -1.2059329 1.3682789 0.61462796
00000000: c1e7 46bf 025c 9abf c323 af3f 4258 1d3f

exp_avg_sq f4 [4]
0.94161683 1.823513 7.222024 5.1294045
00000000: cd0d 713f e068 e93f d21a e740 1524 a440
