result/saved_models/rl/reinforce/k_policy/setcovering/t_node10s-t_total600s/seed100/checkpoint_trained_reward3_simplepolicy_rl4lb_reinforce_trainset_setcovering-large_0.1trainset_lr0.01_epochs49.pth (torch, 10441 bytes, 6 tensors)

linear1.0.weight f4 [4, 7]
000000 b9 7a 64 bf d5 54 df 3e 15 eb 1c bc 27 3c 16 be
       -0.8924976 0.4361941 -0.009577532 -0.14671384
000010 b2 a6 e4 be 53 fc 47 bf 9e 5d 89 3e 2f f4 65 bf
       -0.44658428 -0.7811939 0.26829237 -0.8982572
000020 88 ab 9d bd 60 51 8c 3e 24 b4 be 3c 67 e3 3a 3e
       -0.076987326 0.27405834 0.023279257 0.1825081
000030 bd 33 21 be 17 11 64 3e 28 3a 3d 3f 83 ae 6c be
       -0.15742393 0.22272144 0.73916864 -0.23113446
000040 16 f0 11 3f 15 10 ca be cc 3a b0 be be 20 3d 3f
       0.5700697 -0.39465395 -0.34419858 0.73878086
000050 5e 46 b4 3e b8 06 fa 3e 70 fe 3f be ab 4b 6e bf
       0.35209936 0.4883325 -0.18749404 -0.9308421
000060 9b e9 16 3f 9d af ee be 46 89 f8 3e ac 31 a7 3d
       0.58950204 -0.46618357 0.4854223 0.08163771

linear1.0.bias f4 [4]
000000 2f 96 a3 be 7e 33 52 3e 8c ad 4d 3e b7 23 b1 be
       -0.31950518 0.20527455 0.20085734 -0.3459756

exp_avg f4 [4, 7]
000000 64 a2 35 bd 00 00 00 00 49 ee d5 bd 3b 8d 80 bc
       -0.04434432 0.0 -0.1044584 -0.015692344
000010 25 a1 01 bd 2b 08 eb bd df 82 dc bb 88 89 07 bd
       -0.03164782 -0.11476167 -0.0067294682 -0.033090144
000020 00 00 00 00 ec 4a 32 3d 7f 0c 16 be 02 da dc 3d
       0.0 0.043528482 -0.14653204 0.10783769
000030 4e 71 97 bd 4b 95 1b bd cd 8b 1f c0 00 00 00 00
       -0.07394658 -0.037984174 -2.4929078 0.0
000040 99 ac 18 3e 75 cf 03 3e 7f bd 83 bc 0c bb ea bf
       0.14909591 0.12872107 -0.01608157 -1.8338332
000050 cc 9c 7b 3c 7c 80 24 40 00 00 00 00 64 90 b4 bd
       0.0153572075 2.570342 0.0 -0.08816603
000060 cb 3a 09 3d 1a 34 76 bd 51 71 01 40 ee 7c f0 3c
       0.033503335 -0.06010828 2.0225413 0.029356446

exp_avg_sq f4 [4, 7]
000000 af 6d e0 3e 00 00 00 00 1d e5 1a 3d ab ef 2d 3d
       0.43833682 0.0 0.037816156 0.042464893
000010 59 28 66 3c 4a 7c 58 3e 14 47 8f 3a 75 c9 21 3f
       0.014047706 0.21141163 0.0010931217 0.63198024
000020 00 00 00 00 bd d9 84 3d f9 11 d7 3d 98 bd 5b 3d
       0.0 0.06486843 0.10501475 0.053647608
000030 45 57 c4 3e b5 bd 1f 3b ec 91 45 40 00 00 00 00
       0.3834783 0.0024374549 3.0870314 0.0
000040 78 c3 cb 3d ec 6d 91 3d 9c a2 25 3d f1 1d e9 3f
       0.09949392 0.07101044 0.04043828 1.8212262
000050 cf 9b f7 3b 6f d6 35 40 00 00 00 00 d5 3a 52 3d
       0.0075564156 2.841213 0.0 0.051325638
000060 f2 cd 95 3d 3b 37 06 3d d2 b7 db 3f 3b 0e c7 3b
       0.073146716 0.032767516 1.7165473 0.0060746945

exp_avg f4 [4]
000000 6a 71 28 be 23 5c 0b be 0c c4 0d c0 e5 00 21 40
       -0.16449514 -0.13609366 -2.2150908 2.5156796

exp_avg_sq f4 [4]
000000 be 28 01 3f 76 20 57 3f 19 9c 63 40 0f aa 3e 40
       0.5045279 0.84033906 3.5564024 2.9791296
