result/saved_models/rl/reinforce/k_policy/setcovering/t_node10s-t_total600s/seed100/checkpoint_trained_reward3_simplepolicy_rl4lb_reinforce_trainset_setcovering-large_0.1trainset_lr0.01_epochs142.pth (torch, 25353 bytes, 6 tensors)

linear1.0.weight f4 [4, 7]
000000 26 b0 7b bf d5 54 df 3e 9f 53 20 3e b1 28 29 3e
       -0.98315656 0.4361941 0.15656899 0.16519429
000010 b2 12 8b be ba 14 5f bf 71 1c 5b 3e 37 fd 93 bf
       -0.271627 -0.87141 0.21397568 -1.156165
000020 88 ab 9d bd 75 91 96 3e 53 43 90 3d 9a ba 05 3e
       -0.076987326 0.2940785 0.07044091 0.13059464
000030 7d 98 c1 be b8 3d 4f 3e 16 e0 75 3f 83 ae 6c be
       -0.37811652 0.20238388 0.96045053 -0.23113446
000040 1d 76 00 3f 7e 57 14 bf 47 bd 9b be f7 37 74 3f
       0.50180227 -0.57946 -0.30417845 0.95397896
000050 95 6f 70 3e 09 7a d4 3e 70 fe 3f be 20 34 81 bf
       0.23480065 0.41499355 -0.18749404 -1.0094032
000060 23 e9 fc 3e b2 a3 0d bf e9 35 cb 3e da 69 84 3e
       0.4939662 -0.55327904 0.39689568 0.25862008

linear1.0.bias f4 [4]
000000 d1 ac 7b be 70 c1 14 3c bf 83 bb 3e d4 7f e2 be
       -0.24577643 0.009079322 0.36623952 -0.4423815

exp_avg f4 [4, 7]
000000 57 82 84 3e 00 00 00 00 18 90 d4 bc 10 f8 8a 3d
       0.2588069 0.0 -0.025947616 0.067855954
000010 46 22 3c bd eb 78 86 3e bf 57 15 bc be f7 a1 3e
       -0.045931123 0.26264128 -0.009115159 0.31634325
000020 00 00 00 00 89 24 81 3e cb da 64 3d 9d 44 ba 3d
       0.0 0.25223187 0.05587272 0.09095118
000030 75 ce 91 3e 9a f6 27 3d f7 26 71 bf 00 00 00 00
       0.28477827 0.041006662 -0.9420008 0.0
000040 34 01 aa be 40 e5 1c be 1f cc f7 bd e3 41 74 bf
       -0.33204043 -0.15321827 -0.1209948 -0.95413035
000050 dc 1e c7 bc db d3 bb 3e 00 00 00 00 c0 96 d8 3d
       -0.024306707 0.3668507 0.0 0.10575628
000060 4e 94 f1 3c a3 98 9b 3d 66 3c d0 3e e7 89 f8 bb
       0.029489662 0.075974725 0.4067108 -0.0075847986

exp_avg_sq f4 [4, 7]
000000 7d 10 19 3f 00 00 00 00 1e 01 e3 3d e7 72 04 3e
       0.59790784 0.0 0.110841975 0.12934457
000010 17 b4 44 3d fd 09 ae 3e dd ac 22 3b 75 9c 88 3f
       0.04802331 0.33991995 0.0024822273 1.0672747
000020 00 00 00 00 f0 21 64 3e 47 7e 65 3e c1 1c f5 3d
       0.0 0.22278571 0.22411452 0.11968375
000030 38 2b 39 3f af 36 d7 3b 50 1b a9 40 00 00 00 00
       0.7233157 0.006567798 5.284584 0.0
000040 b0 4e 89 3e 27 d6 4d 3e 4e 68 a7 3d 1e 01 5f 40
       0.26817846 0.20101224 0.081741914 3.4844432
000050 7f f1 b0 3c 0d d2 85 40 00 00 00 00 fe a1 93 3d
       0.02159953 4.181891 0.0 0.07208632
000060 73 6f 40 3e 91 f5 90 3d 92 8d 2d 40 04 bd 7a 3c
       0.18792515 0.07078088 2.7117658 0.015303854

exp_avg f4 [4]
000000 5c f7 99 3e d1 db 1f 3f 72 b0 b6 bf 68 89 00 3f
       0.30071533 0.6244479 -1.4272597 0.50209665

exp_avg_sq f4 [4]
000000 74 95 51 3f 51 83 c7 3f 76 19 c0 40 52 d9 8d 40
       0.8186867 1.558695 6.003108 4.4327784
