result/saved_models/rl/reinforce/t_policy/generalized_independentset/t_node10s-t_total600s/checkpoint_rl4lb_trained_-t_policy-simplepolicy-reward_k_reinforce_0.1trainset_generalized_independentset-small_firstsol_0.1trainset_lr0.01.pth (torch, 19909 bytes, 6 tensors)

linear1.0.weight f4 [4, 7]
-1.2690831 0.81928694 -0.082925335 -0.47273466 -0.16734704 0.3939149 -0.376747 -0.7807656
0.19214334 -0.34509262 0.09903672 0.6454474 -1.2218335 -0.6852442 -0.19591418 -1.0434268
0.91431224 1.380918 0.17958021 -0.38859525 0.52502453 0.50643426 -0.24094597 -0.46737775
-0.012636366 -0.24520916 0.13901271 0.12600413
00000000: 5171 a2bf cabc 513f c2d4 a9bd 470a f2be
00000010: 065d 2bbe 37af c93e fce4 c0be 41e0 47bf
00000020: 39c1 443e fbaf b0be c4d3 ca3d 0a3c 253f
00000030: 0a65 9cbf 2a6c 2fbf ba9d 48be 028f 85bf
00000040: 5e10 6a3f ecc1 b03f e0e3 373e f5f5 c6be
00000050: 0268 063f ada5 013f 8aba 76be 234c efbe
00000060: c308 4fbc 1c18 7bbe 5959 0e3e 3a07 013e

linear1.0.bias f4 [4]
-0.61662394 0.06120337 0.10132122 0.13088271
00000000: 11db 1dbf 63b0 7a3d 8081 cf3d 1e06 063e

exp_avg f4 [4, 7]
0.19106892 -0.14777097 0.09719549 0.01417219 -0.12690333 -0.0045487285 0.15741125 0.25353265
0.05800187 0.28099328 0.17467953 0.20388931 0.2035389 0.14683357 0.67345196 0.15664825
-0.47468898 -0.093245104 0.09871966 0.29929483 0.117949225 -1.1180534 -0.06687919 0.09650028
-0.0956066 -0.1757056 -0.49828494 -0.42219415
00000000: 92a7 433e 4651 17be 6e0e c73d 7932 683c
00000010: f2f2 01be 800d 95bb 6a30 213e 08cf 813e
00000020: 5e93 6d3d 5ade 8f3e 31df 323e 5cc8 503e
00000030: 806c 503e 8a5b 163e 5967 2c3f 6668 203e
00000040: 6f0a f3be 4af7 bebd 882d ca3d 2c3d 993e
00000050: 5d8f f13d 601c 8fbf f5f7 88bd f0a1 c53d
00000060: 65cd c3bd 2bec 33be 341f ffbe d529 d8be

exp_avg_sq f4 [4, 7]
0.69257027 0.12757885 1.1740239 0.073443286 0.14361134 0.5670778 0.4083688 0.9913821
0.09519027 1.5219389 0.5784686 0.29041535 0.5911496 0.5199579 4.357396 0.044481646
2.661595 0.8039371 0.25664514 2.8267572 3.0544236 4.0183535 0.09504327 1.2305928
0.24428634 0.1376936 2.965112 2.9407363
00000000: 494c 313f 08a4 023e 6a46 963f 6f69 963d
00000010: da0e 133e 032c 113f b715 d13e 38cb 7d3f
00000020: 1ef3 c23d e5ce c23f 8516 143f 52b1 943e
00000030: 9555 173f f61b 053f ca6f 8b40 6332 363d
00000040: 9357 2a40 d2ce 4d3f fe66 833e 97e9 3440
00000050: ad7b 4340 5a96 8040 0ca6 c23d 1184 9d3f
00000060: 3326 7a3e 8dff 0c3e 65c4 3d40 0635 3c40

exp_avg f4 [4]
0.1546656 0.7672072 0.26216614 -1.184039
00000000: a960 1e3e b167 443f a43a 863e 978e 97bf

exp_avg_sq f4 [4]
2.0512912 3.651958 7.8788886 5.354091
00000000: 5b48 0340 aeb9 6940 db1f fc40 b754 ab40
