result/saved_models/rl/reinforce/t_policy/generalized_independentset/t_node10s-t_total600s/checkpoint_rl4lb_trained_-t_policy-simplepolicy-reward_k+t_reinforce_0.1trainset_generalized_independentset-small_firstsol_0.1trainset_lr0.1.pth (torch, 6405 bytes, 6 tensors)

linear1.0.weight f4 [4, 7]
000000 a5 03 24 c0 b3 e9 7c 3f 85 3d 07 3f ae 73 21 bf
       -2.5627224 0.98794097 0.52828246 -0.6306714
000010 55 a6 00 be 43 29 a6 3f f8 08 62 bf d8 79 13 c0
       -0.1256345 1.2981342 -0.88294935 -2.3043118
000020 33 94 15 3f 3e 2b 55 bf 52 af d1 3d 4f 39 d3 3e
       0.5842926 -0.8326911 0.10238518 0.4125466
000030 a4 40 a4 bf d2 84 d7 bf 1f ed a1 bf 09 a3 2d be
       -1.2832227 -1.6837409 -1.2650489 -0.16956724
000040 95 d7 a4 3f 5d 20 b7 3f 43 3c 55 3f c3 04 ab bf
       1.287829 1.4306751 0.8329508 -1.3360828
000050 51 15 b1 3e c0 f3 0c 40 90 85 53 bf b9 57 75 bf
       0.34586576 2.2023773 -0.82625675 -0.9583698
000060 fe c6 4a be e4 49 7f bf 95 f4 18 3f f0 06 a1 3f
       -0.19802472 -0.99722123 0.597482 1.2580242

linear1.0.bias f4 [4]
000000 59 a6 3c bf 3b 7a 9a 3d a9 71 aa 3e 07 c2 f0 3c
       -0.73691326 0.07542845 0.3328984 0.029389394

exp_avg f4 [4, 7]
000000 3f c2 80 3d 14 6c 99 bd 09 ed ca be 1d 4e 04 be
       0.062870495 -0.074913174 -0.39633968 -0.12920423
000010 2b 04 51 bd b7 20 16 bd ed 55 bd 3d b4 d0 9c 3d
       -0.051029366 -0.036652293 0.09244905 0.076569945
000020 52 ce 50 bc 6f 5f 14 3f 8a 83 70 3e 4f 2b 83 bd
       -0.012744503 0.5795812 0.23487678 -0.06404745
000030 11 5d aa 3d cc 18 4f 3d 3e 21 e3 3d 30 1b 6b bd
       0.08318532 0.050560758 0.11090325 -0.057398975
000040 c8 5b 05 bf 82 47 2c bf d1 dd bb bd a0 56 8b bc
       -0.5209317 -0.6729661 -0.091731675 -0.01700908
000050 23 be 04 be 0d 2d 80 be bb 89 14 3e bb e5 ac 3e
       -0.12963156 -0.2503437 0.14505665 0.3376902
000060 26 3a 11 3f 9d c5 53 3e ee db f1 bc 77 30 5b bc
       0.5672935 0.20680852 -0.029523816 -0.013378254

exp_avg_sq f4 [4, 7]
000000 e5 f9 4b 3b de 45 f2 3c 39 b2 dd 3e ce ba f3 3c
       0.003112429 0.02957433 0.43300036 0.029752161
000010 e5 22 f1 3c 28 1b c2 3d 70 5b 00 3d 64 89 c5 3b
       0.029435584 0.09477836 0.0313372 0.006028341
000020 db 01 23 3d 42 70 4d 3e 92 82 87 3e b6 bc da 3d
       0.03979669 0.20062354 0.26466805 0.10680525
000030 5a 3f 4e 3d 8c 09 7f 3c 8c ff 5d 3c 47 e8 5b 3b
       0.050353386 0.015566241 0.013549697 0.0033555196
000040 19 ed 1e 3f 68 68 79 3e 3a 7e c2 3d f1 72 69 3d
       0.6208053 0.24356234 0.09496732 0.056994382
000050 c9 11 34 3d 91 4c 42 3d 4e 12 83 3c 35 72 87 3e
       0.043962274 0.0474363 0.01599994 0.2645432
000060 53 9e e9 3d 55 b1 d7 3c eb 0d ca 3c b4 0d b9 3c
       0.11407151 0.026329676 0.02466484 0.022589542

exp_avg f4 [4]
000000 4a 9f 09 bf 2c d7 60 3f 6c f8 91 bf ef b8 4c 3f
       -0.5375868 0.87828326 -1.1403937 0.79969686

exp_avg_sq f4 [4]
000000 8f e6 1f 3f 21 39 f8 3e 36 4e 45 3f 6a 24 b4 3e
       0.6246118 0.48481086 0.77072465 0.35184032
