result/saved_models/rl/reinforce/t_policy/generalized_independentset/t_node10s-t_total600s/checkpoint_rl4lb_trained_-t_policy-simplepolicy-reward_k_reinforce_0.1trainset_generalized_independentset-small_firstsol_0.1trainset_lr0.1.pth (torch, 59013 bytes, 6 tensors)

linear1.0.weight f4 [4, 7]
-1.0293916 -0.6155716 -1.3749815 -1.6995581 -1.0935153 -0.17635737 -0.63854843 -0.45490858
-0.29822674 -2.0115228 -1.466788 -0.55091125 -1.0379164 -2.1633987 -1.5885341 -0.046240956
-0.667313 4.6863146 0.53974783 -4.2522516 -3.5525715 1.0564994 1.0696054 2.7579823
-2.5561986 1.3883796 1.8030834 2.9555707
00000000: 1bc3 83bf 1a96 1dbf 65ff afbf 1f8b d9bf
00000010: 4ff8 8bbf 0797 34be e977 23bf c7e9 e8be
00000020: 2db1 98be cabc 00c0 b6bf bbbf 8508 0dbf
00000030: 72da 84bf 2075 0ac0 1655 cbbf 2867 3dbd
00000040: 06d5 2abf 4af6 9540 ea2c 0a3f 7212 88c0
00000050: 555d 63c0 5f3b 873f d4e8 883f c882 3040
00000060: c298 23c0 6cb6 b13f 70cb e63f 1228 3d40

linear1.0.bias f4 [4]
-1.6690768 -1.8534268 0.42596608 1.9935205
00000000: 4fa4 d5bf 173d edbf 3a18 da3e ae2b ff3f

exp_avg f4 [4, 7]
0.0013499795 -0.0012822594 -0.0076088896 0.00024700642 -0.00063271646 -0.0009202504 0.0003482544 0.0034621358
0.0037646529 0.0005751883 0.00027067226 0.0013773707 -8.9842644e-05 0.00041966655 0.0028164834 -0.0046369163
0.019253511 -0.003809617 0.00092246465 -0.0011995288 0.0027719927 -0.007628599 0.0021545235 -0.012219808
0.0032919378 -0.0016671199 0.0022096229 -0.0035399136
00000000: ccf1 b03a 7c11 a8ba fe53 f9bb a480 8139
00000010: e2dc 25ba f53c 71ba ea95 b639 00e5 623b
00000020: 65b8 763b 3cc8 163a 04e9 8d39 e488 b43a
00000030: e769 bcb8 b106 dc39 c094 383b 46f1 97bb
00000040: 8ab9 9d3c c4aa 79bb 8ed1 713a 8239 9dba
00000050: 52aa 353b 54f9 f9bb e832 0d3b 9735 48bc
00000060: 8dbd 573b 4383 daba 52cf 103b e5fd 67bb

exp_avg_sq f4 [4, 7]
0.6321124 0.01859259 0.28557613 0.034999378 0.018582141 0.33566308 0.3682661 0.28716284
0.016285567 0.20424141 0.11172297 0.047269206 0.14492148 0.062024027 0.5262882 0.014498932
1.9031327 0.5400872 0.17367071 0.083966404 0.10058307 0.9468125 0.04088907 1.7849767
0.40818083 0.17075244 0.48480302 0.3842839
00000000: 1ed2 213f 7d4f 983c 0937 923e 825b 0f3d
00000010: 9339 983c 08dc ab3e 608d bc3e 0207 933e
00000020: 4f69 853c a924 513e 03cf e43d 5b9d 413d
00000030: 4c66 143e e80c 7e3d d3ba 063f ee8c 6d3c
00000040: da99 f33f 2843 0a3f bcd6 313e 94f6 ab3d
00000050: 7ffe cd3d 4e62 723f 4c7b 273d 1e7a e43f
00000060: 14fd d03e bad9 2e3e 1a38 f83e dcc0 c43e

exp_avg f4 [4]
-0.007294162 0.008072649 0.013623458 -0.014401947
00000000: de03 efbb 2543 043c ed34 5f3c 25f6 6bbc

exp_avg_sq f4 [4]
1.0508668 0.57204187 2.980429 3.2451553
00000000: ce82 863f 5671 123f 59bf 3e40 a0b0 4f40
