result/saved_models/rl/reinforce/t_policy/setcovering/t_node10s-t_total200s/checkpoint_rl4lb_trained_-t_policy-simplepolicy-reward_k_reinforce_0.1trainset_setcovering-large_firstsol_0.1trainset_lr0.0001.pth (torch, 26950 bytes, 6 tensors)

linear1.0.weight f4 [4, 7]
-0.79375213 0.5868384 -0.14074992 0.0032106289 -0.24322845 0.6874345 0.044255607 -0.45870474
0.07653477 -0.21860358 0.11693266 0.49439198 -1.094027 -0.4270931 -0.3489361 -0.9566274
0.8319872 1.203167 0.18258028 -0.4816505 0.402811 0.37510487 0.109438576 -0.35648507
-0.02548623 0.010011203 0.09851455 0.027081454
00000000: 5733 4bbf 0b3b 163f bf20 10be 6a69 523b
00000010: e110 79be b5fb 2f3f 5e45 353d 59db eabe
00000020: 43be 9c3d 9ed9 5fbe 647a ef3d f220 fd3e
00000030: 1409 8cbf f2ab dabe c1a7 b2be 89e5 74bf
00000040: 1dfd 543f 6001 9a3f 53f6 3a3e e59a f6be
00000050: 3e3d ce3e bf0d c03e 5521 e03d 3685 b6be
00000060: 80c8 d0bc 0706 243c ffc1 c93d edd9 dd3c

linear1.0.bias f4 [4]
-0.34891364 0.31368774 -0.14314649 0.092264876
00000000: cfa4 b2be ae9b a03e fe94 12be 5ef5 bc3d

exp_avg f4 [4, 7]
0.5217349 0.0 -0.0803586 0.03611649 0.054467287 0.50074023 0.04757675 0.5607801
0.0 0.20809217 0.19644244 0.13399932 0.1771951 0.054867126 -0.68588567 0.0
0.09379521 -0.14832616 -0.26195404 -0.26417953 -0.089028 -0.39662915 0.0 -0.22152875
-0.084232695 0.07348747 -0.4137557 -0.013415913
00000000: 6b90 053f 0000 0000 0d93 a4bd e2ee 133d
00000010: 1719 5f3d 8330 003f d7df 423d 498f 0f3f
00000020: 0000 0000 1d16 553e 3528 493e 1e37 093e
00000030: a272 353e 5abc 603d 3496 2fbf 0000 0000
00000040: b417 c03d d0e2 17be d71e 86be 8a42 87be
00000050: 5054 b6bd fa12 cbbe 0000 0000 6fd8 62be
00000060: 3182 acbd 9980 963d cad7 d3be 6bce 5bbc

exp_avg_sq f4 [4, 7]
1.4524845 0.0 0.11513638 0.14804953 0.035215016 0.66121924 0.013646951 1.0494112
0.0 0.102019705 0.30357414 0.10079718 0.43438852 0.008852465 1.2632244 0.0
0.14859213 0.37731534 0.12874976 0.5356731 0.016558157 2.6474917 0.0 0.10781948
0.1981736 0.06181846 1.1862235 0.02132094
00000000: 03eb b93f 0000 0000 9fcc eb3d 4c9a 173e
00000010: 9f3d 103d aa45 293f 7697 5f3c 1b53 863f
00000020: 0000 0000 b5ef d03d 126e 9b3e c06e ce3d
00000030: 2c68 de3e ee09 113c 56b1 a13f 0000 0000
00000040: 8928 183e 7a2f c13e fad6 033e df21 093f
00000050: f9a4 873c 8170 2940 0000 0000 76d0 dc3d
00000060: 05ee 4a3e 5a35 7d3d 2cd6 973f 41a9 ae3c

exp_avg f4 [4]
0.47749272 0.9653147 -0.74041665 -0.7023906
00000000: ed79 f43e dd1e 773f f28b 3dbf dfcf 33bf

exp_avg_sq f4 [4]
1.6234539 1.527108 1.7765702 3.084465
00000000: 56cd cf3f 4678 c33f a766 e33f e067 4540
