result/saved_models/rl/reinforce/setcovering/checkpoint_trained_reward3_simplepolicy_rl4lb_reinforce_trainset_setcovering-small_0.1trainset_lr0.01_epochs75.pth (torch, 14699 bytes, 6 tensors)

linear1.0.weight f4 [4, 7]
0	0xbf82e402	-1.0225832
1	0x3f24da91	0.64396006
2	0x3f1dd250	0.61649036
3	0x3eeb2145	0.4592382
4	0x3e27d8ee	0.16391346
5	0xbf49aeab	-0.7878215
6	0x3f414b86	0.75505865
7	0xbf74e46d	-0.9566105
8	0xbe91cb3a	-0.28475362
9	0x3e5f3d2b	0.21800677
10	0xbe802278	-0.25026298
11	0x3e7095fb	0.23494713
12	0xbedfa97e	-0.43684
13	0x3ce1ea0f	0.027577428
14	0x3f9298f0	1.1452923
15	0xbcbf6eba	-0.023368228
16	0x3e2d32dd	0.16913934
17	0xbed27928	-0.4110806
18	0xbf2d0fa7	-0.6760201
19	0x3f9a6bd2	1.2064154
20	0x3e90bb6b	0.2826799
21	0x3d46cda7	0.04853597
22	0x3ca611e9	0.020272212
23	0xbf8007c5	-1.0002371
24	0x3eb93fee	0.36181587
25	0xbeded08c	-0.43518484
26	0x3d9773d7	0.073951416
27	0xbcde85c8	-0.027163401

linear1.0.bias f4 [4]
0	0x3e8f1f95	0.27953783
1	0x3dd66c17	0.10469835
2	0x3eb5aef9	0.35485056
3	0xbf671c88	-0.9027791

exp_avg f4 [4, 7]
0	0xbdc59fc6	-0.09649615
1	0x970f2df3	-4.626379e-25
2	0x3c89f0ab	0.016838392
3	0x3dcac4e6	0.09900837
4	0xbd815375	-0.06314746
5	0xbdb3fd8f	-0.08788597
6	0x3cc8afb7	0.02449785
7	0xbe5e43a0	-0.21705484
8	0x1788e910	8.847627e-25
9	0xbca39669	-0.019969182
10	0xbd391fac	-0.04519622
11	0x3c670fc6	0.014102882
12	0xbe3643c4	-0.17799288
13	0xbcd9e86a	-0.026600081
14	0x3e980b3a	0.29696065
15	0x9675ddea	-1.9860966e-25
16	0xbdb60bf4	-0.08888999
17	0xbd0d8a62	-0.0345558
18	0xbc9b2140	-0.018936753
19	0x3e83f762	0.25774676
20	0xb90c0080	-0.00013351627
21	0x3c87e868	0.016590312
22	0x968a5993	-2.2351632e-25
23	0x3dbc7566	0.092020795
24	0xbc9dbf79	-0.01925634
25	0x3d8b39cd	0.06798134
26	0x3c053c58	0.008132063
27	0x3b128544	0.0022357265

exp_avg_sq f4 [4, 7]
0	0x3e2e10e9	0.16998638
1	0x38c00fd2	9.15822e-05
2	0x3ee3bf29	0.4448178
3	0x3e42292c	0.18961018
4	0x3d5cf555	0.053944904
5	0x3e1c2241	0.15247442
6	0x3d1d317d	0.038377274
7	0x3ebba66f	0.36650416
8	0x39af9c91	0.00033495252
9	0x3ee68bf9	0.45028666
10	0x3e31ee8e	0.17376158
11	0x3d890cbd	0.06691883
12	0x3eb84adc	0.35994613
13	0x3d2a3228	0.04155174
14	0x3f76b151	0.96364313
15	0x378d95fe	1.6878355e-05
16	0x3ef0fd3d	0.47068205
17	0x3e24ead7	0.1610521
18	0x3d4499fe	0.04799842
19	0x3f673192	0.90310013
20	0x3d640815	0.05567177
21	0x3f0ee5d8	0.55819464
22	0x37b352e1	2.1377056e-05
23	0x3da6f5e2	0.08152367
24	0x3e0f9a28	0.1402365
25	0x3d0f4a87	0.034983184
26	0x3ef7ccd3	0.48398456
27	0x3cac163a	0.021006692

exp_avg f4 [4]
0	0x3c9e851a	0.019350577
1	0xbe907f2e	-0.2822203
2	0x3e31ade2	0.17351487
3	0x3db6ffa4	0.08935478

exp_avg_sq f4 [4]
0	0x3f5923b6	0.84820116
1	0x3f7b4900	0.98158264
2	0x3fc440dc	1.5332294
3	0x3f48cdab	0.78438824
