result/saved_models/rl/reinforce/setcovering/checkpoint_trained_reward3_simplepolicy_rl4lb_reinforce_trainset_setcovering-small_0.1trainset_lr0.01_epochs56.pth (torch, 11627 bytes, 6 tensors)

linear1.0.weight f4 [4, 7]
000000 33 6a 87 bf 91 da 24 3f fd 01 06 3f 78 0a 87 3e
       -1.0579284 0.64396006 0.52346784 0.26375175
000010 7d 4b b9 3c 54 9b 5a bf b4 b8 0d 3f f9 b5 61 bf
       0.022619003 -0.8539326 0.5535996 -0.88168293
000020 3a cb 91 be 84 5f 1c 3e a6 32 64 be 38 22 86 3e
       -0.28475362 0.15270811 -0.22284946 0.26197982
000030 cc f4 9e be 44 b8 06 3e d2 80 91 3f ba 6e bf bc
       -0.3104614 0.1315623 1.1367438 -0.023368228
000040 7b e4 89 3e 33 5c ac be 5a 0c 1d bf 04 ed 98 3f
       0.2693213 -0.33664092 -0.6134697 1.1947331
000050 72 a1 9e 3e 29 78 94 3c e9 11 a6 3c 86 ae 63 bf
       0.30982548 0.018123703 0.020272212 -0.88938177
000060 de 44 eb 3e b7 18 c0 be 46 01 82 3c 23 3e ea 3c
       0.4595098 -0.37518856 0.015869748 0.028594082

linear1.0.bias f4 [4]
000000 02 5c c8 3d f3 ea f6 3d 68 c6 d8 3e 5d a0 59 bf
       0.09783174 0.12056532 0.42338872 -0.8501032

exp_avg f4 [4, 7]
000000 b2 fc 43 be 74 46 41 ab b0 b7 3b 3e 24 17 02 be
       -0.19139364 -6.866515e-13 0.1833179 -0.1270414
000010 1d bc 1e bd 9c 64 3e be 3d d7 ba 3d 93 58 74 3a
       -0.038753618 -0.18593067 0.09123085 0.000932106
000020 1a d0 b8 2b 40 c6 3b be c8 81 69 3e 36 9a 7f 3d
       1.3131746e-12 -0.18337345 0.22803414 0.062402926
000030 4d 07 1e 3d f6 a3 a1 bd 10 7f 92 3e 0a f2 a5 aa
       0.03858118 -0.07892601 0.28612566 -2.9477836e-13
000040 42 51 75 3d 04 9e 3f bd e3 ef 2c bb 5a d5 63 3e
       0.059891947 -0.046781555 -0.00263881 0.22249356
000050 64 b0 de 3b 8a eb c3 bd 89 c1 ba aa f7 16 75 bd
       0.0067959297 -0.0956641 -3.317453e-13 -0.059836354
000060 89 0c 5e bd 37 1e ac bc 24 e5 99 bd 3b 79 9c bc
       -0.054211173 -0.021010501 -0.07514408 -0.019100776

exp_avg_sq f4 [4, 7]
000000 a0 ff 25 3e 45 9f fa 38 4e c7 b2 3e 2f 51 29 3e
       0.16210794 0.00011950595 0.34917682 0.16534875
000010 f2 ed 50 3d 7a f5 15 3e 37 46 fa 3c e3 4b d0 3e
       0.051008172 0.14644423 0.03055106 0.40682897
000020 06 28 e5 39 b4 d0 d3 3e a2 82 36 3e dd f2 92 3d
       0.00043708103 0.41370165 0.1782327 0.07175229
000030 b1 3f cf 3e e9 e0 21 3d bc 50 87 3f 85 c1 b8 37
       0.4047828 0.03952113 1.0571513 2.2024624e-05
000040 1a 47 d4 3e c3 ca 1a 3e 3f ec 55 3d 48 9b 7e 3f
       0.41460496 0.1511641 0.052227255 0.9945569
000050 13 13 65 3d 52 b7 20 3f 1f 00 ea 37 7a c8 99 3d
       0.055926394 0.62779725 2.789503e-05 0.07508941
000060 d4 0b 16 3e ba 4c 13 3d 7a b1 0c 3f 18 dc b4 3c
       0.1465295 0.035961844 0.5495831 0.022077605

exp_avg f4 [4]
000000 28 5c 0a be 7c bf 3a 3d 76 35 99 3e a5 be 56 be
       -0.13511717 0.04559277 0.299236 -0.20971163

exp_avg_sq f4 [4]
000000 c9 05 2f 3f d5 4b 7c 3f 5b 29 c9 3f 1f e0 5b 3f
       0.683682 0.9855321 1.5715746 0.85888857
