result/saved_models/rl/reinforce/setcovering/checkpoint_trained_reward3_simplepolicy_rl4lb_reinforce_trainset_setcovering-small_0.1trainset_lr0.01_epochs18.pth (torch, 5547 bytes, 6 tensors)

linear1.0.weight f4 [4, 7]
000000 6d 3a 55 bf d5 54 df 3e be e6 d6 3d 11 17 40 3e
       -0.83292276 0.4361941 0.10493229 0.18758799
000010 a9 a6 a6 3a 5d 4a 34 bf 77 ce bd 3e 12 0e 55 bf
       0.0012714464 -0.7042597 0.37071583 -0.83224595
000020 88 ab 9d bd 53 0e 7b 3e b1 01 ce bd 57 41 77 3e
       -0.076987326 0.24517183 -0.10058916 0.24146019
000030 81 ee 24 be 8c f8 71 3e 75 4c 5a 3f 83 ae 6c be
       -0.16106607 0.2362997 0.85272914 -0.23113446
000040 ff 09 e2 3e 73 de f1 be bb a9 d5 be ba 7b 61 3f
       0.4414825 -0.47240028 -0.41731057 0.88079417
000050 84 fe 8f 3e e2 ff 67 3e 70 fe 3f be 9d 2d 4c bf
       0.28123868 0.22656205 -0.18749404 -0.797571
000060 f2 11 09 3f 41 40 16 bf 7b 07 6a 3e 9d 75 af 3d
       0.5354301 -0.58691794 0.22854416 0.08567355

linear1.0.bias f4 [4]
000000 db e2 76 bd 53 3b 90 3e d0 a1 54 3e 3d 4b 1b bf
       -0.06027494 0.2817026 0.20764852 -0.6066168

exp_avg f4 [4, 7]
000000 e1 72 14 bc 00 00 00 00 bf 4d b2 3d d8 c4 38 bb
       -0.009060592 0.0 0.08706235 -0.00281935
000010 e9 ce b4 bc 84 c5 f9 3c 19 1d 74 3d c6 99 bf 3d
       -0.022071319 0.03048969 0.059598062 0.09355502
000020 00 00 00 00 88 42 77 be 33 db 76 3d 65 e6 1a bc
       0.0 -0.24146473 0.06026764 -0.009454344
000030 8a 12 b6 3d 18 a9 83 3c 3c d7 08 be 00 00 00 00
       0.08890255 0.016071841 -0.13363355 0.0
000040 12 44 16 3e c2 a6 58 3e 33 e1 67 3d db 64 50 be
       0.14674404 0.21157363 0.05661125 -0.20350973
000050 78 af 3c bd 1e 46 49 3d 00 00 00 00 14 f3 fa 3b
       -0.046065778 0.049139135 0.0 0.0076583717
000060 3d bd 89 be 4c 80 cd bc c8 45 ac 3d 60 84 f2 bc
       -0.2690219 -0.02508559 0.08411747 -0.029604137

exp_avg_sq f4 [4, 7]
000000 24 c2 05 3e 00 00 00 00 26 27 ca 3d 87 15 b1 3d
       0.1306234 0.0 0.09870748 0.08646684
000010 0f 9d c3 3c f6 16 e6 3d ef 86 24 3c e2 18 9d 3e
       0.023878602 0.11234848 0.010041936 0.30683047
000020 00 00 00 00 fc 0f 34 3e af 90 d6 3d 47 12 2f 3d
       0.0 0.17584223 0.10476815 0.04274204
000030 99 ea 8f 3e 79 14 9e 3c 8a 7c 50 3f 00 00 00 00
       0.2810867 0.019296871 0.8144003 0.0
000040 c9 50 3c 3e d4 60 c8 3d 75 b9 16 3d 2a f8 41 3f
       0.18390192 0.097840935 0.03679796 0.75769293
000050 ba e4 0b 3d da 38 0c 3f 00 00 00 00 ae ce 07 3d
       0.034153678 0.5477425 0.0 0.03315609
000060 fa e8 c1 3d d1 07 a2 3c 66 6b f3 3e 8b 97 76 3c
       0.09468265 0.019779118 0.47542876 0.015050779

exp_avg f4 [4]
000000 37 f9 99 3d bb 7d b3 bd 9a 13 66 3e 5d 51 59 be
       0.07518237 -0.087642156 0.22468415 -0.21222444

exp_avg_sq f4 [4]
000000 14 41 a1 3e 5c b2 0c 3f 4c 25 8d 3f 03 ad 2e 3f
       0.31494963 0.54959655 1.1027007 0.68232745
