result/saved_models/rl/reinforce/setcovering/checkpoint_trained_reward3_simplepolicy_rl4lb_reinforce_trainset_setcovering-small_0.1trainset_lr0.01_epochs72.pth (torch, 14251 bytes, 6 tensors)

linear1.0.weight f4 [4, 7]
0	0xbf86f7bc	-1.0544353
1	0x3f24da91	0.64396006
2	0x3f23f5f6	0.6404718
3	0x3f04d87c	0.5189283
4	0x3dc6ab6d	0.097006656
5	0xbf4ed34f	-0.8079118
6	0x3f430f00	0.76194763
7	0xbf736272	-0.9507209
8	0xbe91cb3a	-0.28475362
9	0x3e52ceac	0.20586652
10	0xbe822a13	-0.25422725
11	0x3e8b19fe	0.27168268
12	0xbed1a25a	-0.40944177
13	0x3da62e28	0.08114272
14	0x3f966aac	1.1751304
15	0xbcbf6eba	-0.023368228
16	0x3e07c11c	0.13257259
17	0xbee1d5f6	-0.44108552
18	0xbf30e305	-0.69096404
19	0x3f9cd924	1.2253766
20	0x3e6e3936	0.23264012
21	0x3cb5e2e7	0.022202922
22	0x3ca611e9	0.020272212
23	0xbf70bbc3	-0.940365
24	0x3ea8d978	0.32978415
25	0xbec55973	-0.38544807
26	0x3d12a1c2	0.035798796
27	0xbcf965f8	-0.03044413

linear1.0.bias f4 [4]
0	0x3e9f332d	0.31093732
1	0x3dc9718f	0.09836113
2	0x3eb26607	0.34843466
3	0xbf6b5796	-0.9193052

exp_avg f4 [4, 7]
0	0xbd25534b	-0.040362637
1	0x9a3adc1a	-3.8641695e-23
2	0x3d48fbc2	0.04906822
3	0x3d1bb841	0.038017515
4	0xbd6afdc3	-0.057370912
5	0xbd80eb32	-0.0629486
6	0x3d22bd83	0.039731514
7	0xbde1927f	-0.1101427
8	0x1ab2ad9f	7.3899575e-23
9	0x3d711c9d	0.05886518
10	0xbd260c7b	-0.040539246
11	0xbcb38231	-0.021912666
12	0xbd871a0e	-0.065967664
13	0x3d46a319	0.048495386
14	0x3ed6d490	0.41959047
15	0x99a06fea	-1.6588814e-23
16	0xbd60436f	-0.05475181
17	0x3a2b7d80	0.0006541833
18	0x3d19fc65	0.037594218
19	0x3ec37394	0.38174117
20	0xbd6643c6	-0.056216978
21	0xbe89c589	-0.2690852
22	0x99b48e8d	-1.866914e-23
23	0xbd59d4e4	-0.053181544
24	0x3af4c830	0.0018675383
25	0x3d2ac278	0.041689366
26	0xbe817245	-0.25282493
27	0xbd031cd1	-0.032009903

exp_avg_sq f4 [4, 7]
0	0x3e2c2c5b	0.16813795
1	0x38c84de5	9.551252e-05
2	0x3edac329	0.4272702
3	0x3e3bc8c5	0.18338306
4	0x3d5c3cab	0.053768795
5	0x3e1ae925	0.15128
6	0x3d196230	0.037447155
7	0x3eba52bf	0.36391255
8	0x39b725eb	0.0003493273
9	0x3ee637dd	0.44964495
10	0x3e3221d5	0.17395718
11	0x3d8a125d	0.06741784
12	0x3eb89bbf	0.36056325
13	0x3d2a5a59	0.04159007
14	0x3f78c426	0.971743
15	0x3793a983	1.76027e-05
16	0x3eecb144	0.46228993
17	0x3e27bc95	0.16380532
18	0x3d4ca207	0.04995921
19	0x3f69b067	0.91284794
20	0x3d671807	0.0564194
21	0x3f10c421	0.5654927
22	0x37bb0507	2.2294478e-05
23	0x3da2e8d1	0.079545625
24	0x3e131f99	0.14367522
25	0x3d0cfa7e	0.034418575
26	0x3efbad48	0.4915564
27	0x3caf3050	0.021385342

exp_avg f4 [4]
0	0x3d3f60b8	0.046723098
1	0xbdbc0a7a	-0.09181686
2	0x3ebb21e1	0.36549285
3	0xbea40b5e	-0.32039922

exp_avg_sq f4 [4]
0	0x3f5100ed	0.8164204
1	0x3f7b27d0	0.98107624
2	0x3fc5ffaa	1.5468647
3	0x3f4b66cd	0.79453737
