result/saved_models/rl/reinforce/t_policy/setcovering/t_node10s-t_total600s/checkpoint_trained_reward_t_simplepolicy_rl4lb_reinforce_trainset_setcovering-small_0.1trainset_lr0.01_epochs23.pth (torch, 7659 bytes, 6 tensors)

linear1.0.weight f4 [4, 7]
00000000: d807 61bf cfc6 113f f2c2 40be b936 db3d
00000010: 4889 54be 3dd2 1a3f c9c7 9a3d 35b4 e1be
00000020: b783 e03d c24a 86be bb15 363e fc74 073f
00000030: 6a77 8abf b91f c9be b7a2 a4be 986d 81bf
00000040: 3d5e 6d3f b624 963f c75c 5e3e 5464 e8be
00000050: b2b8 e33e dc25 d43e b1e4 1f3e eea7 c4be
00000060: 11b6 00be 8304 9bbd 2eeb fa3d 141f d6bc
-0.87902594 0.5694398 -0.18824366 0.10703797 -0.20755494 0.6047705 0.07557637 -0.440828
0.109626226 -0.2622891 0.17781727 0.5291288 -1.0817692 -0.39282015 -0.32155392 -1.011157
0.9272192 1.1729953 0.21715079 -0.45389044 0.4447685 0.41435134 0.15614583 -0.3840937
-0.12569453 -0.0756922 0.12251888 -0.026137866

linear1.0.bias f4 [4]
00000000: ed31 d9be dc69 a73e 6e3e cdbd 53c2 b23d
-0.42420903 0.32697952 -0.10021673 0.08728471

exp_avg f4 [4, 7]
00000000: 9454 c93d eee4 c1bc f6f5 8a3e c2cf 6cbd
00000010: b28c 8abd 3c9f 163e 9437 273d b7a0 e2bc
00000020: 565f fe3c 610e b0be 1a56 0b3c 2281 d7bc
00000030: dffa 29bd 6185 2dbd ec07 2a3e 5f51 9b3c
00000040: d7f8 a23e 305c 50be 64cb 7dbd f080 733c
00000050: d7d4 963d 1c5e 72be c5cb d7bc d5c0 7bbe
00000060: 606d 813e 54a9 1f3e 2cb1 f6bd f4ad 93bd
0.09830585 -0.023668732 0.27140778 -0.05781532 -0.06765117 0.1470918 0.040824488 -0.027664525
0.03105132 -0.3438597 0.008504415 -0.026306693 -0.041499015 -0.04236353 0.16604584 0.0189597
0.31830475 -0.20347667 -0.061961547 0.014862284 0.07364815 -0.23668712 -0.026342282 -0.24585278
0.2527876 0.15591937 -0.120455116 -0.07210913

exp_avg_sq f4 [4, 7]
00000000: 7a66 b03e 44e1 133b 778d f23c 7043 f53b
00000010: cfe5 973b 750e 9f3e 11cb f03a a071 703e
00000020: 65e8 273b b8f8 e63c 6a7d 853c 8745 1a3c
00000030: 9c4c 423e 6323 193b a6a0 e03e 2ad2 7a3a
00000040: cb69 3b3d 673f b13c bfa0 6a3c 8999 bb3e
00000050: a5ef 2c3b 5039 133f 1d7a 503b 2a88 c93c
00000060: 0ecd 7c3c 12b3 323c 06bc f43e a89d 873b
0.34453183 0.0022564689 0.029608471 0.007484846 0.0046355496 0.31065717 0.0018371065 0.23480844
0.0025620696 0.02819477 0.016295154 0.009415991 0.18974537 0.002336704 0.43872565 0.000956806
0.04575519 0.021636678 0.014320551 0.36640576 0.0026387956 0.57509327 0.0031811066 0.02460106
0.015429748 0.0109069515 0.477997 0.004138667

exp_avg f4 [4]
00000000: d292 933e c7f7 a9be c883 993e d31e 83be
0.28822953 -0.33196852 0.29983354 -0.25609455

exp_avg_sq f4 [4]
00000000: 2332 e53e 3f61 863e f8d2 023f e788 183f
0.44764814 0.26246068 0.5110316 0.59583896
