result/saved_models/rl/reinforce/t_policy/setcovering/t_node10s-t_total600s/checkpoint_rl4lb_trained_-t_policy-simplepolicy-reward_k+t_reinforce_0.1trainset_setcovering-large_firstsol_total_timelimit600s_lr0.1.pth (torch, 15621 bytes, 6 tensors)

linear1.0.weight f4 [4, 7]
0.7629765 0.5868384 0.4654706 0.56304157 -1.4730587 2.2935002 1.5407816 -0.1188323
0.07653477 0.029179085 0.1373675 1.8837655 -1.1572725 -0.92961705 -0.6852633 -0.9566274
0.4529305 0.7801494 1.3395685 -0.87442297 0.2026127 -1.5044395 0.109438576 -0.6282249
0.4987956 -1.4093726 -1.5502169 -0.89293957
00000000: 6e52 433f 0b3b 163f 2a52 ee3e 7e23 103f
00000010: 308d bcbf b5c8 1240 5538 c53f 595e f3bd
00000020: 43be 9c3d fa08 ef3c 11aa 0c3e 3a1f f13f
00000030: 8121 94bf 62fb 6dbf 6a6d 2fbf 89e5 74bf
00000040: 82e6 e73e dfb7 473f fb76 ab3f 2fda 5fbf
00000050: b479 4f3e 7991 c0bf 5521 e03d 59d3 20bf
00000060: 2362 ff3e 5266 b4bf 826d c6bf b097 64bf

linear1.0.bias f4 [4]
1.3371154 0.51961094 -0.8544164 -1.7352221
00000000: 9926 ab3f 3905 053f 08bb 5abf c21b debf

exp_avg f4 [4, 7]
-0.107562475 0.0 0.09722877 -0.1765997 -0.061243054 -0.093228444 -0.016861266 0.031092726
0.0 -0.04225967 0.10073784 0.039386097 0.047892906 0.017074823 0.051328294 0.0
-0.04904705 0.06892173 0.008742807 0.035560567 2.0038326e-05 0.025141463 0.0 -0.00592207
0.00694017 0.013114177 0.009774983 -0.00023359597
00000000: b749 dcbd 0000 0000 e11f c73d 8dd6 34be
00000010: ffd9 7abd 8eee bebd a320 8abc 2cb6 fe3c
00000020: 0000 0000 7a18 2dbd a44f ce3d 5153 213d
00000030: 5a2b 443d 80e0 8b3c 9e3d 523d 0000 0000
00000040: 8fe5 48bd d626 8d3d fe3d 0f3c f5a7 113d
00000050: fa17 a837 78f5 cd3c 0000 0000 ec0d c2bb
00000060: 5e6a e33b d8dc 563c 4027 203c 71f1 74b9

exp_avg_sq f4 [4, 7]
0.6750176 0.0 0.07554208 0.063745275 0.023780873 0.50062466 0.0023749415 0.4193084
0.0 0.040236756 0.06910758 0.026358305 0.31465298 0.0021828776 0.2623844 0.0
0.074368834 0.044913176 0.019700821 0.15355955 0.0017794621 0.21365105 0.0 0.011770284
0.0062172525 0.002768996 0.1540829 0.00031734267
00000000: f4cd 2c3f 0000 0000 ceb5 9a3d e28c 823d
00000010: 1bd0 c23c f028 003f e8a4 1b3b 97af d63e
00000020: 0000 0000 4ccf 243d 4688 8d3d 5fed d73c
00000030: 321a a13e 9c0e 0f3b 4057 863e 0000 0000
00000040: b04e 983d e1f6 373d 9e63 a13c b73e 1d3e
00000050: d73c e93a 57c7 5a3e 0000 0000 26d8 403c
00000060: 18ba cb3b 0b78 353b e8c7 1d3e 0361 a639

exp_avg f4 [4]
-0.18693337 0.08957083 0.07120305 0.026159573
00000000: 766b 3fbe e970 b73d e8d2 913d 9a4c d63c

exp_avg_sq f4 [4]
0.84333235 0.5445811 0.37355316 0.23124416
00000000: a1e4 573f ab69 0b3f 5c42 bf3e 45cb 6c3e
