result/saved_models/rl/reinforce/t_policy/setcovering/t_node10s-t_total600s/checkpoint_rl4lb_trained_-t_policy-simplepolicy-reward_t_reinforce_0.1trainset_setcovering-small_firstsol_total_timelimit600s_lr0.1.pth (torch, 50693 bytes, 6 tensors)

linear1.0.weight f4 [4, 7]
2.5600612 0.5868384 -0.17958263 -1.8573945 -0.58677113 0.8363692 1.2037368 -1.1067295
0.07653477 -0.825222 3.8242826 1.2898241 -1.0753653 0.3470864 -1.2600332 -0.9566274
3.7409558 -0.7736182 -0.35027543 0.68757635 -0.43422103 -0.6242657 0.109438576 -2.1688142
-0.16712725 -0.034550462 -0.36136866 -0.15648627
00000000: 0bd8 2340 0b3b 163f 82e4 37be 1abf edbf
00000010: a236 16bf 4b1c 563f 0c14 9a3f 50a9 8dbf
00000020: 43be 9c3d c041 53bf 0cc1 7440 f518 a53f
00000030: 92a5 89bf 4fb5 b13e c548 a1bf 89e5 74bf
00000040: d26b 6f40 d80b 46bf 4d57 b3be 0105 303f
00000050: 3852 debe e0cf 1fbf 5521 e03d dacd 0ac0
00000060: 6823 2bbe c984 0dbd 5005 b9be f03d 20be

linear1.0.bias f4 [4]
0.080163 1.5865855 0.6839911 -1.433904
00000000: 802c a43d 3c15 cb3f 0a1a 2f3f 2b8a b7bf

exp_avg f4 [4, 7]
-0.4257679 0.0 0.17458701 0.0039701876 0.0007073598 -0.18470623 -0.05878416 0.1634603
0.0 -0.00871059 -0.030988498 -0.005486839 0.16703369 0.014616124 0.19692107 0.0
-0.16598551 0.020426644 0.0032928002 -0.04649341 0.03778456 0.06538651 0.0 0.00010905418
0.0065916604 0.0014866795 0.064165965 0.006383471
00000000: 40fe d9be 0000 0000 f0c6 323e 5918 823b
00000010: 1d6e 393a a123 3dbe a9c7 70bd 2362 273e
00000020: 0000 0000 ddb6 0ebc 97db fdbc f1ca b3bb
00000030: e10a 2b3e 7878 6f3c ada5 493e 0000 0000
00000040: 1bf8 29be c755 a73c 05cc 573b e06f 3ebd
00000050: fcc3 1a3d 5de9 853d 0000 0000 04b4 e438
00000060: dbfe d73b b0dc c23a 7269 833d 702c d13b

exp_avg_sq f4 [4, 7]
0.25101557 0.0 1.259679 0.063031934 0.019718643 0.56476825 0.020528257 0.19673824
0.0 1.223352 0.2552597 0.08580159 0.45209762 0.018084977 0.23271334 0.0
0.77292615 0.32655898 0.124744155 0.38719723 0.011696728 0.26629627 0.0 0.10686037
0.21510449 0.0796972 0.20577177 0.0054299464
00000000: 1d85 803e 0000 0000 293d a13f e316 813d
00000010: fe88 a13c a794 103f e02a a83c c075 493e
00000020: 0000 0000 cc96 9c3f 66b1 823e beb8 af3d
00000030: 5779 e73e f226 943c 684c 6e3e 0000 0000
00000040: 7dde 453f bd32 a73e dd79 ff3d b73e c63e
00000050: a2a3 3f3c fc57 883e 0000 0000 9cd9 da3d
00000060: 5a44 5c3e 4938 a33d d6b5 523e b1ed b13b

exp_avg f4 [4]
-0.2472107 0.12376121 0.05136222 0.072087236
00000000: cd24 7dbe 8476 fd3d 3161 523d 79a2 933d

exp_avg_sq f4 [4]
1.5896304 1.6608195 1.218067 0.60240066
00000000: 0279 cb3f bc95 d43f 9fe9 9b3f ee36 1a3f
