result/saved_models/rl_noimitation/checkpoint_noimitation_reward3_simplepolicy_rl4lb_reinforce_lr0.01_epsilon0.0.pth (torch, 18475 bytes, 6 tensors)

linear1.0.weight f4 [4, 7]
0	0xbf8f4ddf	-1.1195639
1	0x3f622fdd	0.88354284
2	0x3f4bd292	0.7961818
3	0xbe713ee0	-0.23559141
4	0x3e5fe22f	0.21863626
5	0xbf4a76b7	-0.79087394
6	0x3ebefc66	0.3730194
7	0xbf421f33	-0.75828856
8	0x3c8c6b7f	0.017141102
9	0xbeac4768	-0.3364823
10	0xbe1d12ad	-0.15339155
11	0x3e77a42d	0.24183722
12	0xbd38f81a	-0.045158483
13	0x3d98641b	0.074409686
14	0x3f2018f1	0.6253806
15	0xbed9adee	-0.4251551
16	0x3f0a6604	0.54061913
17	0xbf098cc6	-0.5373043
18	0xbf1c1695	-0.6097196
19	0x3f39873f	0.72471994
20	0x3e63caf1	0.22245385
21	0x3f09078f	0.5352716
22	0xbedd6467	-0.43240663
23	0xbf536fbe	-0.8259238
24	0x3f8b5f05	1.0888373
25	0xbf64bdde	-0.89352214
26	0x3ec2370f	0.3793263
27	0x3e85172f	0.2599425

linear1.0.bias f4 [4]
0	0x3e589589	0.21150793
1	0x3e286070	0.16443038
2	0xbc91f16c	-0.017815314
3	0xbe912007	-0.28344747

exp_avg f4 [4, 7]
0	0x3d426edc	0.047469005
1	0x3cb2ccf6	0.021826249
2	0x3d2f57ae	0.042808227
3	0x3d0511c3	0.032487642
4	0xbd0d1754	-0.034446076
5	0x3dd78d8d	0.105250455
6	0x3b244f16	0.0025071553
7	0x3e37591b	0.17905085
8	0x3cf9c277	0.030488236
9	0x3c8145cf	0.015780358
10	0xbc267bb8	-0.010161333
11	0x3caaa93f	0.020832656
12	0x3e23dcf4	0.16002256
13	0x3c03c80b	0.008043299
14	0xbefb75c0	-0.49113274
15	0xbd9877b5	-0.07444707
16	0xbd540dbf	-0.05177092
17	0xbbc314ac	-0.005953392
18	0xbc9e66d5	-0.019336144
19	0xbef653bc	-0.4811076
20	0xbc85d2be	-0.016335841
21	0x3e877b56	0.26461285
22	0x3cb54f79	0.022132622
23	0xbbdf66ff	-0.006817698
24	0xbc862081	-0.016372921
25	0x3d06f621	0.03294957
26	0x3e5d03bc	0.21583456
27	0x3bbd935e	0.00578539

exp_avg_sq f4 [4, 7]
0	0x3e0b2ab2	0.13590506
1	0x3d765e73	0.060148668
2	0x3dbd99d5	0.09257857
3	0x3bd012fc	0.0063499194
4	0x3d0396d4	0.032126263
5	0x3e29ae99	0.1657051
6	0x39a09196	0.00030626048
7	0x3f004695	0.501077
8	0x3dbfd5e8	0.09366971
9	0x3dde5057	0.10855167
10	0x3c1ae754	0.009454567
11	0x3d53c192	0.051698275
12	0x3f08ce78	0.53440046
13	0x3a55f5c1	0.00081619254
14	0x3f8a4880	1.0803375
15	0x3dab63dd	0.08368657
16	0x3e021f89	0.12707342
17	0x3bb12466	0.0054059504
18	0x3d161c1f	0.036647912
19	0x3f830e61	1.0238763
20	0x3ad46dec	0.0016207076
21	0x3f6c428e	0.92289054
22	0x3d468b3b	0.048472624
23	0x3ce76bab	0.028249582
24	0x3bec1298	0.007204365
25	0x3cfea06d	0.031082356
26	0x3f3c0167	0.7343964
27	0x3aa38e8f	0.0012478399

exp_avg f4 [4]
0	0x3e140fb4	0.14459115
1	0x3e5c526a	0.21515813
2	0xbf1f90dc	-0.6233041
3	0x3e86f0a8	0.2635548

exp_avg_sq f4 [4]
0	0x3e952085	0.29126373
1	0x3f385126	0.7199882
2	0x3fa8c7cc	1.3185973
3	0x3f62f995	0.8866208
